#map0 = affine_map<(d0, d1, d2, d3) -> (d0, d1, d2, d3)>
#map1 = affine_map<(d0, d1, d2, d3) -> (d0, d2, d3, d1)>
#map2 = affine_map<(d0, d1, d2, d3) -> (d0, d1)>
#map3 = affine_map<(d0, d1) -> (d0, d1)>
#map4 = affine_map<(d0, d1) -> (d0)>

module{
func.func @main() {

  %0 = arith.constant dense<1.000000e+00> : tensor<1x224x224x3xf32>
  %2 = call @predict(%0) : (tensor<1x224x224x3xf32>) -> tensor<1x1000xf32>
  %unranked = tensor.cast %2 : tensor<1x1000xf32> to tensor<*xf32>
  call @printMemrefF32(%unranked) : (tensor<*xf32>) -> ()
  return
}

func.func private @printMemrefF32(%ptr : tensor<*xf32>)

func.func @predict(%arg0: tensor<1x224x224x3xf32>) -> tensor<1x1000xf32> {
  %cst = arith.constant dense<5.000000e-01> : tensor<1x112x112x64xf32>
  %cst_0 = arith.constant dense<0.408260554> : tensor<1x112x112x64xf32>
  %cst_1 = arith.constant dense<0.333333343> : tensor<1x112x112x64xf32>
  %cst_2 = arith.constant dense<2.500000e-01> : tensor<1x112x112x64xf32>
  %cst_3 = arith.constant dense<2.000000e-01> : tensor<1x112x112x64xf32>
  %cst_4 = arith.constant dense<5.000000e-02> : tensor<1x56x56x256xf32>
  %cst_5 = arith.constant dense<0.19614166> : tensor<1x56x56x256xf32>
  %cst_6 = arith.constant dense<0.0434782617> : tensor<1x56x56x256xf32>
  %cst_7 = arith.constant dense<0.0416666679> : tensor<1x56x56x256xf32>
  %cst_8 = arith.constant dense<4.000000e-02> : tensor<1x56x56x256xf32>
  %cst_9 = arith.constant dense<1.250000e-01> : tensor<1x56x56x64xf32>
  %cst_10 = arith.constant dense<0.288692474> : tensor<1x56x56x64xf32>
  %cst_11 = arith.constant dense<0.111111112> : tensor<1x56x56x64xf32>
  %cst_12 = arith.constant dense<1.000000e-01> : tensor<1x56x56x64xf32>
  %cst_13 = arith.constant dense<0.0909090936> : tensor<1x56x56x64xf32>
  %cst_14 = arith.constant dense<0.0714285746> : tensor<1x56x56x64xf32>
  %cst_15 = arith.constant dense<0.235723495> : tensor<1x56x56x64xf32>
  %cst_16 = arith.constant dense<0.0666666701> : tensor<1x56x56x64xf32>
  %cst_17 = arith.constant dense<6.250000e-02> : tensor<1x56x56x64xf32>
  %cst_18 = arith.constant dense<0.0588235296> : tensor<1x56x56x64xf32>
  %cst_19 = arith.constant dense<0.0454545468> : tensor<1x56x56x256xf32>
  %cst_20 = arith.constant dense<0.182601601> : tensor<1x56x56x256xf32>
  %cst_21 = arith.constant dense<0.0370370373> : tensor<1x56x56x256xf32>
  %cst_22 = arith.constant dense<0.0357142873> : tensor<1x56x56x256xf32>
  %cst_23 = arith.constant dense<0.0344827585> : tensor<1x56x56x256xf32>
  %cst_24 = arith.constant dense<3.125000e-02> : tensor<1x56x56x64xf32>
  %cst_25 = arith.constant dense<0.166696697> : tensor<1x56x56x64xf32>
  %cst_26 = arith.constant dense<0.0303030312> : tensor<1x56x56x64xf32>
  %cst_27 = arith.constant dense<0.0294117648> : tensor<1x56x56x64xf32>
  %cst_28 = arith.constant dense<0.0285714287> : tensor<1x56x56x64xf32>
  %cst_29 = arith.constant dense<0.0263157897> : tensor<1x56x56x64xf32>
  %cst_30 = arith.constant dense<0.154335782> : tensor<1x56x56x64xf32>
  %cst_31 = arith.constant dense<0.025641026> : tensor<1x56x56x64xf32>
  %cst_32 = arith.constant dense<2.500000e-02> : tensor<1x56x56x64xf32>
  %cst_33 = arith.constant dense<0.024390243> : tensor<1x56x56x64xf32>
  %cst_34 = arith.constant dense<0.0227272734> : tensor<1x56x56x256xf32>
  %cst_35 = arith.constant dense<0.14437224> : tensor<1x56x56x256xf32>
  %cst_36 = arith.constant dense<0.0222222228> : tensor<1x56x56x256xf32>
  %cst_37 = arith.constant dense<0.0217391308> : tensor<1x56x56x256xf32>
  %cst_38 = arith.constant dense<0.0212765951> : tensor<1x56x56x256xf32>
  %cst_39 = arith.constant dense<2.000000e-02> : tensor<1x56x56x64xf32>
  %cst_40 = arith.constant dense<0.136119545> : tensor<1x56x56x64xf32>
  %cst_41 = arith.constant dense<0.0196078438> : tensor<1x56x56x64xf32>
  %cst_42 = arith.constant dense<0.0192307699> : tensor<1x56x56x64xf32>
  %cst_43 = arith.constant dense<0.0188679248> : tensor<1x56x56x64xf32>
  %cst_44 = arith.constant dense<0.0178571437> : tensor<1x56x56x64xf32>
  %cst_45 = arith.constant dense<0.129138216> : tensor<1x56x56x64xf32>
  %cst_46 = arith.constant dense<0.0175438598> : tensor<1x56x56x64xf32>
  %cst_47 = arith.constant dense<0.0172413792> : tensor<1x56x56x64xf32>
  %cst_48 = arith.constant dense<0.0169491526> : tensor<1x56x56x64xf32>
  %cst_49 = arith.constant dense<0.0161290318> : tensor<1x56x56x256xf32>
  %cst_50 = arith.constant dense<0.123132147> : tensor<1x56x56x256xf32>
  %cst_51 = arith.constant dense<0.0158730168> : tensor<1x56x56x256xf32>
  %cst_52 = arith.constant dense<1.562500e-02> : tensor<1x56x56x256xf32>
  %cst_53 = arith.constant dense<0.0153846154> : tensor<1x56x56x256xf32>
  %cst_54 = arith.constant dense<1.250000e-02> : tensor<1x28x28x512xf32>
  %cst_55 = arith.constant dense<0.107879177> : tensor<1x28x28x512xf32>
  %cst_56 = arith.constant dense<0.0120481923> : tensor<1x28x28x512xf32>
  %cst_57 = arith.constant dense<0.0119047621> : tensor<1x28x28x512xf32>
  %cst_58 = arith.constant dense<0.0117647061> : tensor<1x28x28x512xf32>
  %cst_59 = arith.constant dense<0.0147058824> : tensor<1x28x28x128xf32>
  %cst_60 = arith.constant dense<0.117893592> : tensor<1x28x28x128xf32>
  %cst_61 = arith.constant dense<0.0144927539> : tensor<1x28x28x128xf32>
  %cst_62 = arith.constant dense<0.0142857144> : tensor<1x28x28x128xf32>
  %cst_63 = arith.constant dense<0.0140845068> : tensor<1x28x28x128xf32>
  %cst_64 = arith.constant dense<0.0135135138> : tensor<1x28x28x128xf32>
  %cst_65 = arith.constant dense<0.1132719> : tensor<1x28x28x128xf32>
  %cst_66 = arith.constant dense<0.0133333337> : tensor<1x28x28x128xf32>
  %cst_67 = arith.constant dense<0.0131578948> : tensor<1x28x28x128xf32>
  %cst_68 = arith.constant dense<0.012987013> : tensor<1x28x28x128xf32>
  %cst_69 = arith.constant dense<0.0121951215> : tensor<1x28x28x512xf32>
  %cst_70 = arith.constant dense<0.105456725> : tensor<1x28x28x512xf32>
  %cst_71 = arith.constant dense<0.0114942528> : tensor<1x28x28x512xf32>
  %cst_72 = arith.constant dense<0.0113636367> : tensor<1x28x28x512xf32>
  %cst_73 = arith.constant dense<0.0112359552> : tensor<1x28x28x512xf32>
  %cst_74 = arith.constant dense<0.0108695654> : tensor<1x28x28x128xf32>
  %cst_75 = arith.constant dense<0.102111101> : tensor<1x28x28x128xf32>
  %cst_76 = arith.constant dense<0.0107526882> : tensor<1x28x28x128xf32>
  %cst_77 = arith.constant dense<0.0106382975> : tensor<1x28x28x128xf32>
  %cst_78 = arith.constant dense<0.0105263162> : tensor<1x28x28x128xf32>
  %cst_79 = arith.constant dense<0.0102040814> : tensor<1x28x28x128xf32>
  %cst_80 = arith.constant dense<0.0990652889> : tensor<1x28x28x128xf32>
  %cst_81 = arith.constant dense<0.0101010101> : tensor<1x28x28x128xf32>
  %cst_82 = arith.constant dense<0.00999999977> : tensor<1x28x28x128xf32>
  %cst_83 = arith.constant dense<9.900990e-03> : tensor<1x28x28x128xf32>
  %cst_84 = arith.constant dense<0.00961538497> : tensor<1x28x28x512xf32>
  %cst_85 = arith.constant dense<0.0962770432> : tensor<1x28x28x512xf32>
  %cst_86 = arith.constant dense<9.523810e-03> : tensor<1x28x28x512xf32>
  %cst_87 = arith.constant dense<0.0094339624> : tensor<1x28x28x512xf32>
  %cst_88 = arith.constant dense<0.00934579409> : tensor<1x28x28x512xf32>
  %cst_89 = arith.constant dense<0.0090909088> : tensor<1x28x28x128xf32>
  %cst_90 = arith.constant dense<9.371200e-02> : tensor<1x28x28x128xf32>
  %cst_91 = arith.constant dense<0.00900900922> : tensor<1x28x28x128xf32>
  %cst_92 = arith.constant dense<0.00892857183> : tensor<1x28x28x128xf32>
  %cst_93 = arith.constant dense<0.00884955748> : tensor<1x28x28x128xf32>
  %cst_94 = arith.constant dense<8.620690e-03> : tensor<1x28x28x128xf32>
  %cst_95 = arith.constant dense<0.0913419052> : tensor<1x28x28x128xf32>
  %cst_96 = arith.constant dense<0.00854700897> : tensor<1x28x28x128xf32>
  %cst_97 = arith.constant dense<0.00847457629> : tensor<1x28x28x128xf32>
  %cst_98 = arith.constant dense<0.00840336177> : tensor<1x28x28x128xf32>
  %cst_99 = arith.constant dense<0.00819672085> : tensor<1x28x28x512xf32>
  %cst_100 = arith.constant dense<0.0891432464> : tensor<1x28x28x512xf32>
  %cst_101 = arith.constant dense<0.008130081> : tensor<1x28x28x512xf32>
  %cst_102 = arith.constant dense<0.00806451589> : tensor<1x28x28x512xf32>
  %cst_103 = arith.constant dense<8.000000e-03> : tensor<1x28x28x512xf32>
  %cst_104 = arith.constant dense<7.812500e-03> : tensor<1x28x28x128xf32>
  %cst_105 = arith.constant dense<0.0870963111> : tensor<1x28x28x128xf32>
  %cst_106 = arith.constant dense<0.00775193795> : tensor<1x28x28x128xf32>
  %cst_107 = arith.constant dense<0.0076923077> : tensor<1x28x28x128xf32>
  %cst_108 = arith.constant dense<0.00763358781> : tensor<1x28x28x128xf32>
  %cst_109 = arith.constant dense<0.00746268639> : tensor<1x28x28x128xf32>
  %cst_110 = arith.constant dense<0.0851844251> : tensor<1x28x28x128xf32>
  %cst_111 = arith.constant dense<0.00740740728> : tensor<1x28x28x128xf32>
  %cst_112 = arith.constant dense<0.0073529412> : tensor<1x28x28x128xf32>
  %cst_113 = arith.constant dense<7.299270e-03> : tensor<1x28x28x128xf32>
  %cst_114 = arith.constant dense<0.00714285718> : tensor<1x28x28x512xf32>
  %cst_115 = arith.constant dense<0.0833933725> : tensor<1x28x28x512xf32>
  %cst_116 = arith.constant dense<0.00709219835> : tensor<1x28x28x512xf32>
  %cst_117 = arith.constant dense<0.00704225338> : tensor<1x28x28x512xf32>
  %cst_118 = arith.constant dense<0.00699300691> : tensor<1x28x28x512xf32>
  %cst_119 = arith.constant dense<0.00632911408> : tensor<1x14x14x1024xf32>
  %cst_120 = arith.constant dense<0.0781509503> : tensor<1x14x14x1024xf32>
  %cst_121 = arith.constant dense<0.00621118024> : tensor<1x14x14x1024xf32>
  %cst_122 = arith.constant dense<0.00617283955> : tensor<1x14x14x1024xf32>
  %cst_123 = arith.constant dense<0.00613496918> : tensor<1x14x14x1024xf32>
  %cst_124 = arith.constant dense<0.00684931502> : tensor<1x14x14x256xf32>
  %cst_125 = arith.constant dense<0.0817109346> : tensor<1x14x14x256xf32>
  %cst_126 = arith.constant dense<0.00680272094> : tensor<1x14x14x256xf32>
  %cst_127 = arith.constant dense<0.00675675692> : tensor<1x14x14x256xf32>
  %cst_128 = arith.constant dense<0.00671140943> : tensor<1x14x14x256xf32>
  %cst_129 = arith.constant dense<0.00657894742> : tensor<1x14x14x256xf32>
  %cst_130 = arith.constant dense<0.0801265612> : tensor<1x14x14x256xf32>
  %cst_131 = arith.constant dense<0.00653594779> : tensor<1x14x14x256xf32>
  %cst_132 = arith.constant dense<0.00649350649> : tensor<1x14x14x256xf32>
  %cst_133 = arith.constant dense<0.0064516128> : tensor<1x14x14x256xf32>
  %cst_134 = arith.constant dense<6.250000e-03> : tensor<1x14x14x1024xf32>
  %cst_135 = arith.constant dense<0.0772165209> : tensor<1x14x14x1024xf32>
  %cst_136 = arith.constant dense<0.00606060587> : tensor<1x14x14x1024xf32>
  %cst_137 = arith.constant dense<0.00602409616> : tensor<1x14x14x1024xf32>
  %cst_138 = arith.constant dense<0.00598802418> : tensor<1x14x14x1024xf32>
  %cst_139 = arith.constant dense<0.00588235306> : tensor<1x14x14x256xf32>
  %cst_140 = arith.constant dense<7.587580e-02> : tensor<1x14x14x256xf32>
  %cst_141 = arith.constant dense<0.00584795326> : tensor<1x14x14x256xf32>
  %cst_142 = arith.constant dense<0.00581395347> : tensor<1x14x14x256xf32>
  %cst_143 = arith.constant dense<0.00578034669> : tensor<1x14x14x256xf32>
  %cst_144 = arith.constant dense<0.00568181835> : tensor<1x14x14x256xf32>
  %cst_145 = arith.constant dense<0.0746027157> : tensor<1x14x14x256xf32>
  %cst_146 = arith.constant dense<0.00564971752> : tensor<1x14x14x256xf32>
  %cst_147 = arith.constant dense<0.00561797759> : tensor<1x14x14x256xf32>
  %cst_148 = arith.constant dense<0.00558659201> : tensor<1x14x14x256xf32>
  %cst_149 = arith.constant dense<0.00549450563> : tensor<1x14x14x1024xf32>
  %cst_150 = arith.constant dense<0.0733917803> : tensor<1x14x14x1024xf32>
  %cst_151 = arith.constant dense<0.00546448072> : tensor<1x14x14x1024xf32>
  %cst_152 = arith.constant dense<0.00543478271> : tensor<1x14x14x1024xf32>
  %cst_153 = arith.constant dense<0.00540540554> : tensor<1x14x14x1024xf32>
  %cst_154 = arith.constant dense<0.00531914877> : tensor<1x14x14x256xf32>
  %cst_155 = arith.constant dense<7.223810e-02> : tensor<1x14x14x256xf32>
  %cst_156 = arith.constant dense<0.00529100513> : tensor<1x14x14x256xf32>
  %cst_157 = arith.constant dense<0.00526315812> : tensor<1x14x14x256xf32>
  %cst_158 = arith.constant dense<0.00523560215> : tensor<1x14x14x256xf32>
  %cst_159 = arith.constant dense<0.00515463902> : tensor<1x14x14x256xf32>
  %cst_160 = arith.constant dense<0.0711372942> : tensor<1x14x14x256xf32>
  %cst_161 = arith.constant dense<0.00512820529> : tensor<1x14x14x256xf32>
  %cst_162 = arith.constant dense<0.00510204071> : tensor<1x14x14x256xf32>
  %cst_163 = arith.constant dense<0.00507614203> : tensor<1x14x14x256xf32>
  %cst_164 = arith.constant dense<5.000000e-03> : tensor<1x14x14x1024xf32>
  %cst_165 = arith.constant dense<0.070085451> : tensor<1x14x14x1024xf32>
  %cst_166 = arith.constant dense<0.00497512426> : tensor<1x14x14x1024xf32>
  %cst_167 = arith.constant dense<0.00495049497> : tensor<1x14x14x1024xf32>
  %cst_168 = arith.constant dense<0.00492610829> : tensor<1x14x14x1024xf32>
  %cst_169 = arith.constant dense<0.00485436898> : tensor<1x14x14x256xf32>
  %cst_170 = arith.constant dense<0.0690790489> : tensor<1x14x14x256xf32>
  %cst_171 = arith.constant dense<0.00483091781> : tensor<1x14x14x256xf32>
  %cst_172 = arith.constant dense<0.00480769249> : tensor<1x14x14x256xf32>
  %cst_173 = arith.constant dense<0.00478468882> : tensor<1x14x14x256xf32>
  %cst_174 = arith.constant dense<0.0047169812> : tensor<1x14x14x256xf32>
  %cst_175 = arith.constant dense<6.811490e-02> : tensor<1x14x14x256xf32>
  %cst_176 = arith.constant dense<0.00469483575> : tensor<1x14x14x256xf32>
  %cst_177 = arith.constant dense<0.00467289705> : tensor<1x14x14x256xf32>
  %cst_178 = arith.constant dense<0.00465116277> : tensor<1x14x14x256xf32>
  %cst_179 = arith.constant dense<0.00458715577> : tensor<1x14x14x1024xf32>
  %cst_180 = arith.constant dense<0.067190133> : tensor<1x14x14x1024xf32>
  %cst_181 = arith.constant dense<4.566210e-03> : tensor<1x14x14x1024xf32>
  %cst_182 = arith.constant dense<0.0045454544> : tensor<1x14x14x1024xf32>
  %cst_183 = arith.constant dense<0.00452488707> : tensor<1x14x14x1024xf32>
  %cst_184 = arith.constant dense<0.00446428591> : tensor<1x14x14x256xf32>
  %cst_185 = arith.constant dense<0.0663021504> : tensor<1x14x14x256xf32>
  %cst_186 = arith.constant dense<0.00444444455> : tensor<1x14x14x256xf32>
  %cst_187 = arith.constant dense<0.00442477874> : tensor<1x14x14x256xf32>
  %cst_188 = arith.constant dense<0.00440528616> : tensor<1x14x14x256xf32>
  %cst_189 = arith.constant dense<0.00434782589> : tensor<1x14x14x256xf32>
  %cst_190 = arith.constant dense<0.0654485598> : tensor<1x14x14x256xf32>
  %cst_191 = arith.constant dense<0.00432900432> : tensor<1x14x14x256xf32>
  %cst_192 = arith.constant dense<0.00431034481> : tensor<1x14x14x256xf32>
  %cst_193 = arith.constant dense<0.00429184549> : tensor<1x14x14x256xf32>
  %cst_194 = arith.constant dense<0.00423728814> : tensor<1x14x14x1024xf32>
  %cst_195 = arith.constant dense<0.0646272153> : tensor<1x14x14x1024xf32>
  %cst_196 = arith.constant dense<0.00421940908> : tensor<1x14x14x1024xf32>
  %cst_197 = arith.constant dense<0.00420168089> : tensor<1x14x14x1024xf32>
  %cst_198 = arith.constant dense<0.00418410031> : tensor<1x14x14x1024xf32>
  %cst_199 = arith.constant dense<0.00413223123> : tensor<1x14x14x256xf32>
  %cst_200 = arith.constant dense<0.0638361201> : tensor<1x14x14x256xf32>
  %cst_201 = arith.constant dense<0.00411522621> : tensor<1x14x14x256xf32>
  %cst_202 = arith.constant dense<0.00409836043> : tensor<1x14x14x256xf32>
  %cst_203 = arith.constant dense<0.00408163248> : tensor<1x14x14x256xf32>
  %cst_204 = arith.constant dense<0.00403225794> : tensor<1x14x14x256xf32>
  %cst_205 = arith.constant dense<0.0630734786> : tensor<1x14x14x256xf32>
  %cst_206 = arith.constant dense<0.00401606411> : tensor<1x14x14x256xf32>
  %cst_207 = arith.constant dense<4.000000e-03> : tensor<1x14x14x256xf32>
  %cst_208 = arith.constant dense<0.00398406386> : tensor<1x14x14x256xf32>
  %cst_209 = arith.constant dense<0.00393700786> : tensor<1x14x14x1024xf32>
  %cst_210 = arith.constant dense<0.062337622> : tensor<1x14x14x1024xf32>
  %cst_211 = arith.constant dense<0.00392156886> : tensor<1x14x14x1024xf32>
  %cst_212 = arith.constant dense<3.906250e-03> : tensor<1x14x14x1024xf32>
  %cst_213 = arith.constant dense<0.00389105058> : tensor<1x14x14x1024xf32>
  %cst_214 = arith.constant dense<0.0036764706> : tensor<1x7x7x2048xf32>
  %cst_215 = arith.constant dense<0.0600594096> : tensor<1x7x7x2048xf32>
  %cst_216 = arith.constant dense<0.00363636366> : tensor<1x7x7x2048xf32>
  %cst_217 = arith.constant dense<0.00362318847> : tensor<1x7x7x2048xf32>
  %cst_218 = arith.constant dense<0.00361010828> : tensor<1x7x7x2048xf32>
  %cst_219 = arith.constant dense<0.00384615385> : tensor<1x7x7x512xf32>
  %cst_220 = arith.constant dense<0.0616270155> : tensor<1x7x7x512xf32>
  %cst_221 = arith.constant dense<0.00383141753> : tensor<1x7x7x512xf32>
  %cst_222 = arith.constant dense<0.00381679391> : tensor<1x7x7x512xf32>
  %cst_223 = arith.constant dense<0.00380228134> : tensor<1x7x7x512xf32>
  %cst_224 = arith.constant dense<0.00375939859> : tensor<1x7x7x512xf32>
  %cst_225 = arith.constant dense<0.060940247> : tensor<1x7x7x512xf32>
  %cst_226 = arith.constant dense<0.00374531839> : tensor<1x7x7x512xf32>
  %cst_227 = arith.constant dense<0.0037313432> : tensor<1x7x7x512xf32>
  %cst_228 = arith.constant dense<0.00371747208> : tensor<1x7x7x512xf32>
  %cst_229 = arith.constant dense<0.00364963501> : tensor<1x7x7x2048xf32>
  %cst_230 = arith.constant dense<0.0596331209> : tensor<1x7x7x2048xf32>
  %cst_231 = arith.constant dense<0.00358422939> : tensor<1x7x7x2048xf32>
  %cst_232 = arith.constant dense<0.00357142859> : tensor<1x7x7x2048xf32>
  %cst_233 = arith.constant dense<0.00355871883> : tensor<1x7x7x2048xf32>
  %cst_234 = arith.constant dense<0.00352112669> : tensor<1x7x7x512xf32>
  %cst_235 = arith.constant dense<0.0590104423> : tensor<1x7x7x512xf32>
  %cst_236 = arith.constant dense<0.003508772> : tensor<1x7x7x512xf32>
  %cst_237 = arith.constant dense<0.00349650346> : tensor<1x7x7x512xf32>
  %cst_238 = arith.constant dense<0.00348432059> : tensor<1x7x7x512xf32>
  %cst_239 = arith.constant dense<0.00344827585> : tensor<1x7x7x512xf32>
  %cst_240 = arith.constant dense<0.0584069379> : tensor<1x7x7x512xf32>
  %cst_241 = arith.constant dense<0.00343642617> : tensor<1x7x7x512xf32>
  %cst_242 = arith.constant dense<0.00342465751> : tensor<1x7x7x512xf32>
  %cst_243 = arith.constant dense<0.00341296918> : tensor<1x7x7x512xf32>
  %cst_244 = arith.constant dense<0.00337837846> : tensor<1x7x7x2048xf32>
  %cst_245 = arith.constant dense<0.0578216538> : tensor<1x7x7x2048xf32>
  %cst_246 = arith.constant dense<0.00336700329> : tensor<1x7x7x2048xf32>
  %cst_247 = arith.constant dense<0.00335570471> : tensor<1x7x7x2048xf32>
  %cst_248 = arith.constant dense<0.00334448158> : tensor<1x7x7x2048xf32>
  %cst_249 = arith.constant dense<0.00331125828> : tensor<1x7x7x512xf32>
  %cst_250 = arith.constant dense<0.0572536811> : tensor<1x7x7x512xf32>
  %cst_251 = arith.constant dense<0.00330033014> : tensor<1x7x7x512xf32>
  %cst_252 = arith.constant dense<0.00328947371> : tensor<1x7x7x512xf32>
  %cst_253 = arith.constant dense<0.00327868853> : tensor<1x7x7x512xf32>
  %cst_254 = arith.constant dense<0.00324675324> : tensor<1x7x7x512xf32>
  %cst_255 = arith.constant dense<0.0567021891> : tensor<1x7x7x512xf32>
  %cst_256 = arith.constant dense<0.00323624606> : tensor<1x7x7x512xf32>
  %cst_257 = arith.constant dense<0.0032258064> : tensor<1x7x7x512xf32>
  %cst_258 = arith.constant dense<0.00321543403> : tensor<1x7x7x512xf32>
  %cst_259 = arith.constant dense<0.00318471342> : tensor<1x7x7x2048xf32>
  %cst_260 = arith.constant dense<0.0561663955> : tensor<1x7x7x2048xf32>
  %cst_261 = arith.constant dense<0.00317460322> : tensor<1x7x7x2048xf32>
  %cst_262 = arith.constant dense<0.00316455704> : tensor<1x7x7x2048xf32>
  %cst_263 = arith.constant dense<0.00315457419> : tensor<1x7x7x2048xf32>
  %cst_264 = arith.constant dense<3.125000e-03> : tensor<1x1000xf32>
  %cst_265 = arith.constant dense<0.000000e+00> : tensor<1x112x112x64xf32>
  %cst_266 = arith.constant dense<0.000000e+00> : tensor<1x56x56x64xf32>
  %cst_267 = arith.constant dense<0.000000e+00> : tensor<1x56x56x256xf32>
  %cst_268 = arith.constant dense<0.000000e+00> : tensor<1x28x28x128xf32>
  %cst_269 = arith.constant dense<0.000000e+00> : tensor<1x28x28x512xf32>
  %cst_270 = arith.constant dense<0.000000e+00> : tensor<1x14x14x256xf32>
  %cst_271 = arith.constant dense<0.000000e+00> : tensor<1x14x14x1024xf32>
  %cst_272 = arith.constant dense<0.000000e+00> : tensor<1x7x7x512xf32>
  %cst_273 = arith.constant dense<0.000000e+00> : tensor<1x7x7x2048xf32>
  %cst_274 = arith.constant dense<4.900000e+01> : tensor<1x2048xf32>
  %cst_275 = arith.constant dense<0xFF800000> : tensor<f32>
  %cst_276 = arith.constant dense<0.000000e+00> : tensor<f32>
  %cst_277 = arith.constant dense<1.000000e+00> : tensor<7x7x3x64xf32>
  %cst_278 = arith.constant dense<0.0526315793> : tensor<1x1x64x256xf32>
  %cst_279 = arith.constant dense<0.142857149> : tensor<1x1x64x64xf32>
  %cst_280 = arith.constant dense<0.0769230798> : tensor<3x3x64x64xf32>
  %cst_281 = arith.constant dense<0.0476190485> : tensor<1x1x64x256xf32>
  %cst_282 = arith.constant dense<0.0322580636> : tensor<1x1x256x64xf32>
  %cst_283 = arith.constant dense<0.0270270277> : tensor<3x3x64x64xf32>
  %cst_284 = arith.constant dense<0.0232558139> : tensor<1x1x64x256xf32>
  %cst_285 = arith.constant dense<0.0204081628> : tensor<1x1x256x64xf32>
  %cst_286 = arith.constant dense<0.0181818176> : tensor<3x3x64x64xf32>
  %cst_287 = arith.constant dense<0.0163934417> : tensor<1x1x64x256xf32>
  %cst_288 = arith.constant dense<0.0126582282> : tensor<1x1x256x512xf32>
  %cst_289 = arith.constant dense<0.0149253728> : tensor<1x1x256x128xf32>
  %cst_290 = arith.constant dense<0.01369863> : tensor<3x3x128x128xf32>
  %cst_291 = arith.constant dense<0.0123456791> : tensor<1x1x128x512xf32>
  %cst_292 = arith.constant dense<0.0109890113> : tensor<1x1x512x128xf32>
  %cst_293 = arith.constant dense<0.010309278> : tensor<3x3x128x128xf32>
  %cst_294 = arith.constant dense<0.00970873795> : tensor<1x1x128x512xf32>
  %cst_295 = arith.constant dense<0.00917431153> : tensor<1x1x512x128xf32>
  %cst_296 = arith.constant dense<0.00869565178> : tensor<3x3x128x128xf32>
  %cst_297 = arith.constant dense<0.00826446246> : tensor<1x1x128x512xf32>
  %cst_298 = arith.constant dense<0.00787401571> : tensor<1x1x512x128xf32>
  %cst_299 = arith.constant dense<0.00751879718> : tensor<3x3x128x128xf32>
  %cst_300 = arith.constant dense<0.00719424477> : tensor<1x1x128x512xf32>
  %cst_301 = arith.constant dense<0.00636942684> : tensor<1x1x512x1024xf32>
  %cst_302 = arith.constant dense<0.0068965517> : tensor<1x1x512x256xf32>
  %cst_303 = arith.constant dense<0.00662251655> : tensor<3x3x256x256xf32>
  %cst_304 = arith.constant dense<0.00628930796> : tensor<1x1x256x1024xf32>
  %cst_305 = arith.constant dense<5.917160e-03> : tensor<1x1x1024x256xf32>
  %cst_306 = arith.constant dense<0.00571428565> : tensor<3x3x256x256xf32>
  %cst_307 = arith.constant dense<0.00552486209> : tensor<1x1x256x1024xf32>
  %cst_308 = arith.constant dense<0.00534759369> : tensor<1x1x1024x256xf32>
  %cst_309 = arith.constant dense<0.00518134702> : tensor<3x3x256x256xf32>
  %cst_310 = arith.constant dense<0.00502512557> : tensor<1x1x256x1024xf32>
  %cst_311 = arith.constant dense<0.00487804879> : tensor<1x1x1024x256xf32>
  %cst_312 = arith.constant dense<0.00473933667> : tensor<3x3x256x256xf32>
  %cst_313 = arith.constant dense<0.00460829493> : tensor<1x1x256x1024xf32>
  %cst_314 = arith.constant dense<0.00448430516> : tensor<1x1x1024x256xf32>
  %cst_315 = arith.constant dense<0.0043668123> : tensor<3x3x256x256xf32>
  %cst_316 = arith.constant dense<0.00425531901> : tensor<1x1x256x1024xf32>
  %cst_317 = arith.constant dense<0.00414937781> : tensor<1x1x1024x256xf32>
  %cst_318 = arith.constant dense<0.0040485831> : tensor<3x3x256x256xf32>
  %cst_319 = arith.constant dense<0.00395256933> : tensor<1x1x256x1024xf32>
  %cst_320 = arith.constant dense<0.00369003695> : tensor<1x1x1024x2048xf32>
  %cst_321 = arith.constant dense<0.00386100379> : tensor<1x1x1024x512xf32>
  %cst_322 = arith.constant dense<0.00377358496> : tensor<3x3x512x512xf32>
  %cst_323 = arith.constant dense<0.00366300368> : tensor<1x1x512x2048xf32>
  %cst_324 = arith.constant dense<0.00353356893> : tensor<1x1x2048x512xf32>
  %cst_325 = arith.constant dense<0.00346020772> : tensor<3x3x512x512xf32>
  %cst_326 = arith.constant dense<0.00338983047> : tensor<1x1x512x2048xf32>
  %cst_327 = arith.constant dense<0.00332225906> : tensor<1x1x2048x512xf32>
  %cst_328 = arith.constant dense<0.00325732888> : tensor<3x3x512x512xf32>
  %cst_329 = arith.constant dense<0.00319488812> : tensor<1x1x512x2048xf32>
  %cst_330 = arith.constant dense<0.00313479616> : tensor<2048x1000xf32>
  %cst_331 = arith.constant 0.000000e+00 : f32
  %0 = tensor.pad %arg0 low[0, 3, 3, 0] high[0, 3, 3, 0] {
  ^bb0(%arg1: index, %arg2: index, %arg3: index, %arg4: index):
    tensor.yield %cst_331 : f32
  } : tensor<1x224x224x3xf32> to tensor<1x230x230x3xf32>
  %1 = linalg.init_tensor [1, 112, 112, 64] : tensor<1x112x112x64xf32>
  %cst_332 = arith.constant 0.000000e+00 : f32
  %2 = linalg.fill ins(%cst_332 : f32) outs(%1 : tensor<1x112x112x64xf32>) -> tensor<1x112x112x64xf32>
  %3 = linalg.conv_2d_nhwc_hwcf {dilations = dense<1> : tensor<2xi64>, strides = dense<2> : tensor<2xi64>} ins(%0, %cst_277 : tensor<1x230x230x3xf32>, tensor<7x7x3x64xf32>) outs(%2 : tensor<1x112x112x64xf32>) -> tensor<1x112x112x64xf32>
  %4 = linalg.init_tensor [1, 112, 112, 64] : tensor<1x112x112x64xf32>
  %5 = linalg.generic {indexing_maps = [#map0, #map0, #map0], iterator_types = ["parallel", "parallel", "parallel", "parallel"]} ins(%3, %cst : tensor<1x112x112x64xf32>, tensor<1x112x112x64xf32>) outs(%4 : tensor<1x112x112x64xf32>) {
  ^bb0(%arg1: f32, %arg2: f32, %arg3: f32):
    %868 = arith.addf %arg1, %arg2 : f32
    linalg.yield %868 : f32
  } -> tensor<1x112x112x64xf32>
  %6 = linalg.init_tensor [1, 112, 112, 64] : tensor<1x112x112x64xf32>
  %7 = linalg.generic {indexing_maps = [#map0, #map0, #map0], iterator_types = ["parallel", "parallel", "parallel", "parallel"]} ins(%5, %cst_3 : tensor<1x112x112x64xf32>, tensor<1x112x112x64xf32>) outs(%6 : tensor<1x112x112x64xf32>) {
  ^bb0(%arg1: f32, %arg2: f32, %arg3: f32):
    %868 = arith.subf %arg1, %arg2 : f32
    linalg.yield %868 : f32
  } -> tensor<1x112x112x64xf32>
  %8 = linalg.init_tensor [1, 112, 112, 64] : tensor<1x112x112x64xf32>
  %9 = linalg.generic {indexing_maps = [#map0, #map0, #map0], iterator_types = ["parallel", "parallel", "parallel", "parallel"]} ins(%7, %cst_1 : tensor<1x112x112x64xf32>, tensor<1x112x112x64xf32>) outs(%8 : tensor<1x112x112x64xf32>) {
  ^bb0(%arg1: f32, %arg2: f32, %arg3: f32):
    %868 = arith.mulf %arg1, %arg2 : f32
    linalg.yield %868 : f32
  } -> tensor<1x112x112x64xf32>
  %10 = linalg.init_tensor [1, 112, 112, 64] : tensor<1x112x112x64xf32>
  %11 = linalg.generic {indexing_maps = [#map0, #map0, #map0], iterator_types = ["parallel", "parallel", "parallel", "parallel"]} ins(%9, %cst_0 : tensor<1x112x112x64xf32>, tensor<1x112x112x64xf32>) outs(%10 : tensor<1x112x112x64xf32>) {
  ^bb0(%arg1: f32, %arg2: f32, %arg3: f32):
    %868 = arith.divf %arg1, %arg2 : f32
    linalg.yield %868 : f32
  } -> tensor<1x112x112x64xf32>
  %12 = linalg.init_tensor [1, 112, 112, 64] : tensor<1x112x112x64xf32>
  %13 = linalg.generic {indexing_maps = [#map0, #map0, #map0], iterator_types = ["parallel", "parallel", "parallel", "parallel"]} ins(%11, %cst_2 : tensor<1x112x112x64xf32>, tensor<1x112x112x64xf32>) outs(%12 : tensor<1x112x112x64xf32>) {
  ^bb0(%arg1: f32, %arg2: f32, %arg3: f32):
    %868 = arith.addf %arg1, %arg2 : f32
    linalg.yield %868 : f32
  } -> tensor<1x112x112x64xf32>
  %14 = linalg.init_tensor [1, 112, 112, 64] : tensor<1x112x112x64xf32>
  %15 = linalg.generic {indexing_maps = [#map0, #map0, #map0], iterator_types = ["parallel", "parallel", "parallel", "parallel"]} ins(%13, %cst_265 : tensor<1x112x112x64xf32>, tensor<1x112x112x64xf32>) outs(%14 : tensor<1x112x112x64xf32>) {
  ^bb0(%arg1: f32, %arg2: f32, %arg3: f32):
    %868 = arith.maxf %arg1, %arg2 : f32
    linalg.yield %868 : f32
  } -> tensor<1x112x112x64xf32>
  %cst_333 = arith.constant 0.000000e+00 : f32
  %16 = tensor.pad %15 low[0, 1, 1, 0] high[0, 1, 1, 0] {
  ^bb0(%arg1: index, %arg2: index, %arg3: index, %arg4: index):
    tensor.yield %cst_333 : f32
  } : tensor<1x112x112x64xf32> to tensor<1x114x114x64xf32>
  %17 = linalg.init_tensor [3, 3] : tensor<3x3xf32>
  %18 = linalg.init_tensor [1, 56, 56, 64] : tensor<1x56x56x64xf32>
  %19 = tensor.extract %cst_275[] : tensor<f32>
  %20 = linalg.fill ins(%19 : f32) outs(%18 : tensor<1x56x56x64xf32>) -> tensor<1x56x56x64xf32>
  %21 = linalg.pooling_nhwc_max {dilations = dense<1> : vector<2xi64>, strides = dense<2> : vector<2xi64>} ins(%16, %17 : tensor<1x114x114x64xf32>, tensor<3x3xf32>) outs(%20 : tensor<1x56x56x64xf32>) -> tensor<1x56x56x64xf32>
  %22 = linalg.init_tensor [1, 56, 56, 256] : tensor<1x56x56x256xf32>
  %cst_334 = arith.constant 0.000000e+00 : f32
  %23 = linalg.fill ins(%cst_334 : f32) outs(%22 : tensor<1x56x56x256xf32>) -> tensor<1x56x56x256xf32>
  %24 = linalg.conv_2d_nhwc_hwcf {dilations = dense<1> : tensor<2xi64>, strides = dense<1> : tensor<2xi64>} ins(%21, %cst_278 : tensor<1x56x56x64xf32>, tensor<1x1x64x256xf32>) outs(%23 : tensor<1x56x56x256xf32>) -> tensor<1x56x56x256xf32>
  %25 = linalg.init_tensor [1, 56, 56, 256] : tensor<1x56x56x256xf32>
  %26 = linalg.generic {indexing_maps = [#map0, #map0, #map0], iterator_types = ["parallel", "parallel", "parallel", "parallel"]} ins(%24, %cst_4 : tensor<1x56x56x256xf32>, tensor<1x56x56x256xf32>) outs(%25 : tensor<1x56x56x256xf32>) {
  ^bb0(%arg1: f32, %arg2: f32, %arg3: f32):
    %868 = arith.addf %arg1, %arg2 : f32
    linalg.yield %868 : f32
  } -> tensor<1x56x56x256xf32>
  %27 = linalg.init_tensor [1, 56, 56, 256] : tensor<1x56x56x256xf32>
  %28 = linalg.generic {indexing_maps = [#map0, #map0, #map0], iterator_types = ["parallel", "parallel", "parallel", "parallel"]} ins(%26, %cst_8 : tensor<1x56x56x256xf32>, tensor<1x56x56x256xf32>) outs(%27 : tensor<1x56x56x256xf32>) {
  ^bb0(%arg1: f32, %arg2: f32, %arg3: f32):
    %868 = arith.subf %arg1, %arg2 : f32
    linalg.yield %868 : f32
  } -> tensor<1x56x56x256xf32>
  %29 = linalg.init_tensor [1, 56, 56, 256] : tensor<1x56x56x256xf32>
  %30 = linalg.generic {indexing_maps = [#map0, #map0, #map0], iterator_types = ["parallel", "parallel", "parallel", "parallel"]} ins(%28, %cst_6 : tensor<1x56x56x256xf32>, tensor<1x56x56x256xf32>) outs(%29 : tensor<1x56x56x256xf32>) {
  ^bb0(%arg1: f32, %arg2: f32, %arg3: f32):
    %868 = arith.mulf %arg1, %arg2 : f32
    linalg.yield %868 : f32
  } -> tensor<1x56x56x256xf32>
  %31 = linalg.init_tensor [1, 56, 56, 256] : tensor<1x56x56x256xf32>
  %32 = linalg.generic {indexing_maps = [#map0, #map0, #map0], iterator_types = ["parallel", "parallel", "parallel", "parallel"]} ins(%30, %cst_5 : tensor<1x56x56x256xf32>, tensor<1x56x56x256xf32>) outs(%31 : tensor<1x56x56x256xf32>) {
  ^bb0(%arg1: f32, %arg2: f32, %arg3: f32):
    %868 = arith.divf %arg1, %arg2 : f32
    linalg.yield %868 : f32
  } -> tensor<1x56x56x256xf32>
  %33 = linalg.init_tensor [1, 56, 56, 256] : tensor<1x56x56x256xf32>
  %34 = linalg.generic {indexing_maps = [#map0, #map0, #map0], iterator_types = ["parallel", "parallel", "parallel", "parallel"]} ins(%32, %cst_7 : tensor<1x56x56x256xf32>, tensor<1x56x56x256xf32>) outs(%33 : tensor<1x56x56x256xf32>) {
  ^bb0(%arg1: f32, %arg2: f32, %arg3: f32):
    %868 = arith.addf %arg1, %arg2 : f32
    linalg.yield %868 : f32
  } -> tensor<1x56x56x256xf32>
  %35 = linalg.init_tensor [1, 56, 56, 64] : tensor<1x56x56x64xf32>
  %cst_335 = arith.constant 0.000000e+00 : f32
  %36 = linalg.fill ins(%cst_335 : f32) outs(%35 : tensor<1x56x56x64xf32>) -> tensor<1x56x56x64xf32>
  %37 = linalg.conv_2d_nhwc_hwcf {dilations = dense<1> : tensor<2xi64>, strides = dense<1> : tensor<2xi64>} ins(%21, %cst_279 : tensor<1x56x56x64xf32>, tensor<1x1x64x64xf32>) outs(%36 : tensor<1x56x56x64xf32>) -> tensor<1x56x56x64xf32>
  %38 = linalg.init_tensor [1, 56, 56, 64] : tensor<1x56x56x64xf32>
  %39 = linalg.generic {indexing_maps = [#map0, #map0, #map0], iterator_types = ["parallel", "parallel", "parallel", "parallel"]} ins(%37, %cst_9 : tensor<1x56x56x64xf32>, tensor<1x56x56x64xf32>) outs(%38 : tensor<1x56x56x64xf32>) {
  ^bb0(%arg1: f32, %arg2: f32, %arg3: f32):
    %868 = arith.addf %arg1, %arg2 : f32
    linalg.yield %868 : f32
  } -> tensor<1x56x56x64xf32>
  %40 = linalg.init_tensor [1, 56, 56, 64] : tensor<1x56x56x64xf32>
  %41 = linalg.generic {indexing_maps = [#map0, #map0, #map0], iterator_types = ["parallel", "parallel", "parallel", "parallel"]} ins(%39, %cst_13 : tensor<1x56x56x64xf32>, tensor<1x56x56x64xf32>) outs(%40 : tensor<1x56x56x64xf32>) {
  ^bb0(%arg1: f32, %arg2: f32, %arg3: f32):
    %868 = arith.subf %arg1, %arg2 : f32
    linalg.yield %868 : f32
  } -> tensor<1x56x56x64xf32>
  %42 = linalg.init_tensor [1, 56, 56, 64] : tensor<1x56x56x64xf32>
  %43 = linalg.generic {indexing_maps = [#map0, #map0, #map0], iterator_types = ["parallel", "parallel", "parallel", "parallel"]} ins(%41, %cst_11 : tensor<1x56x56x64xf32>, tensor<1x56x56x64xf32>) outs(%42 : tensor<1x56x56x64xf32>) {
  ^bb0(%arg1: f32, %arg2: f32, %arg3: f32):
    %868 = arith.mulf %arg1, %arg2 : f32
    linalg.yield %868 : f32
  } -> tensor<1x56x56x64xf32>
  %44 = linalg.init_tensor [1, 56, 56, 64] : tensor<1x56x56x64xf32>
  %45 = linalg.generic {indexing_maps = [#map0, #map0, #map0], iterator_types = ["parallel", "parallel", "parallel", "parallel"]} ins(%43, %cst_10 : tensor<1x56x56x64xf32>, tensor<1x56x56x64xf32>) outs(%44 : tensor<1x56x56x64xf32>) {
  ^bb0(%arg1: f32, %arg2: f32, %arg3: f32):
    %868 = arith.divf %arg1, %arg2 : f32
    linalg.yield %868 : f32
  } -> tensor<1x56x56x64xf32>
  %46 = linalg.init_tensor [1, 56, 56, 64] : tensor<1x56x56x64xf32>
  %47 = linalg.generic {indexing_maps = [#map0, #map0, #map0], iterator_types = ["parallel", "parallel", "parallel", "parallel"]} ins(%45, %cst_12 : tensor<1x56x56x64xf32>, tensor<1x56x56x64xf32>) outs(%46 : tensor<1x56x56x64xf32>) {
  ^bb0(%arg1: f32, %arg2: f32, %arg3: f32):
    %868 = arith.addf %arg1, %arg2 : f32
    linalg.yield %868 : f32
  } -> tensor<1x56x56x64xf32>
  %48 = linalg.init_tensor [1, 56, 56, 64] : tensor<1x56x56x64xf32>
  %49 = linalg.generic {indexing_maps = [#map0, #map0, #map0], iterator_types = ["parallel", "parallel", "parallel", "parallel"]} ins(%47, %cst_266 : tensor<1x56x56x64xf32>, tensor<1x56x56x64xf32>) outs(%48 : tensor<1x56x56x64xf32>) {
  ^bb0(%arg1: f32, %arg2: f32, %arg3: f32):
    %868 = arith.maxf %arg1, %arg2 : f32
    linalg.yield %868 : f32
  } -> tensor<1x56x56x64xf32>
  %50 = linalg.init_tensor [1, 56, 56, 64] : tensor<1x56x56x64xf32>
  %cst_336 = arith.constant 0.000000e+00 : f32
  %51 = linalg.fill ins(%cst_336 : f32) outs(%50 : tensor<1x56x56x64xf32>) -> tensor<1x56x56x64xf32>
  %cst_337 = arith.constant dense<0.000000e+00> : tensor<f32>
  %cst_338 = arith.constant 0.000000e+00 : f32
  %52 = tensor.pad %49 low[0, 1, 1, 0] high[0, 1, 1, 0] {
  ^bb0(%arg1: index, %arg2: index, %arg3: index, %arg4: index):
    tensor.yield %cst_338 : f32
  } : tensor<1x56x56x64xf32> to tensor<1x58x58x64xf32>
  %53 = linalg.conv_2d_nhwc_hwcf {dilations = dense<1> : tensor<2xi64>, strides = dense<1> : tensor<2xi64>} ins(%52, %cst_280 : tensor<1x58x58x64xf32>, tensor<3x3x64x64xf32>) outs(%51 : tensor<1x56x56x64xf32>) -> tensor<1x56x56x64xf32>
  %54 = linalg.init_tensor [1, 56, 56, 64] : tensor<1x56x56x64xf32>
  %55 = linalg.generic {indexing_maps = [#map0, #map0, #map0], iterator_types = ["parallel", "parallel", "parallel", "parallel"]} ins(%53, %cst_14 : tensor<1x56x56x64xf32>, tensor<1x56x56x64xf32>) outs(%54 : tensor<1x56x56x64xf32>) {
  ^bb0(%arg1: f32, %arg2: f32, %arg3: f32):
    %868 = arith.addf %arg1, %arg2 : f32
    linalg.yield %868 : f32
  } -> tensor<1x56x56x64xf32>
  %56 = linalg.init_tensor [1, 56, 56, 64] : tensor<1x56x56x64xf32>
  %57 = linalg.generic {indexing_maps = [#map0, #map0, #map0], iterator_types = ["parallel", "parallel", "parallel", "parallel"]} ins(%55, %cst_18 : tensor<1x56x56x64xf32>, tensor<1x56x56x64xf32>) outs(%56 : tensor<1x56x56x64xf32>) {
  ^bb0(%arg1: f32, %arg2: f32, %arg3: f32):
    %868 = arith.subf %arg1, %arg2 : f32
    linalg.yield %868 : f32
  } -> tensor<1x56x56x64xf32>
  %58 = linalg.init_tensor [1, 56, 56, 64] : tensor<1x56x56x64xf32>
  %59 = linalg.generic {indexing_maps = [#map0, #map0, #map0], iterator_types = ["parallel", "parallel", "parallel", "parallel"]} ins(%57, %cst_16 : tensor<1x56x56x64xf32>, tensor<1x56x56x64xf32>) outs(%58 : tensor<1x56x56x64xf32>) {
  ^bb0(%arg1: f32, %arg2: f32, %arg3: f32):
    %868 = arith.mulf %arg1, %arg2 : f32
    linalg.yield %868 : f32
  } -> tensor<1x56x56x64xf32>
  %60 = linalg.init_tensor [1, 56, 56, 64] : tensor<1x56x56x64xf32>
  %61 = linalg.generic {indexing_maps = [#map0, #map0, #map0], iterator_types = ["parallel", "parallel", "parallel", "parallel"]} ins(%59, %cst_15 : tensor<1x56x56x64xf32>, tensor<1x56x56x64xf32>) outs(%60 : tensor<1x56x56x64xf32>) {
  ^bb0(%arg1: f32, %arg2: f32, %arg3: f32):
    %868 = arith.divf %arg1, %arg2 : f32
    linalg.yield %868 : f32
  } -> tensor<1x56x56x64xf32>
  %62 = linalg.init_tensor [1, 56, 56, 64] : tensor<1x56x56x64xf32>
  %63 = linalg.generic {indexing_maps = [#map0, #map0, #map0], iterator_types = ["parallel", "parallel", "parallel", "parallel"]} ins(%61, %cst_17 : tensor<1x56x56x64xf32>, tensor<1x56x56x64xf32>) outs(%62 : tensor<1x56x56x64xf32>) {
  ^bb0(%arg1: f32, %arg2: f32, %arg3: f32):
    %868 = arith.addf %arg1, %arg2 : f32
    linalg.yield %868 : f32
  } -> tensor<1x56x56x64xf32>
  %64 = linalg.init_tensor [1, 56, 56, 64] : tensor<1x56x56x64xf32>
  %65 = linalg.generic {indexing_maps = [#map0, #map0, #map0], iterator_types = ["parallel", "parallel", "parallel", "parallel"]} ins(%63, %cst_266 : tensor<1x56x56x64xf32>, tensor<1x56x56x64xf32>) outs(%64 : tensor<1x56x56x64xf32>) {
  ^bb0(%arg1: f32, %arg2: f32, %arg3: f32):
    %868 = arith.maxf %arg1, %arg2 : f32
    linalg.yield %868 : f32
  } -> tensor<1x56x56x64xf32>
  %66 = linalg.init_tensor [1, 56, 56, 256] : tensor<1x56x56x256xf32>
  %cst_339 = arith.constant 0.000000e+00 : f32
  %67 = linalg.fill ins(%cst_339 : f32) outs(%66 : tensor<1x56x56x256xf32>) -> tensor<1x56x56x256xf32>
  %68 = linalg.conv_2d_nhwc_hwcf {dilations = dense<1> : tensor<2xi64>, strides = dense<1> : tensor<2xi64>} ins(%65, %cst_281 : tensor<1x56x56x64xf32>, tensor<1x1x64x256xf32>) outs(%67 : tensor<1x56x56x256xf32>) -> tensor<1x56x56x256xf32>
  %69 = linalg.init_tensor [1, 56, 56, 256] : tensor<1x56x56x256xf32>
  %70 = linalg.generic {indexing_maps = [#map0, #map0, #map0], iterator_types = ["parallel", "parallel", "parallel", "parallel"]} ins(%68, %cst_19 : tensor<1x56x56x256xf32>, tensor<1x56x56x256xf32>) outs(%69 : tensor<1x56x56x256xf32>) {
  ^bb0(%arg1: f32, %arg2: f32, %arg3: f32):
    %868 = arith.addf %arg1, %arg2 : f32
    linalg.yield %868 : f32
  } -> tensor<1x56x56x256xf32>
  %71 = linalg.init_tensor [1, 56, 56, 256] : tensor<1x56x56x256xf32>
  %72 = linalg.generic {indexing_maps = [#map0, #map0, #map0], iterator_types = ["parallel", "parallel", "parallel", "parallel"]} ins(%70, %cst_23 : tensor<1x56x56x256xf32>, tensor<1x56x56x256xf32>) outs(%71 : tensor<1x56x56x256xf32>) {
  ^bb0(%arg1: f32, %arg2: f32, %arg3: f32):
    %868 = arith.subf %arg1, %arg2 : f32
    linalg.yield %868 : f32
  } -> tensor<1x56x56x256xf32>
  %73 = linalg.init_tensor [1, 56, 56, 256] : tensor<1x56x56x256xf32>
  %74 = linalg.generic {indexing_maps = [#map0, #map0, #map0], iterator_types = ["parallel", "parallel", "parallel", "parallel"]} ins(%72, %cst_21 : tensor<1x56x56x256xf32>, tensor<1x56x56x256xf32>) outs(%73 : tensor<1x56x56x256xf32>) {
  ^bb0(%arg1: f32, %arg2: f32, %arg3: f32):
    %868 = arith.mulf %arg1, %arg2 : f32
    linalg.yield %868 : f32
  } -> tensor<1x56x56x256xf32>
  %75 = linalg.init_tensor [1, 56, 56, 256] : tensor<1x56x56x256xf32>
  %76 = linalg.generic {indexing_maps = [#map0, #map0, #map0], iterator_types = ["parallel", "parallel", "parallel", "parallel"]} ins(%74, %cst_20 : tensor<1x56x56x256xf32>, tensor<1x56x56x256xf32>) outs(%75 : tensor<1x56x56x256xf32>) {
  ^bb0(%arg1: f32, %arg2: f32, %arg3: f32):
    %868 = arith.divf %arg1, %arg2 : f32
    linalg.yield %868 : f32
  } -> tensor<1x56x56x256xf32>
  %77 = linalg.init_tensor [1, 56, 56, 256] : tensor<1x56x56x256xf32>
  %78 = linalg.generic {indexing_maps = [#map0, #map0, #map0], iterator_types = ["parallel", "parallel", "parallel", "parallel"]} ins(%76, %cst_22 : tensor<1x56x56x256xf32>, tensor<1x56x56x256xf32>) outs(%77 : tensor<1x56x56x256xf32>) {
  ^bb0(%arg1: f32, %arg2: f32, %arg3: f32):
    %868 = arith.addf %arg1, %arg2 : f32
    linalg.yield %868 : f32
  } -> tensor<1x56x56x256xf32>
  %79 = linalg.init_tensor [1, 56, 56, 256] : tensor<1x56x56x256xf32>
  %80 = linalg.generic {indexing_maps = [#map0, #map0, #map0], iterator_types = ["parallel", "parallel", "parallel", "parallel"]} ins(%34, %78 : tensor<1x56x56x256xf32>, tensor<1x56x56x256xf32>) outs(%79 : tensor<1x56x56x256xf32>) {
  ^bb0(%arg1: f32, %arg2: f32, %arg3: f32):
    %868 = arith.addf %arg1, %arg2 : f32
    linalg.yield %868 : f32
  } -> tensor<1x56x56x256xf32>
  %81 = linalg.init_tensor [1, 56, 56, 256] : tensor<1x56x56x256xf32>
  %82 = linalg.generic {indexing_maps = [#map0, #map0, #map0], iterator_types = ["parallel", "parallel", "parallel", "parallel"]} ins(%80, %cst_267 : tensor<1x56x56x256xf32>, tensor<1x56x56x256xf32>) outs(%81 : tensor<1x56x56x256xf32>) {
  ^bb0(%arg1: f32, %arg2: f32, %arg3: f32):
    %868 = arith.maxf %arg1, %arg2 : f32
    linalg.yield %868 : f32
  } -> tensor<1x56x56x256xf32>
  %83 = linalg.init_tensor [1, 56, 56, 64] : tensor<1x56x56x64xf32>
  %cst_340 = arith.constant 0.000000e+00 : f32
  %84 = linalg.fill ins(%cst_340 : f32) outs(%83 : tensor<1x56x56x64xf32>) -> tensor<1x56x56x64xf32>
  %85 = linalg.conv_2d_nhwc_hwcf {dilations = dense<1> : tensor<2xi64>, strides = dense<1> : tensor<2xi64>} ins(%82, %cst_282 : tensor<1x56x56x256xf32>, tensor<1x1x256x64xf32>) outs(%84 : tensor<1x56x56x64xf32>) -> tensor<1x56x56x64xf32>
  %86 = linalg.init_tensor [1, 56, 56, 64] : tensor<1x56x56x64xf32>
  %87 = linalg.generic {indexing_maps = [#map0, #map0, #map0], iterator_types = ["parallel", "parallel", "parallel", "parallel"]} ins(%85, %cst_24 : tensor<1x56x56x64xf32>, tensor<1x56x56x64xf32>) outs(%86 : tensor<1x56x56x64xf32>) {
  ^bb0(%arg1: f32, %arg2: f32, %arg3: f32):
    %868 = arith.addf %arg1, %arg2 : f32
    linalg.yield %868 : f32
  } -> tensor<1x56x56x64xf32>
  %88 = linalg.init_tensor [1, 56, 56, 64] : tensor<1x56x56x64xf32>
  %89 = linalg.generic {indexing_maps = [#map0, #map0, #map0], iterator_types = ["parallel", "parallel", "parallel", "parallel"]} ins(%87, %cst_28 : tensor<1x56x56x64xf32>, tensor<1x56x56x64xf32>) outs(%88 : tensor<1x56x56x64xf32>) {
  ^bb0(%arg1: f32, %arg2: f32, %arg3: f32):
    %868 = arith.subf %arg1, %arg2 : f32
    linalg.yield %868 : f32
  } -> tensor<1x56x56x64xf32>
  %90 = linalg.init_tensor [1, 56, 56, 64] : tensor<1x56x56x64xf32>
  %91 = linalg.generic {indexing_maps = [#map0, #map0, #map0], iterator_types = ["parallel", "parallel", "parallel", "parallel"]} ins(%89, %cst_26 : tensor<1x56x56x64xf32>, tensor<1x56x56x64xf32>) outs(%90 : tensor<1x56x56x64xf32>) {
  ^bb0(%arg1: f32, %arg2: f32, %arg3: f32):
    %868 = arith.mulf %arg1, %arg2 : f32
    linalg.yield %868 : f32
  } -> tensor<1x56x56x64xf32>
  %92 = linalg.init_tensor [1, 56, 56, 64] : tensor<1x56x56x64xf32>
  %93 = linalg.generic {indexing_maps = [#map0, #map0, #map0], iterator_types = ["parallel", "parallel", "parallel", "parallel"]} ins(%91, %cst_25 : tensor<1x56x56x64xf32>, tensor<1x56x56x64xf32>) outs(%92 : tensor<1x56x56x64xf32>) {
  ^bb0(%arg1: f32, %arg2: f32, %arg3: f32):
    %868 = arith.divf %arg1, %arg2 : f32
    linalg.yield %868 : f32
  } -> tensor<1x56x56x64xf32>
  %94 = linalg.init_tensor [1, 56, 56, 64] : tensor<1x56x56x64xf32>
  %95 = linalg.generic {indexing_maps = [#map0, #map0, #map0], iterator_types = ["parallel", "parallel", "parallel", "parallel"]} ins(%93, %cst_27 : tensor<1x56x56x64xf32>, tensor<1x56x56x64xf32>) outs(%94 : tensor<1x56x56x64xf32>) {
  ^bb0(%arg1: f32, %arg2: f32, %arg3: f32):
    %868 = arith.addf %arg1, %arg2 : f32
    linalg.yield %868 : f32
  } -> tensor<1x56x56x64xf32>
  %96 = linalg.init_tensor [1, 56, 56, 64] : tensor<1x56x56x64xf32>
  %97 = linalg.generic {indexing_maps = [#map0, #map0, #map0], iterator_types = ["parallel", "parallel", "parallel", "parallel"]} ins(%95, %cst_266 : tensor<1x56x56x64xf32>, tensor<1x56x56x64xf32>) outs(%96 : tensor<1x56x56x64xf32>) {
  ^bb0(%arg1: f32, %arg2: f32, %arg3: f32):
    %868 = arith.maxf %arg1, %arg2 : f32
    linalg.yield %868 : f32
  } -> tensor<1x56x56x64xf32>
  %98 = linalg.init_tensor [1, 56, 56, 64] : tensor<1x56x56x64xf32>
  %cst_341 = arith.constant 0.000000e+00 : f32
  %99 = linalg.fill ins(%cst_341 : f32) outs(%98 : tensor<1x56x56x64xf32>) -> tensor<1x56x56x64xf32>
  %cst_342 = arith.constant dense<0.000000e+00> : tensor<f32>
  %cst_343 = arith.constant 0.000000e+00 : f32
  %100 = tensor.pad %97 low[0, 1, 1, 0] high[0, 1, 1, 0] {
  ^bb0(%arg1: index, %arg2: index, %arg3: index, %arg4: index):
    tensor.yield %cst_343 : f32
  } : tensor<1x56x56x64xf32> to tensor<1x58x58x64xf32>
  %101 = linalg.conv_2d_nhwc_hwcf {dilations = dense<1> : tensor<2xi64>, strides = dense<1> : tensor<2xi64>} ins(%100, %cst_283 : tensor<1x58x58x64xf32>, tensor<3x3x64x64xf32>) outs(%99 : tensor<1x56x56x64xf32>) -> tensor<1x56x56x64xf32>
  %102 = linalg.init_tensor [1, 56, 56, 64] : tensor<1x56x56x64xf32>
  %103 = linalg.generic {indexing_maps = [#map0, #map0, #map0], iterator_types = ["parallel", "parallel", "parallel", "parallel"]} ins(%101, %cst_29 : tensor<1x56x56x64xf32>, tensor<1x56x56x64xf32>) outs(%102 : tensor<1x56x56x64xf32>) {
  ^bb0(%arg1: f32, %arg2: f32, %arg3: f32):
    %868 = arith.addf %arg1, %arg2 : f32
    linalg.yield %868 : f32
  } -> tensor<1x56x56x64xf32>
  %104 = linalg.init_tensor [1, 56, 56, 64] : tensor<1x56x56x64xf32>
  %105 = linalg.generic {indexing_maps = [#map0, #map0, #map0], iterator_types = ["parallel", "parallel", "parallel", "parallel"]} ins(%103, %cst_33 : tensor<1x56x56x64xf32>, tensor<1x56x56x64xf32>) outs(%104 : tensor<1x56x56x64xf32>) {
  ^bb0(%arg1: f32, %arg2: f32, %arg3: f32):
    %868 = arith.subf %arg1, %arg2 : f32
    linalg.yield %868 : f32
  } -> tensor<1x56x56x64xf32>
  %106 = linalg.init_tensor [1, 56, 56, 64] : tensor<1x56x56x64xf32>
  %107 = linalg.generic {indexing_maps = [#map0, #map0, #map0], iterator_types = ["parallel", "parallel", "parallel", "parallel"]} ins(%105, %cst_31 : tensor<1x56x56x64xf32>, tensor<1x56x56x64xf32>) outs(%106 : tensor<1x56x56x64xf32>) {
  ^bb0(%arg1: f32, %arg2: f32, %arg3: f32):
    %868 = arith.mulf %arg1, %arg2 : f32
    linalg.yield %868 : f32
  } -> tensor<1x56x56x64xf32>
  %108 = linalg.init_tensor [1, 56, 56, 64] : tensor<1x56x56x64xf32>
  %109 = linalg.generic {indexing_maps = [#map0, #map0, #map0], iterator_types = ["parallel", "parallel", "parallel", "parallel"]} ins(%107, %cst_30 : tensor<1x56x56x64xf32>, tensor<1x56x56x64xf32>) outs(%108 : tensor<1x56x56x64xf32>) {
  ^bb0(%arg1: f32, %arg2: f32, %arg3: f32):
    %868 = arith.divf %arg1, %arg2 : f32
    linalg.yield %868 : f32
  } -> tensor<1x56x56x64xf32>
  %110 = linalg.init_tensor [1, 56, 56, 64] : tensor<1x56x56x64xf32>
  %111 = linalg.generic {indexing_maps = [#map0, #map0, #map0], iterator_types = ["parallel", "parallel", "parallel", "parallel"]} ins(%109, %cst_32 : tensor<1x56x56x64xf32>, tensor<1x56x56x64xf32>) outs(%110 : tensor<1x56x56x64xf32>) {
  ^bb0(%arg1: f32, %arg2: f32, %arg3: f32):
    %868 = arith.addf %arg1, %arg2 : f32
    linalg.yield %868 : f32
  } -> tensor<1x56x56x64xf32>
  %112 = linalg.init_tensor [1, 56, 56, 64] : tensor<1x56x56x64xf32>
  %113 = linalg.generic {indexing_maps = [#map0, #map0, #map0], iterator_types = ["parallel", "parallel", "parallel", "parallel"]} ins(%111, %cst_266 : tensor<1x56x56x64xf32>, tensor<1x56x56x64xf32>) outs(%112 : tensor<1x56x56x64xf32>) {
  ^bb0(%arg1: f32, %arg2: f32, %arg3: f32):
    %868 = arith.maxf %arg1, %arg2 : f32
    linalg.yield %868 : f32
  } -> tensor<1x56x56x64xf32>
  %114 = linalg.init_tensor [1, 56, 56, 256] : tensor<1x56x56x256xf32>
  %cst_344 = arith.constant 0.000000e+00 : f32
  %115 = linalg.fill ins(%cst_344 : f32) outs(%114 : tensor<1x56x56x256xf32>) -> tensor<1x56x56x256xf32>
  %116 = linalg.conv_2d_nhwc_hwcf {dilations = dense<1> : tensor<2xi64>, strides = dense<1> : tensor<2xi64>} ins(%113, %cst_284 : tensor<1x56x56x64xf32>, tensor<1x1x64x256xf32>) outs(%115 : tensor<1x56x56x256xf32>) -> tensor<1x56x56x256xf32>
  %117 = linalg.init_tensor [1, 56, 56, 256] : tensor<1x56x56x256xf32>
  %118 = linalg.generic {indexing_maps = [#map0, #map0, #map0], iterator_types = ["parallel", "parallel", "parallel", "parallel"]} ins(%116, %cst_34 : tensor<1x56x56x256xf32>, tensor<1x56x56x256xf32>) outs(%117 : tensor<1x56x56x256xf32>) {
  ^bb0(%arg1: f32, %arg2: f32, %arg3: f32):
    %868 = arith.addf %arg1, %arg2 : f32
    linalg.yield %868 : f32
  } -> tensor<1x56x56x256xf32>
  %119 = linalg.init_tensor [1, 56, 56, 256] : tensor<1x56x56x256xf32>
  %120 = linalg.generic {indexing_maps = [#map0, #map0, #map0], iterator_types = ["parallel", "parallel", "parallel", "parallel"]} ins(%118, %cst_38 : tensor<1x56x56x256xf32>, tensor<1x56x56x256xf32>) outs(%119 : tensor<1x56x56x256xf32>) {
  ^bb0(%arg1: f32, %arg2: f32, %arg3: f32):
    %868 = arith.subf %arg1, %arg2 : f32
    linalg.yield %868 : f32
  } -> tensor<1x56x56x256xf32>
  %121 = linalg.init_tensor [1, 56, 56, 256] : tensor<1x56x56x256xf32>
  %122 = linalg.generic {indexing_maps = [#map0, #map0, #map0], iterator_types = ["parallel", "parallel", "parallel", "parallel"]} ins(%120, %cst_36 : tensor<1x56x56x256xf32>, tensor<1x56x56x256xf32>) outs(%121 : tensor<1x56x56x256xf32>) {
  ^bb0(%arg1: f32, %arg2: f32, %arg3: f32):
    %868 = arith.mulf %arg1, %arg2 : f32
    linalg.yield %868 : f32
  } -> tensor<1x56x56x256xf32>
  %123 = linalg.init_tensor [1, 56, 56, 256] : tensor<1x56x56x256xf32>
  %124 = linalg.generic {indexing_maps = [#map0, #map0, #map0], iterator_types = ["parallel", "parallel", "parallel", "parallel"]} ins(%122, %cst_35 : tensor<1x56x56x256xf32>, tensor<1x56x56x256xf32>) outs(%123 : tensor<1x56x56x256xf32>) {
  ^bb0(%arg1: f32, %arg2: f32, %arg3: f32):
    %868 = arith.divf %arg1, %arg2 : f32
    linalg.yield %868 : f32
  } -> tensor<1x56x56x256xf32>
  %125 = linalg.init_tensor [1, 56, 56, 256] : tensor<1x56x56x256xf32>
  %126 = linalg.generic {indexing_maps = [#map0, #map0, #map0], iterator_types = ["parallel", "parallel", "parallel", "parallel"]} ins(%124, %cst_37 : tensor<1x56x56x256xf32>, tensor<1x56x56x256xf32>) outs(%125 : tensor<1x56x56x256xf32>) {
  ^bb0(%arg1: f32, %arg2: f32, %arg3: f32):
    %868 = arith.addf %arg1, %arg2 : f32
    linalg.yield %868 : f32
  } -> tensor<1x56x56x256xf32>
  %127 = linalg.init_tensor [1, 56, 56, 256] : tensor<1x56x56x256xf32>
  %128 = linalg.generic {indexing_maps = [#map0, #map0, #map0], iterator_types = ["parallel", "parallel", "parallel", "parallel"]} ins(%82, %126 : tensor<1x56x56x256xf32>, tensor<1x56x56x256xf32>) outs(%127 : tensor<1x56x56x256xf32>) {
  ^bb0(%arg1: f32, %arg2: f32, %arg3: f32):
    %868 = arith.addf %arg1, %arg2 : f32
    linalg.yield %868 : f32
  } -> tensor<1x56x56x256xf32>
  %129 = linalg.init_tensor [1, 56, 56, 256] : tensor<1x56x56x256xf32>
  %130 = linalg.generic {indexing_maps = [#map0, #map0, #map0], iterator_types = ["parallel", "parallel", "parallel", "parallel"]} ins(%128, %cst_267 : tensor<1x56x56x256xf32>, tensor<1x56x56x256xf32>) outs(%129 : tensor<1x56x56x256xf32>) {
  ^bb0(%arg1: f32, %arg2: f32, %arg3: f32):
    %868 = arith.maxf %arg1, %arg2 : f32
    linalg.yield %868 : f32
  } -> tensor<1x56x56x256xf32>
  %131 = linalg.init_tensor [1, 56, 56, 64] : tensor<1x56x56x64xf32>
  %cst_345 = arith.constant 0.000000e+00 : f32
  %132 = linalg.fill ins(%cst_345 : f32) outs(%131 : tensor<1x56x56x64xf32>) -> tensor<1x56x56x64xf32>
  %133 = linalg.conv_2d_nhwc_hwcf {dilations = dense<1> : tensor<2xi64>, strides = dense<1> : tensor<2xi64>} ins(%130, %cst_285 : tensor<1x56x56x256xf32>, tensor<1x1x256x64xf32>) outs(%132 : tensor<1x56x56x64xf32>) -> tensor<1x56x56x64xf32>
  %134 = linalg.init_tensor [1, 56, 56, 64] : tensor<1x56x56x64xf32>
  %135 = linalg.generic {indexing_maps = [#map0, #map0, #map0], iterator_types = ["parallel", "parallel", "parallel", "parallel"]} ins(%133, %cst_39 : tensor<1x56x56x64xf32>, tensor<1x56x56x64xf32>) outs(%134 : tensor<1x56x56x64xf32>) {
  ^bb0(%arg1: f32, %arg2: f32, %arg3: f32):
    %868 = arith.addf %arg1, %arg2 : f32
    linalg.yield %868 : f32
  } -> tensor<1x56x56x64xf32>
  %136 = linalg.init_tensor [1, 56, 56, 64] : tensor<1x56x56x64xf32>
  %137 = linalg.generic {indexing_maps = [#map0, #map0, #map0], iterator_types = ["parallel", "parallel", "parallel", "parallel"]} ins(%135, %cst_43 : tensor<1x56x56x64xf32>, tensor<1x56x56x64xf32>) outs(%136 : tensor<1x56x56x64xf32>) {
  ^bb0(%arg1: f32, %arg2: f32, %arg3: f32):
    %868 = arith.subf %arg1, %arg2 : f32
    linalg.yield %868 : f32
  } -> tensor<1x56x56x64xf32>
  %138 = linalg.init_tensor [1, 56, 56, 64] : tensor<1x56x56x64xf32>
  %139 = linalg.generic {indexing_maps = [#map0, #map0, #map0], iterator_types = ["parallel", "parallel", "parallel", "parallel"]} ins(%137, %cst_41 : tensor<1x56x56x64xf32>, tensor<1x56x56x64xf32>) outs(%138 : tensor<1x56x56x64xf32>) {
  ^bb0(%arg1: f32, %arg2: f32, %arg3: f32):
    %868 = arith.mulf %arg1, %arg2 : f32
    linalg.yield %868 : f32
  } -> tensor<1x56x56x64xf32>
  %140 = linalg.init_tensor [1, 56, 56, 64] : tensor<1x56x56x64xf32>
  %141 = linalg.generic {indexing_maps = [#map0, #map0, #map0], iterator_types = ["parallel", "parallel", "parallel", "parallel"]} ins(%139, %cst_40 : tensor<1x56x56x64xf32>, tensor<1x56x56x64xf32>) outs(%140 : tensor<1x56x56x64xf32>) {
  ^bb0(%arg1: f32, %arg2: f32, %arg3: f32):
    %868 = arith.divf %arg1, %arg2 : f32
    linalg.yield %868 : f32
  } -> tensor<1x56x56x64xf32>
  %142 = linalg.init_tensor [1, 56, 56, 64] : tensor<1x56x56x64xf32>
  %143 = linalg.generic {indexing_maps = [#map0, #map0, #map0], iterator_types = ["parallel", "parallel", "parallel", "parallel"]} ins(%141, %cst_42 : tensor<1x56x56x64xf32>, tensor<1x56x56x64xf32>) outs(%142 : tensor<1x56x56x64xf32>) {
  ^bb0(%arg1: f32, %arg2: f32, %arg3: f32):
    %868 = arith.addf %arg1, %arg2 : f32
    linalg.yield %868 : f32
  } -> tensor<1x56x56x64xf32>
  %144 = linalg.init_tensor [1, 56, 56, 64] : tensor<1x56x56x64xf32>
  %145 = linalg.generic {indexing_maps = [#map0, #map0, #map0], iterator_types = ["parallel", "parallel", "parallel", "parallel"]} ins(%143, %cst_266 : tensor<1x56x56x64xf32>, tensor<1x56x56x64xf32>) outs(%144 : tensor<1x56x56x64xf32>) {
  ^bb0(%arg1: f32, %arg2: f32, %arg3: f32):
    %868 = arith.maxf %arg1, %arg2 : f32
    linalg.yield %868 : f32
  } -> tensor<1x56x56x64xf32>
  %146 = linalg.init_tensor [1, 56, 56, 64] : tensor<1x56x56x64xf32>
  %cst_346 = arith.constant 0.000000e+00 : f32
  %147 = linalg.fill ins(%cst_346 : f32) outs(%146 : tensor<1x56x56x64xf32>) -> tensor<1x56x56x64xf32>
  %cst_347 = arith.constant dense<0.000000e+00> : tensor<f32>
  %cst_348 = arith.constant 0.000000e+00 : f32
  %148 = tensor.pad %145 low[0, 1, 1, 0] high[0, 1, 1, 0] {
  ^bb0(%arg1: index, %arg2: index, %arg3: index, %arg4: index):
    tensor.yield %cst_348 : f32
  } : tensor<1x56x56x64xf32> to tensor<1x58x58x64xf32>
  %149 = linalg.conv_2d_nhwc_hwcf {dilations = dense<1> : tensor<2xi64>, strides = dense<1> : tensor<2xi64>} ins(%148, %cst_286 : tensor<1x58x58x64xf32>, tensor<3x3x64x64xf32>) outs(%147 : tensor<1x56x56x64xf32>) -> tensor<1x56x56x64xf32>
  %150 = linalg.init_tensor [1, 56, 56, 64] : tensor<1x56x56x64xf32>
  %151 = linalg.generic {indexing_maps = [#map0, #map0, #map0], iterator_types = ["parallel", "parallel", "parallel", "parallel"]} ins(%149, %cst_44 : tensor<1x56x56x64xf32>, tensor<1x56x56x64xf32>) outs(%150 : tensor<1x56x56x64xf32>) {
  ^bb0(%arg1: f32, %arg2: f32, %arg3: f32):
    %868 = arith.addf %arg1, %arg2 : f32
    linalg.yield %868 : f32
  } -> tensor<1x56x56x64xf32>
  %152 = linalg.init_tensor [1, 56, 56, 64] : tensor<1x56x56x64xf32>
  %153 = linalg.generic {indexing_maps = [#map0, #map0, #map0], iterator_types = ["parallel", "parallel", "parallel", "parallel"]} ins(%151, %cst_48 : tensor<1x56x56x64xf32>, tensor<1x56x56x64xf32>) outs(%152 : tensor<1x56x56x64xf32>) {
  ^bb0(%arg1: f32, %arg2: f32, %arg3: f32):
    %868 = arith.subf %arg1, %arg2 : f32
    linalg.yield %868 : f32
  } -> tensor<1x56x56x64xf32>
  %154 = linalg.init_tensor [1, 56, 56, 64] : tensor<1x56x56x64xf32>
  %155 = linalg.generic {indexing_maps = [#map0, #map0, #map0], iterator_types = ["parallel", "parallel", "parallel", "parallel"]} ins(%153, %cst_46 : tensor<1x56x56x64xf32>, tensor<1x56x56x64xf32>) outs(%154 : tensor<1x56x56x64xf32>) {
  ^bb0(%arg1: f32, %arg2: f32, %arg3: f32):
    %868 = arith.mulf %arg1, %arg2 : f32
    linalg.yield %868 : f32
  } -> tensor<1x56x56x64xf32>
  %156 = linalg.init_tensor [1, 56, 56, 64] : tensor<1x56x56x64xf32>
  %157 = linalg.generic {indexing_maps = [#map0, #map0, #map0], iterator_types = ["parallel", "parallel", "parallel", "parallel"]} ins(%155, %cst_45 : tensor<1x56x56x64xf32>, tensor<1x56x56x64xf32>) outs(%156 : tensor<1x56x56x64xf32>) {
  ^bb0(%arg1: f32, %arg2: f32, %arg3: f32):
    %868 = arith.divf %arg1, %arg2 : f32
    linalg.yield %868 : f32
  } -> tensor<1x56x56x64xf32>
  %158 = linalg.init_tensor [1, 56, 56, 64] : tensor<1x56x56x64xf32>
  %159 = linalg.generic {indexing_maps = [#map0, #map0, #map0], iterator_types = ["parallel", "parallel", "parallel", "parallel"]} ins(%157, %cst_47 : tensor<1x56x56x64xf32>, tensor<1x56x56x64xf32>) outs(%158 : tensor<1x56x56x64xf32>) {
  ^bb0(%arg1: f32, %arg2: f32, %arg3: f32):
    %868 = arith.addf %arg1, %arg2 : f32
    linalg.yield %868 : f32
  } -> tensor<1x56x56x64xf32>
  %160 = linalg.init_tensor [1, 56, 56, 64] : tensor<1x56x56x64xf32>
  %161 = linalg.generic {indexing_maps = [#map0, #map0, #map0], iterator_types = ["parallel", "parallel", "parallel", "parallel"]} ins(%159, %cst_266 : tensor<1x56x56x64xf32>, tensor<1x56x56x64xf32>) outs(%160 : tensor<1x56x56x64xf32>) {
  ^bb0(%arg1: f32, %arg2: f32, %arg3: f32):
    %868 = arith.maxf %arg1, %arg2 : f32
    linalg.yield %868 : f32
  } -> tensor<1x56x56x64xf32>
  %162 = linalg.init_tensor [1, 56, 56, 256] : tensor<1x56x56x256xf32>
  %cst_349 = arith.constant 0.000000e+00 : f32
  %163 = linalg.fill ins(%cst_349 : f32) outs(%162 : tensor<1x56x56x256xf32>) -> tensor<1x56x56x256xf32>
  %164 = linalg.conv_2d_nhwc_hwcf {dilations = dense<1> : tensor<2xi64>, strides = dense<1> : tensor<2xi64>} ins(%161, %cst_287 : tensor<1x56x56x64xf32>, tensor<1x1x64x256xf32>) outs(%163 : tensor<1x56x56x256xf32>) -> tensor<1x56x56x256xf32>
  %165 = linalg.init_tensor [1, 56, 56, 256] : tensor<1x56x56x256xf32>
  %166 = linalg.generic {indexing_maps = [#map0, #map0, #map0], iterator_types = ["parallel", "parallel", "parallel", "parallel"]} ins(%164, %cst_49 : tensor<1x56x56x256xf32>, tensor<1x56x56x256xf32>) outs(%165 : tensor<1x56x56x256xf32>) {
  ^bb0(%arg1: f32, %arg2: f32, %arg3: f32):
    %868 = arith.addf %arg1, %arg2 : f32
    linalg.yield %868 : f32
  } -> tensor<1x56x56x256xf32>
  %167 = linalg.init_tensor [1, 56, 56, 256] : tensor<1x56x56x256xf32>
  %168 = linalg.generic {indexing_maps = [#map0, #map0, #map0], iterator_types = ["parallel", "parallel", "parallel", "parallel"]} ins(%166, %cst_53 : tensor<1x56x56x256xf32>, tensor<1x56x56x256xf32>) outs(%167 : tensor<1x56x56x256xf32>) {
  ^bb0(%arg1: f32, %arg2: f32, %arg3: f32):
    %868 = arith.subf %arg1, %arg2 : f32
    linalg.yield %868 : f32
  } -> tensor<1x56x56x256xf32>
  %169 = linalg.init_tensor [1, 56, 56, 256] : tensor<1x56x56x256xf32>
  %170 = linalg.generic {indexing_maps = [#map0, #map0, #map0], iterator_types = ["parallel", "parallel", "parallel", "parallel"]} ins(%168, %cst_51 : tensor<1x56x56x256xf32>, tensor<1x56x56x256xf32>) outs(%169 : tensor<1x56x56x256xf32>) {
  ^bb0(%arg1: f32, %arg2: f32, %arg3: f32):
    %868 = arith.mulf %arg1, %arg2 : f32
    linalg.yield %868 : f32
  } -> tensor<1x56x56x256xf32>
  %171 = linalg.init_tensor [1, 56, 56, 256] : tensor<1x56x56x256xf32>
  %172 = linalg.generic {indexing_maps = [#map0, #map0, #map0], iterator_types = ["parallel", "parallel", "parallel", "parallel"]} ins(%170, %cst_50 : tensor<1x56x56x256xf32>, tensor<1x56x56x256xf32>) outs(%171 : tensor<1x56x56x256xf32>) {
  ^bb0(%arg1: f32, %arg2: f32, %arg3: f32):
    %868 = arith.divf %arg1, %arg2 : f32
    linalg.yield %868 : f32
  } -> tensor<1x56x56x256xf32>
  %173 = linalg.init_tensor [1, 56, 56, 256] : tensor<1x56x56x256xf32>
  %174 = linalg.generic {indexing_maps = [#map0, #map0, #map0], iterator_types = ["parallel", "parallel", "parallel", "parallel"]} ins(%172, %cst_52 : tensor<1x56x56x256xf32>, tensor<1x56x56x256xf32>) outs(%173 : tensor<1x56x56x256xf32>) {
  ^bb0(%arg1: f32, %arg2: f32, %arg3: f32):
    %868 = arith.addf %arg1, %arg2 : f32
    linalg.yield %868 : f32
  } -> tensor<1x56x56x256xf32>
  %175 = linalg.init_tensor [1, 56, 56, 256] : tensor<1x56x56x256xf32>
  %176 = linalg.generic {indexing_maps = [#map0, #map0, #map0], iterator_types = ["parallel", "parallel", "parallel", "parallel"]} ins(%130, %174 : tensor<1x56x56x256xf32>, tensor<1x56x56x256xf32>) outs(%175 : tensor<1x56x56x256xf32>) {
  ^bb0(%arg1: f32, %arg2: f32, %arg3: f32):
    %868 = arith.addf %arg1, %arg2 : f32
    linalg.yield %868 : f32
  } -> tensor<1x56x56x256xf32>
  %177 = linalg.init_tensor [1, 56, 56, 256] : tensor<1x56x56x256xf32>
  %178 = linalg.generic {indexing_maps = [#map0, #map0, #map0], iterator_types = ["parallel", "parallel", "parallel", "parallel"]} ins(%176, %cst_267 : tensor<1x56x56x256xf32>, tensor<1x56x56x256xf32>) outs(%177 : tensor<1x56x56x256xf32>) {
  ^bb0(%arg1: f32, %arg2: f32, %arg3: f32):
    %868 = arith.maxf %arg1, %arg2 : f32
    linalg.yield %868 : f32
  } -> tensor<1x56x56x256xf32>
  %179 = linalg.init_tensor [1, 28, 28, 512] : tensor<1x28x28x512xf32>
  %cst_350 = arith.constant 0.000000e+00 : f32
  %180 = linalg.fill ins(%cst_350 : f32) outs(%179 : tensor<1x28x28x512xf32>) -> tensor<1x28x28x512xf32>
  %181 = linalg.conv_2d_nhwc_hwcf {dilations = dense<1> : tensor<2xi64>, strides = dense<2> : tensor<2xi64>} ins(%178, %cst_288 : tensor<1x56x56x256xf32>, tensor<1x1x256x512xf32>) outs(%180 : tensor<1x28x28x512xf32>) -> tensor<1x28x28x512xf32>
  %182 = linalg.init_tensor [1, 28, 28, 512] : tensor<1x28x28x512xf32>
  %183 = linalg.generic {indexing_maps = [#map0, #map0, #map0], iterator_types = ["parallel", "parallel", "parallel", "parallel"]} ins(%181, %cst_54 : tensor<1x28x28x512xf32>, tensor<1x28x28x512xf32>) outs(%182 : tensor<1x28x28x512xf32>) {
  ^bb0(%arg1: f32, %arg2: f32, %arg3: f32):
    %868 = arith.addf %arg1, %arg2 : f32
    linalg.yield %868 : f32
  } -> tensor<1x28x28x512xf32>
  %184 = linalg.init_tensor [1, 28, 28, 512] : tensor<1x28x28x512xf32>
  %185 = linalg.generic {indexing_maps = [#map0, #map0, #map0], iterator_types = ["parallel", "parallel", "parallel", "parallel"]} ins(%183, %cst_58 : tensor<1x28x28x512xf32>, tensor<1x28x28x512xf32>) outs(%184 : tensor<1x28x28x512xf32>) {
  ^bb0(%arg1: f32, %arg2: f32, %arg3: f32):
    %868 = arith.subf %arg1, %arg2 : f32
    linalg.yield %868 : f32
  } -> tensor<1x28x28x512xf32>
  %186 = linalg.init_tensor [1, 28, 28, 512] : tensor<1x28x28x512xf32>
  %187 = linalg.generic {indexing_maps = [#map0, #map0, #map0], iterator_types = ["parallel", "parallel", "parallel", "parallel"]} ins(%185, %cst_56 : tensor<1x28x28x512xf32>, tensor<1x28x28x512xf32>) outs(%186 : tensor<1x28x28x512xf32>) {
  ^bb0(%arg1: f32, %arg2: f32, %arg3: f32):
    %868 = arith.mulf %arg1, %arg2 : f32
    linalg.yield %868 : f32
  } -> tensor<1x28x28x512xf32>
  %188 = linalg.init_tensor [1, 28, 28, 512] : tensor<1x28x28x512xf32>
  %189 = linalg.generic {indexing_maps = [#map0, #map0, #map0], iterator_types = ["parallel", "parallel", "parallel", "parallel"]} ins(%187, %cst_55 : tensor<1x28x28x512xf32>, tensor<1x28x28x512xf32>) outs(%188 : tensor<1x28x28x512xf32>) {
  ^bb0(%arg1: f32, %arg2: f32, %arg3: f32):
    %868 = arith.divf %arg1, %arg2 : f32
    linalg.yield %868 : f32
  } -> tensor<1x28x28x512xf32>
  %190 = linalg.init_tensor [1, 28, 28, 512] : tensor<1x28x28x512xf32>
  %191 = linalg.generic {indexing_maps = [#map0, #map0, #map0], iterator_types = ["parallel", "parallel", "parallel", "parallel"]} ins(%189, %cst_57 : tensor<1x28x28x512xf32>, tensor<1x28x28x512xf32>) outs(%190 : tensor<1x28x28x512xf32>) {
  ^bb0(%arg1: f32, %arg2: f32, %arg3: f32):
    %868 = arith.addf %arg1, %arg2 : f32
    linalg.yield %868 : f32
  } -> tensor<1x28x28x512xf32>
  %192 = linalg.init_tensor [1, 28, 28, 128] : tensor<1x28x28x128xf32>
  %cst_351 = arith.constant 0.000000e+00 : f32
  %193 = linalg.fill ins(%cst_351 : f32) outs(%192 : tensor<1x28x28x128xf32>) -> tensor<1x28x28x128xf32>
  %194 = linalg.conv_2d_nhwc_hwcf {dilations = dense<1> : tensor<2xi64>, strides = dense<2> : tensor<2xi64>} ins(%178, %cst_289 : tensor<1x56x56x256xf32>, tensor<1x1x256x128xf32>) outs(%193 : tensor<1x28x28x128xf32>) -> tensor<1x28x28x128xf32>
  %195 = linalg.init_tensor [1, 28, 28, 128] : tensor<1x28x28x128xf32>
  %196 = linalg.generic {indexing_maps = [#map0, #map0, #map0], iterator_types = ["parallel", "parallel", "parallel", "parallel"]} ins(%194, %cst_59 : tensor<1x28x28x128xf32>, tensor<1x28x28x128xf32>) outs(%195 : tensor<1x28x28x128xf32>) {
  ^bb0(%arg1: f32, %arg2: f32, %arg3: f32):
    %868 = arith.addf %arg1, %arg2 : f32
    linalg.yield %868 : f32
  } -> tensor<1x28x28x128xf32>
  %197 = linalg.init_tensor [1, 28, 28, 128] : tensor<1x28x28x128xf32>
  %198 = linalg.generic {indexing_maps = [#map0, #map0, #map0], iterator_types = ["parallel", "parallel", "parallel", "parallel"]} ins(%196, %cst_63 : tensor<1x28x28x128xf32>, tensor<1x28x28x128xf32>) outs(%197 : tensor<1x28x28x128xf32>) {
  ^bb0(%arg1: f32, %arg2: f32, %arg3: f32):
    %868 = arith.subf %arg1, %arg2 : f32
    linalg.yield %868 : f32
  } -> tensor<1x28x28x128xf32>
  %199 = linalg.init_tensor [1, 28, 28, 128] : tensor<1x28x28x128xf32>
  %200 = linalg.generic {indexing_maps = [#map0, #map0, #map0], iterator_types = ["parallel", "parallel", "parallel", "parallel"]} ins(%198, %cst_61 : tensor<1x28x28x128xf32>, tensor<1x28x28x128xf32>) outs(%199 : tensor<1x28x28x128xf32>) {
  ^bb0(%arg1: f32, %arg2: f32, %arg3: f32):
    %868 = arith.mulf %arg1, %arg2 : f32
    linalg.yield %868 : f32
  } -> tensor<1x28x28x128xf32>
  %201 = linalg.init_tensor [1, 28, 28, 128] : tensor<1x28x28x128xf32>
  %202 = linalg.generic {indexing_maps = [#map0, #map0, #map0], iterator_types = ["parallel", "parallel", "parallel", "parallel"]} ins(%200, %cst_60 : tensor<1x28x28x128xf32>, tensor<1x28x28x128xf32>) outs(%201 : tensor<1x28x28x128xf32>) {
  ^bb0(%arg1: f32, %arg2: f32, %arg3: f32):
    %868 = arith.divf %arg1, %arg2 : f32
    linalg.yield %868 : f32
  } -> tensor<1x28x28x128xf32>
  %203 = linalg.init_tensor [1, 28, 28, 128] : tensor<1x28x28x128xf32>
  %204 = linalg.generic {indexing_maps = [#map0, #map0, #map0], iterator_types = ["parallel", "parallel", "parallel", "parallel"]} ins(%202, %cst_62 : tensor<1x28x28x128xf32>, tensor<1x28x28x128xf32>) outs(%203 : tensor<1x28x28x128xf32>) {
  ^bb0(%arg1: f32, %arg2: f32, %arg3: f32):
    %868 = arith.addf %arg1, %arg2 : f32
    linalg.yield %868 : f32
  } -> tensor<1x28x28x128xf32>
  %205 = linalg.init_tensor [1, 28, 28, 128] : tensor<1x28x28x128xf32>
  %206 = linalg.generic {indexing_maps = [#map0, #map0, #map0], iterator_types = ["parallel", "parallel", "parallel", "parallel"]} ins(%204, %cst_268 : tensor<1x28x28x128xf32>, tensor<1x28x28x128xf32>) outs(%205 : tensor<1x28x28x128xf32>) {
  ^bb0(%arg1: f32, %arg2: f32, %arg3: f32):
    %868 = arith.maxf %arg1, %arg2 : f32
    linalg.yield %868 : f32
  } -> tensor<1x28x28x128xf32>
  %207 = linalg.init_tensor [1, 28, 28, 128] : tensor<1x28x28x128xf32>
  %cst_352 = arith.constant 0.000000e+00 : f32
  %208 = linalg.fill ins(%cst_352 : f32) outs(%207 : tensor<1x28x28x128xf32>) -> tensor<1x28x28x128xf32>
  %cst_353 = arith.constant dense<0.000000e+00> : tensor<f32>
  %cst_354 = arith.constant 0.000000e+00 : f32
  %209 = tensor.pad %206 low[0, 1, 1, 0] high[0, 1, 1, 0] {
  ^bb0(%arg1: index, %arg2: index, %arg3: index, %arg4: index):
    tensor.yield %cst_354 : f32
  } : tensor<1x28x28x128xf32> to tensor<1x30x30x128xf32>
  %210 = linalg.conv_2d_nhwc_hwcf {dilations = dense<1> : tensor<2xi64>, strides = dense<1> : tensor<2xi64>} ins(%209, %cst_290 : tensor<1x30x30x128xf32>, tensor<3x3x128x128xf32>) outs(%208 : tensor<1x28x28x128xf32>) -> tensor<1x28x28x128xf32>
  %211 = linalg.init_tensor [1, 28, 28, 128] : tensor<1x28x28x128xf32>
  %212 = linalg.generic {indexing_maps = [#map0, #map0, #map0], iterator_types = ["parallel", "parallel", "parallel", "parallel"]} ins(%210, %cst_64 : tensor<1x28x28x128xf32>, tensor<1x28x28x128xf32>) outs(%211 : tensor<1x28x28x128xf32>) {
  ^bb0(%arg1: f32, %arg2: f32, %arg3: f32):
    %868 = arith.addf %arg1, %arg2 : f32
    linalg.yield %868 : f32
  } -> tensor<1x28x28x128xf32>
  %213 = linalg.init_tensor [1, 28, 28, 128] : tensor<1x28x28x128xf32>
  %214 = linalg.generic {indexing_maps = [#map0, #map0, #map0], iterator_types = ["parallel", "parallel", "parallel", "parallel"]} ins(%212, %cst_68 : tensor<1x28x28x128xf32>, tensor<1x28x28x128xf32>) outs(%213 : tensor<1x28x28x128xf32>) {
  ^bb0(%arg1: f32, %arg2: f32, %arg3: f32):
    %868 = arith.subf %arg1, %arg2 : f32
    linalg.yield %868 : f32
  } -> tensor<1x28x28x128xf32>
  %215 = linalg.init_tensor [1, 28, 28, 128] : tensor<1x28x28x128xf32>
  %216 = linalg.generic {indexing_maps = [#map0, #map0, #map0], iterator_types = ["parallel", "parallel", "parallel", "parallel"]} ins(%214, %cst_66 : tensor<1x28x28x128xf32>, tensor<1x28x28x128xf32>) outs(%215 : tensor<1x28x28x128xf32>) {
  ^bb0(%arg1: f32, %arg2: f32, %arg3: f32):
    %868 = arith.mulf %arg1, %arg2 : f32
    linalg.yield %868 : f32
  } -> tensor<1x28x28x128xf32>
  %217 = linalg.init_tensor [1, 28, 28, 128] : tensor<1x28x28x128xf32>
  %218 = linalg.generic {indexing_maps = [#map0, #map0, #map0], iterator_types = ["parallel", "parallel", "parallel", "parallel"]} ins(%216, %cst_65 : tensor<1x28x28x128xf32>, tensor<1x28x28x128xf32>) outs(%217 : tensor<1x28x28x128xf32>) {
  ^bb0(%arg1: f32, %arg2: f32, %arg3: f32):
    %868 = arith.divf %arg1, %arg2 : f32
    linalg.yield %868 : f32
  } -> tensor<1x28x28x128xf32>
  %219 = linalg.init_tensor [1, 28, 28, 128] : tensor<1x28x28x128xf32>
  %220 = linalg.generic {indexing_maps = [#map0, #map0, #map0], iterator_types = ["parallel", "parallel", "parallel", "parallel"]} ins(%218, %cst_67 : tensor<1x28x28x128xf32>, tensor<1x28x28x128xf32>) outs(%219 : tensor<1x28x28x128xf32>) {
  ^bb0(%arg1: f32, %arg2: f32, %arg3: f32):
    %868 = arith.addf %arg1, %arg2 : f32
    linalg.yield %868 : f32
  } -> tensor<1x28x28x128xf32>
  %221 = linalg.init_tensor [1, 28, 28, 128] : tensor<1x28x28x128xf32>
  %222 = linalg.generic {indexing_maps = [#map0, #map0, #map0], iterator_types = ["parallel", "parallel", "parallel", "parallel"]} ins(%220, %cst_268 : tensor<1x28x28x128xf32>, tensor<1x28x28x128xf32>) outs(%221 : tensor<1x28x28x128xf32>) {
  ^bb0(%arg1: f32, %arg2: f32, %arg3: f32):
    %868 = arith.maxf %arg1, %arg2 : f32
    linalg.yield %868 : f32
  } -> tensor<1x28x28x128xf32>
  %223 = linalg.init_tensor [1, 28, 28, 512] : tensor<1x28x28x512xf32>
  %cst_355 = arith.constant 0.000000e+00 : f32
  %224 = linalg.fill ins(%cst_355 : f32) outs(%223 : tensor<1x28x28x512xf32>) -> tensor<1x28x28x512xf32>
  %225 = linalg.conv_2d_nhwc_hwcf {dilations = dense<1> : tensor<2xi64>, strides = dense<1> : tensor<2xi64>} ins(%222, %cst_291 : tensor<1x28x28x128xf32>, tensor<1x1x128x512xf32>) outs(%224 : tensor<1x28x28x512xf32>) -> tensor<1x28x28x512xf32>
  %226 = linalg.init_tensor [1, 28, 28, 512] : tensor<1x28x28x512xf32>
  %227 = linalg.generic {indexing_maps = [#map0, #map0, #map0], iterator_types = ["parallel", "parallel", "parallel", "parallel"]} ins(%225, %cst_69 : tensor<1x28x28x512xf32>, tensor<1x28x28x512xf32>) outs(%226 : tensor<1x28x28x512xf32>) {
  ^bb0(%arg1: f32, %arg2: f32, %arg3: f32):
    %868 = arith.addf %arg1, %arg2 : f32
    linalg.yield %868 : f32
  } -> tensor<1x28x28x512xf32>
  %228 = linalg.init_tensor [1, 28, 28, 512] : tensor<1x28x28x512xf32>
  %229 = linalg.generic {indexing_maps = [#map0, #map0, #map0], iterator_types = ["parallel", "parallel", "parallel", "parallel"]} ins(%227, %cst_73 : tensor<1x28x28x512xf32>, tensor<1x28x28x512xf32>) outs(%228 : tensor<1x28x28x512xf32>) {
  ^bb0(%arg1: f32, %arg2: f32, %arg3: f32):
    %868 = arith.subf %arg1, %arg2 : f32
    linalg.yield %868 : f32
  } -> tensor<1x28x28x512xf32>
  %230 = linalg.init_tensor [1, 28, 28, 512] : tensor<1x28x28x512xf32>
  %231 = linalg.generic {indexing_maps = [#map0, #map0, #map0], iterator_types = ["parallel", "parallel", "parallel", "parallel"]} ins(%229, %cst_71 : tensor<1x28x28x512xf32>, tensor<1x28x28x512xf32>) outs(%230 : tensor<1x28x28x512xf32>) {
  ^bb0(%arg1: f32, %arg2: f32, %arg3: f32):
    %868 = arith.mulf %arg1, %arg2 : f32
    linalg.yield %868 : f32
  } -> tensor<1x28x28x512xf32>
  %232 = linalg.init_tensor [1, 28, 28, 512] : tensor<1x28x28x512xf32>
  %233 = linalg.generic {indexing_maps = [#map0, #map0, #map0], iterator_types = ["parallel", "parallel", "parallel", "parallel"]} ins(%231, %cst_70 : tensor<1x28x28x512xf32>, tensor<1x28x28x512xf32>) outs(%232 : tensor<1x28x28x512xf32>) {
  ^bb0(%arg1: f32, %arg2: f32, %arg3: f32):
    %868 = arith.divf %arg1, %arg2 : f32
    linalg.yield %868 : f32
  } -> tensor<1x28x28x512xf32>
  %234 = linalg.init_tensor [1, 28, 28, 512] : tensor<1x28x28x512xf32>
  %235 = linalg.generic {indexing_maps = [#map0, #map0, #map0], iterator_types = ["parallel", "parallel", "parallel", "parallel"]} ins(%233, %cst_72 : tensor<1x28x28x512xf32>, tensor<1x28x28x512xf32>) outs(%234 : tensor<1x28x28x512xf32>) {
  ^bb0(%arg1: f32, %arg2: f32, %arg3: f32):
    %868 = arith.addf %arg1, %arg2 : f32
    linalg.yield %868 : f32
  } -> tensor<1x28x28x512xf32>
  %236 = linalg.init_tensor [1, 28, 28, 512] : tensor<1x28x28x512xf32>
  %237 = linalg.generic {indexing_maps = [#map0, #map0, #map0], iterator_types = ["parallel", "parallel", "parallel", "parallel"]} ins(%191, %235 : tensor<1x28x28x512xf32>, tensor<1x28x28x512xf32>) outs(%236 : tensor<1x28x28x512xf32>) {
  ^bb0(%arg1: f32, %arg2: f32, %arg3: f32):
    %868 = arith.addf %arg1, %arg2 : f32
    linalg.yield %868 : f32
  } -> tensor<1x28x28x512xf32>
  %238 = linalg.init_tensor [1, 28, 28, 512] : tensor<1x28x28x512xf32>
  %239 = linalg.generic {indexing_maps = [#map0, #map0, #map0], iterator_types = ["parallel", "parallel", "parallel", "parallel"]} ins(%237, %cst_269 : tensor<1x28x28x512xf32>, tensor<1x28x28x512xf32>) outs(%238 : tensor<1x28x28x512xf32>) {
  ^bb0(%arg1: f32, %arg2: f32, %arg3: f32):
    %868 = arith.maxf %arg1, %arg2 : f32
    linalg.yield %868 : f32
  } -> tensor<1x28x28x512xf32>
  %240 = linalg.init_tensor [1, 28, 28, 128] : tensor<1x28x28x128xf32>
  %cst_356 = arith.constant 0.000000e+00 : f32
  %241 = linalg.fill ins(%cst_356 : f32) outs(%240 : tensor<1x28x28x128xf32>) -> tensor<1x28x28x128xf32>
  %242 = linalg.conv_2d_nhwc_hwcf {dilations = dense<1> : tensor<2xi64>, strides = dense<1> : tensor<2xi64>} ins(%239, %cst_292 : tensor<1x28x28x512xf32>, tensor<1x1x512x128xf32>) outs(%241 : tensor<1x28x28x128xf32>) -> tensor<1x28x28x128xf32>
  %243 = linalg.init_tensor [1, 28, 28, 128] : tensor<1x28x28x128xf32>
  %244 = linalg.generic {indexing_maps = [#map0, #map0, #map0], iterator_types = ["parallel", "parallel", "parallel", "parallel"]} ins(%242, %cst_74 : tensor<1x28x28x128xf32>, tensor<1x28x28x128xf32>) outs(%243 : tensor<1x28x28x128xf32>) {
  ^bb0(%arg1: f32, %arg2: f32, %arg3: f32):
    %868 = arith.addf %arg1, %arg2 : f32
    linalg.yield %868 : f32
  } -> tensor<1x28x28x128xf32>
  %245 = linalg.init_tensor [1, 28, 28, 128] : tensor<1x28x28x128xf32>
  %246 = linalg.generic {indexing_maps = [#map0, #map0, #map0], iterator_types = ["parallel", "parallel", "parallel", "parallel"]} ins(%244, %cst_78 : tensor<1x28x28x128xf32>, tensor<1x28x28x128xf32>) outs(%245 : tensor<1x28x28x128xf32>) {
  ^bb0(%arg1: f32, %arg2: f32, %arg3: f32):
    %868 = arith.subf %arg1, %arg2 : f32
    linalg.yield %868 : f32
  } -> tensor<1x28x28x128xf32>
  %247 = linalg.init_tensor [1, 28, 28, 128] : tensor<1x28x28x128xf32>
  %248 = linalg.generic {indexing_maps = [#map0, #map0, #map0], iterator_types = ["parallel", "parallel", "parallel", "parallel"]} ins(%246, %cst_76 : tensor<1x28x28x128xf32>, tensor<1x28x28x128xf32>) outs(%247 : tensor<1x28x28x128xf32>) {
  ^bb0(%arg1: f32, %arg2: f32, %arg3: f32):
    %868 = arith.mulf %arg1, %arg2 : f32
    linalg.yield %868 : f32
  } -> tensor<1x28x28x128xf32>
  %249 = linalg.init_tensor [1, 28, 28, 128] : tensor<1x28x28x128xf32>
  %250 = linalg.generic {indexing_maps = [#map0, #map0, #map0], iterator_types = ["parallel", "parallel", "parallel", "parallel"]} ins(%248, %cst_75 : tensor<1x28x28x128xf32>, tensor<1x28x28x128xf32>) outs(%249 : tensor<1x28x28x128xf32>) {
  ^bb0(%arg1: f32, %arg2: f32, %arg3: f32):
    %868 = arith.divf %arg1, %arg2 : f32
    linalg.yield %868 : f32
  } -> tensor<1x28x28x128xf32>
  %251 = linalg.init_tensor [1, 28, 28, 128] : tensor<1x28x28x128xf32>
  %252 = linalg.generic {indexing_maps = [#map0, #map0, #map0], iterator_types = ["parallel", "parallel", "parallel", "parallel"]} ins(%250, %cst_77 : tensor<1x28x28x128xf32>, tensor<1x28x28x128xf32>) outs(%251 : tensor<1x28x28x128xf32>) {
  ^bb0(%arg1: f32, %arg2: f32, %arg3: f32):
    %868 = arith.addf %arg1, %arg2 : f32
    linalg.yield %868 : f32
  } -> tensor<1x28x28x128xf32>
  %253 = linalg.init_tensor [1, 28, 28, 128] : tensor<1x28x28x128xf32>
  %254 = linalg.generic {indexing_maps = [#map0, #map0, #map0], iterator_types = ["parallel", "parallel", "parallel", "parallel"]} ins(%252, %cst_268 : tensor<1x28x28x128xf32>, tensor<1x28x28x128xf32>) outs(%253 : tensor<1x28x28x128xf32>) {
  ^bb0(%arg1: f32, %arg2: f32, %arg3: f32):
    %868 = arith.maxf %arg1, %arg2 : f32
    linalg.yield %868 : f32
  } -> tensor<1x28x28x128xf32>
  %255 = linalg.init_tensor [1, 28, 28, 128] : tensor<1x28x28x128xf32>
  %cst_357 = arith.constant 0.000000e+00 : f32
  %256 = linalg.fill ins(%cst_357 : f32) outs(%255 : tensor<1x28x28x128xf32>) -> tensor<1x28x28x128xf32>
  %cst_358 = arith.constant dense<0.000000e+00> : tensor<f32>
  %cst_359 = arith.constant 0.000000e+00 : f32
  %257 = tensor.pad %254 low[0, 1, 1, 0] high[0, 1, 1, 0] {
  ^bb0(%arg1: index, %arg2: index, %arg3: index, %arg4: index):
    tensor.yield %cst_359 : f32
  } : tensor<1x28x28x128xf32> to tensor<1x30x30x128xf32>
  %258 = linalg.conv_2d_nhwc_hwcf {dilations = dense<1> : tensor<2xi64>, strides = dense<1> : tensor<2xi64>} ins(%257, %cst_293 : tensor<1x30x30x128xf32>, tensor<3x3x128x128xf32>) outs(%256 : tensor<1x28x28x128xf32>) -> tensor<1x28x28x128xf32>
  %259 = linalg.init_tensor [1, 28, 28, 128] : tensor<1x28x28x128xf32>
  %260 = linalg.generic {indexing_maps = [#map0, #map0, #map0], iterator_types = ["parallel", "parallel", "parallel", "parallel"]} ins(%258, %cst_79 : tensor<1x28x28x128xf32>, tensor<1x28x28x128xf32>) outs(%259 : tensor<1x28x28x128xf32>) {
  ^bb0(%arg1: f32, %arg2: f32, %arg3: f32):
    %868 = arith.addf %arg1, %arg2 : f32
    linalg.yield %868 : f32
  } -> tensor<1x28x28x128xf32>
  %261 = linalg.init_tensor [1, 28, 28, 128] : tensor<1x28x28x128xf32>
  %262 = linalg.generic {indexing_maps = [#map0, #map0, #map0], iterator_types = ["parallel", "parallel", "parallel", "parallel"]} ins(%260, %cst_83 : tensor<1x28x28x128xf32>, tensor<1x28x28x128xf32>) outs(%261 : tensor<1x28x28x128xf32>) {
  ^bb0(%arg1: f32, %arg2: f32, %arg3: f32):
    %868 = arith.subf %arg1, %arg2 : f32
    linalg.yield %868 : f32
  } -> tensor<1x28x28x128xf32>
  %263 = linalg.init_tensor [1, 28, 28, 128] : tensor<1x28x28x128xf32>
  %264 = linalg.generic {indexing_maps = [#map0, #map0, #map0], iterator_types = ["parallel", "parallel", "parallel", "parallel"]} ins(%262, %cst_81 : tensor<1x28x28x128xf32>, tensor<1x28x28x128xf32>) outs(%263 : tensor<1x28x28x128xf32>) {
  ^bb0(%arg1: f32, %arg2: f32, %arg3: f32):
    %868 = arith.mulf %arg1, %arg2 : f32
    linalg.yield %868 : f32
  } -> tensor<1x28x28x128xf32>
  %265 = linalg.init_tensor [1, 28, 28, 128] : tensor<1x28x28x128xf32>
  %266 = linalg.generic {indexing_maps = [#map0, #map0, #map0], iterator_types = ["parallel", "parallel", "parallel", "parallel"]} ins(%264, %cst_80 : tensor<1x28x28x128xf32>, tensor<1x28x28x128xf32>) outs(%265 : tensor<1x28x28x128xf32>) {
  ^bb0(%arg1: f32, %arg2: f32, %arg3: f32):
    %868 = arith.divf %arg1, %arg2 : f32
    linalg.yield %868 : f32
  } -> tensor<1x28x28x128xf32>
  %267 = linalg.init_tensor [1, 28, 28, 128] : tensor<1x28x28x128xf32>
  %268 = linalg.generic {indexing_maps = [#map0, #map0, #map0], iterator_types = ["parallel", "parallel", "parallel", "parallel"]} ins(%266, %cst_82 : tensor<1x28x28x128xf32>, tensor<1x28x28x128xf32>) outs(%267 : tensor<1x28x28x128xf32>) {
  ^bb0(%arg1: f32, %arg2: f32, %arg3: f32):
    %868 = arith.addf %arg1, %arg2 : f32
    linalg.yield %868 : f32
  } -> tensor<1x28x28x128xf32>
  %269 = linalg.init_tensor [1, 28, 28, 128] : tensor<1x28x28x128xf32>
  %270 = linalg.generic {indexing_maps = [#map0, #map0, #map0], iterator_types = ["parallel", "parallel", "parallel", "parallel"]} ins(%268, %cst_268 : tensor<1x28x28x128xf32>, tensor<1x28x28x128xf32>) outs(%269 : tensor<1x28x28x128xf32>) {
  ^bb0(%arg1: f32, %arg2: f32, %arg3: f32):
    %868 = arith.maxf %arg1, %arg2 : f32
    linalg.yield %868 : f32
  } -> tensor<1x28x28x128xf32>
  %271 = linalg.init_tensor [1, 28, 28, 512] : tensor<1x28x28x512xf32>
  %cst_360 = arith.constant 0.000000e+00 : f32
  %272 = linalg.fill ins(%cst_360 : f32) outs(%271 : tensor<1x28x28x512xf32>) -> tensor<1x28x28x512xf32>
  %273 = linalg.conv_2d_nhwc_hwcf {dilations = dense<1> : tensor<2xi64>, strides = dense<1> : tensor<2xi64>} ins(%270, %cst_294 : tensor<1x28x28x128xf32>, tensor<1x1x128x512xf32>) outs(%272 : tensor<1x28x28x512xf32>) -> tensor<1x28x28x512xf32>
  %274 = linalg.init_tensor [1, 28, 28, 512] : tensor<1x28x28x512xf32>
  %275 = linalg.generic {indexing_maps = [#map0, #map0, #map0], iterator_types = ["parallel", "parallel", "parallel", "parallel"]} ins(%273, %cst_84 : tensor<1x28x28x512xf32>, tensor<1x28x28x512xf32>) outs(%274 : tensor<1x28x28x512xf32>) {
  ^bb0(%arg1: f32, %arg2: f32, %arg3: f32):
    %868 = arith.addf %arg1, %arg2 : f32
    linalg.yield %868 : f32
  } -> tensor<1x28x28x512xf32>
  %276 = linalg.init_tensor [1, 28, 28, 512] : tensor<1x28x28x512xf32>
  %277 = linalg.generic {indexing_maps = [#map0, #map0, #map0], iterator_types = ["parallel", "parallel", "parallel", "parallel"]} ins(%275, %cst_88 : tensor<1x28x28x512xf32>, tensor<1x28x28x512xf32>) outs(%276 : tensor<1x28x28x512xf32>) {
  ^bb0(%arg1: f32, %arg2: f32, %arg3: f32):
    %868 = arith.subf %arg1, %arg2 : f32
    linalg.yield %868 : f32
  } -> tensor<1x28x28x512xf32>
  %278 = linalg.init_tensor [1, 28, 28, 512] : tensor<1x28x28x512xf32>
  %279 = linalg.generic {indexing_maps = [#map0, #map0, #map0], iterator_types = ["parallel", "parallel", "parallel", "parallel"]} ins(%277, %cst_86 : tensor<1x28x28x512xf32>, tensor<1x28x28x512xf32>) outs(%278 : tensor<1x28x28x512xf32>) {
  ^bb0(%arg1: f32, %arg2: f32, %arg3: f32):
    %868 = arith.mulf %arg1, %arg2 : f32
    linalg.yield %868 : f32
  } -> tensor<1x28x28x512xf32>
  %280 = linalg.init_tensor [1, 28, 28, 512] : tensor<1x28x28x512xf32>
  %281 = linalg.generic {indexing_maps = [#map0, #map0, #map0], iterator_types = ["parallel", "parallel", "parallel", "parallel"]} ins(%279, %cst_85 : tensor<1x28x28x512xf32>, tensor<1x28x28x512xf32>) outs(%280 : tensor<1x28x28x512xf32>) {
  ^bb0(%arg1: f32, %arg2: f32, %arg3: f32):
    %868 = arith.divf %arg1, %arg2 : f32
    linalg.yield %868 : f32
  } -> tensor<1x28x28x512xf32>
  %282 = linalg.init_tensor [1, 28, 28, 512] : tensor<1x28x28x512xf32>
  %283 = linalg.generic {indexing_maps = [#map0, #map0, #map0], iterator_types = ["parallel", "parallel", "parallel", "parallel"]} ins(%281, %cst_87 : tensor<1x28x28x512xf32>, tensor<1x28x28x512xf32>) outs(%282 : tensor<1x28x28x512xf32>) {
  ^bb0(%arg1: f32, %arg2: f32, %arg3: f32):
    %868 = arith.addf %arg1, %arg2 : f32
    linalg.yield %868 : f32
  } -> tensor<1x28x28x512xf32>
  %284 = linalg.init_tensor [1, 28, 28, 512] : tensor<1x28x28x512xf32>
  %285 = linalg.generic {indexing_maps = [#map0, #map0, #map0], iterator_types = ["parallel", "parallel", "parallel", "parallel"]} ins(%239, %283 : tensor<1x28x28x512xf32>, tensor<1x28x28x512xf32>) outs(%284 : tensor<1x28x28x512xf32>) {
  ^bb0(%arg1: f32, %arg2: f32, %arg3: f32):
    %868 = arith.addf %arg1, %arg2 : f32
    linalg.yield %868 : f32
  } -> tensor<1x28x28x512xf32>
  %286 = linalg.init_tensor [1, 28, 28, 512] : tensor<1x28x28x512xf32>
  %287 = linalg.generic {indexing_maps = [#map0, #map0, #map0], iterator_types = ["parallel", "parallel", "parallel", "parallel"]} ins(%285, %cst_269 : tensor<1x28x28x512xf32>, tensor<1x28x28x512xf32>) outs(%286 : tensor<1x28x28x512xf32>) {
  ^bb0(%arg1: f32, %arg2: f32, %arg3: f32):
    %868 = arith.maxf %arg1, %arg2 : f32
    linalg.yield %868 : f32
  } -> tensor<1x28x28x512xf32>
  %288 = linalg.init_tensor [1, 28, 28, 128] : tensor<1x28x28x128xf32>
  %cst_361 = arith.constant 0.000000e+00 : f32
  %289 = linalg.fill ins(%cst_361 : f32) outs(%288 : tensor<1x28x28x128xf32>) -> tensor<1x28x28x128xf32>
  %290 = linalg.conv_2d_nhwc_hwcf {dilations = dense<1> : tensor<2xi64>, strides = dense<1> : tensor<2xi64>} ins(%287, %cst_295 : tensor<1x28x28x512xf32>, tensor<1x1x512x128xf32>) outs(%289 : tensor<1x28x28x128xf32>) -> tensor<1x28x28x128xf32>
  %291 = linalg.init_tensor [1, 28, 28, 128] : tensor<1x28x28x128xf32>
  %292 = linalg.generic {indexing_maps = [#map0, #map0, #map0], iterator_types = ["parallel", "parallel", "parallel", "parallel"]} ins(%290, %cst_89 : tensor<1x28x28x128xf32>, tensor<1x28x28x128xf32>) outs(%291 : tensor<1x28x28x128xf32>) {
  ^bb0(%arg1: f32, %arg2: f32, %arg3: f32):
    %868 = arith.addf %arg1, %arg2 : f32
    linalg.yield %868 : f32
  } -> tensor<1x28x28x128xf32>
  %293 = linalg.init_tensor [1, 28, 28, 128] : tensor<1x28x28x128xf32>
  %294 = linalg.generic {indexing_maps = [#map0, #map0, #map0], iterator_types = ["parallel", "parallel", "parallel", "parallel"]} ins(%292, %cst_93 : tensor<1x28x28x128xf32>, tensor<1x28x28x128xf32>) outs(%293 : tensor<1x28x28x128xf32>) {
  ^bb0(%arg1: f32, %arg2: f32, %arg3: f32):
    %868 = arith.subf %arg1, %arg2 : f32
    linalg.yield %868 : f32
  } -> tensor<1x28x28x128xf32>
  %295 = linalg.init_tensor [1, 28, 28, 128] : tensor<1x28x28x128xf32>
  %296 = linalg.generic {indexing_maps = [#map0, #map0, #map0], iterator_types = ["parallel", "parallel", "parallel", "parallel"]} ins(%294, %cst_91 : tensor<1x28x28x128xf32>, tensor<1x28x28x128xf32>) outs(%295 : tensor<1x28x28x128xf32>) {
  ^bb0(%arg1: f32, %arg2: f32, %arg3: f32):
    %868 = arith.mulf %arg1, %arg2 : f32
    linalg.yield %868 : f32
  } -> tensor<1x28x28x128xf32>
  %297 = linalg.init_tensor [1, 28, 28, 128] : tensor<1x28x28x128xf32>
  %298 = linalg.generic {indexing_maps = [#map0, #map0, #map0], iterator_types = ["parallel", "parallel", "parallel", "parallel"]} ins(%296, %cst_90 : tensor<1x28x28x128xf32>, tensor<1x28x28x128xf32>) outs(%297 : tensor<1x28x28x128xf32>) {
  ^bb0(%arg1: f32, %arg2: f32, %arg3: f32):
    %868 = arith.divf %arg1, %arg2 : f32
    linalg.yield %868 : f32
  } -> tensor<1x28x28x128xf32>
  %299 = linalg.init_tensor [1, 28, 28, 128] : tensor<1x28x28x128xf32>
  %300 = linalg.generic {indexing_maps = [#map0, #map0, #map0], iterator_types = ["parallel", "parallel", "parallel", "parallel"]} ins(%298, %cst_92 : tensor<1x28x28x128xf32>, tensor<1x28x28x128xf32>) outs(%299 : tensor<1x28x28x128xf32>) {
  ^bb0(%arg1: f32, %arg2: f32, %arg3: f32):
    %868 = arith.addf %arg1, %arg2 : f32
    linalg.yield %868 : f32
  } -> tensor<1x28x28x128xf32>
  %301 = linalg.init_tensor [1, 28, 28, 128] : tensor<1x28x28x128xf32>
  %302 = linalg.generic {indexing_maps = [#map0, #map0, #map0], iterator_types = ["parallel", "parallel", "parallel", "parallel"]} ins(%300, %cst_268 : tensor<1x28x28x128xf32>, tensor<1x28x28x128xf32>) outs(%301 : tensor<1x28x28x128xf32>) {
  ^bb0(%arg1: f32, %arg2: f32, %arg3: f32):
    %868 = arith.maxf %arg1, %arg2 : f32
    linalg.yield %868 : f32
  } -> tensor<1x28x28x128xf32>
  %303 = linalg.init_tensor [1, 28, 28, 128] : tensor<1x28x28x128xf32>
  %cst_362 = arith.constant 0.000000e+00 : f32
  %304 = linalg.fill ins(%cst_362 : f32) outs(%303 : tensor<1x28x28x128xf32>) -> tensor<1x28x28x128xf32>
  %cst_363 = arith.constant dense<0.000000e+00> : tensor<f32>
  %cst_364 = arith.constant 0.000000e+00 : f32
  %305 = tensor.pad %302 low[0, 1, 1, 0] high[0, 1, 1, 0] {
  ^bb0(%arg1: index, %arg2: index, %arg3: index, %arg4: index):
    tensor.yield %cst_364 : f32
  } : tensor<1x28x28x128xf32> to tensor<1x30x30x128xf32>
  %306 = linalg.conv_2d_nhwc_hwcf {dilations = dense<1> : tensor<2xi64>, strides = dense<1> : tensor<2xi64>} ins(%305, %cst_296 : tensor<1x30x30x128xf32>, tensor<3x3x128x128xf32>) outs(%304 : tensor<1x28x28x128xf32>) -> tensor<1x28x28x128xf32>
  %307 = linalg.init_tensor [1, 28, 28, 128] : tensor<1x28x28x128xf32>
  %308 = linalg.generic {indexing_maps = [#map0, #map0, #map0], iterator_types = ["parallel", "parallel", "parallel", "parallel"]} ins(%306, %cst_94 : tensor<1x28x28x128xf32>, tensor<1x28x28x128xf32>) outs(%307 : tensor<1x28x28x128xf32>) {
  ^bb0(%arg1: f32, %arg2: f32, %arg3: f32):
    %868 = arith.addf %arg1, %arg2 : f32
    linalg.yield %868 : f32
  } -> tensor<1x28x28x128xf32>
  %309 = linalg.init_tensor [1, 28, 28, 128] : tensor<1x28x28x128xf32>
  %310 = linalg.generic {indexing_maps = [#map0, #map0, #map0], iterator_types = ["parallel", "parallel", "parallel", "parallel"]} ins(%308, %cst_98 : tensor<1x28x28x128xf32>, tensor<1x28x28x128xf32>) outs(%309 : tensor<1x28x28x128xf32>) {
  ^bb0(%arg1: f32, %arg2: f32, %arg3: f32):
    %868 = arith.subf %arg1, %arg2 : f32
    linalg.yield %868 : f32
  } -> tensor<1x28x28x128xf32>
  %311 = linalg.init_tensor [1, 28, 28, 128] : tensor<1x28x28x128xf32>
  %312 = linalg.generic {indexing_maps = [#map0, #map0, #map0], iterator_types = ["parallel", "parallel", "parallel", "parallel"]} ins(%310, %cst_96 : tensor<1x28x28x128xf32>, tensor<1x28x28x128xf32>) outs(%311 : tensor<1x28x28x128xf32>) {
  ^bb0(%arg1: f32, %arg2: f32, %arg3: f32):
    %868 = arith.mulf %arg1, %arg2 : f32
    linalg.yield %868 : f32
  } -> tensor<1x28x28x128xf32>
  %313 = linalg.init_tensor [1, 28, 28, 128] : tensor<1x28x28x128xf32>
  %314 = linalg.generic {indexing_maps = [#map0, #map0, #map0], iterator_types = ["parallel", "parallel", "parallel", "parallel"]} ins(%312, %cst_95 : tensor<1x28x28x128xf32>, tensor<1x28x28x128xf32>) outs(%313 : tensor<1x28x28x128xf32>) {
  ^bb0(%arg1: f32, %arg2: f32, %arg3: f32):
    %868 = arith.divf %arg1, %arg2 : f32
    linalg.yield %868 : f32
  } -> tensor<1x28x28x128xf32>
  %315 = linalg.init_tensor [1, 28, 28, 128] : tensor<1x28x28x128xf32>
  %316 = linalg.generic {indexing_maps = [#map0, #map0, #map0], iterator_types = ["parallel", "parallel", "parallel", "parallel"]} ins(%314, %cst_97 : tensor<1x28x28x128xf32>, tensor<1x28x28x128xf32>) outs(%315 : tensor<1x28x28x128xf32>) {
  ^bb0(%arg1: f32, %arg2: f32, %arg3: f32):
    %868 = arith.addf %arg1, %arg2 : f32
    linalg.yield %868 : f32
  } -> tensor<1x28x28x128xf32>
  %317 = linalg.init_tensor [1, 28, 28, 128] : tensor<1x28x28x128xf32>
  %318 = linalg.generic {indexing_maps = [#map0, #map0, #map0], iterator_types = ["parallel", "parallel", "parallel", "parallel"]} ins(%316, %cst_268 : tensor<1x28x28x128xf32>, tensor<1x28x28x128xf32>) outs(%317 : tensor<1x28x28x128xf32>) {
  ^bb0(%arg1: f32, %arg2: f32, %arg3: f32):
    %868 = arith.maxf %arg1, %arg2 : f32
    linalg.yield %868 : f32
  } -> tensor<1x28x28x128xf32>
  %319 = linalg.init_tensor [1, 28, 28, 512] : tensor<1x28x28x512xf32>
  %cst_365 = arith.constant 0.000000e+00 : f32
  %320 = linalg.fill ins(%cst_365 : f32) outs(%319 : tensor<1x28x28x512xf32>) -> tensor<1x28x28x512xf32>
  %321 = linalg.conv_2d_nhwc_hwcf {dilations = dense<1> : tensor<2xi64>, strides = dense<1> : tensor<2xi64>} ins(%318, %cst_297 : tensor<1x28x28x128xf32>, tensor<1x1x128x512xf32>) outs(%320 : tensor<1x28x28x512xf32>) -> tensor<1x28x28x512xf32>
  %322 = linalg.init_tensor [1, 28, 28, 512] : tensor<1x28x28x512xf32>
  %323 = linalg.generic {indexing_maps = [#map0, #map0, #map0], iterator_types = ["parallel", "parallel", "parallel", "parallel"]} ins(%321, %cst_99 : tensor<1x28x28x512xf32>, tensor<1x28x28x512xf32>) outs(%322 : tensor<1x28x28x512xf32>) {
  ^bb0(%arg1: f32, %arg2: f32, %arg3: f32):
    %868 = arith.addf %arg1, %arg2 : f32
    linalg.yield %868 : f32
  } -> tensor<1x28x28x512xf32>
  %324 = linalg.init_tensor [1, 28, 28, 512] : tensor<1x28x28x512xf32>
  %325 = linalg.generic {indexing_maps = [#map0, #map0, #map0], iterator_types = ["parallel", "parallel", "parallel", "parallel"]} ins(%323, %cst_103 : tensor<1x28x28x512xf32>, tensor<1x28x28x512xf32>) outs(%324 : tensor<1x28x28x512xf32>) {
  ^bb0(%arg1: f32, %arg2: f32, %arg3: f32):
    %868 = arith.subf %arg1, %arg2 : f32
    linalg.yield %868 : f32
  } -> tensor<1x28x28x512xf32>
  %326 = linalg.init_tensor [1, 28, 28, 512] : tensor<1x28x28x512xf32>
  %327 = linalg.generic {indexing_maps = [#map0, #map0, #map0], iterator_types = ["parallel", "parallel", "parallel", "parallel"]} ins(%325, %cst_101 : tensor<1x28x28x512xf32>, tensor<1x28x28x512xf32>) outs(%326 : tensor<1x28x28x512xf32>) {
  ^bb0(%arg1: f32, %arg2: f32, %arg3: f32):
    %868 = arith.mulf %arg1, %arg2 : f32
    linalg.yield %868 : f32
  } -> tensor<1x28x28x512xf32>
  %328 = linalg.init_tensor [1, 28, 28, 512] : tensor<1x28x28x512xf32>
  %329 = linalg.generic {indexing_maps = [#map0, #map0, #map0], iterator_types = ["parallel", "parallel", "parallel", "parallel"]} ins(%327, %cst_100 : tensor<1x28x28x512xf32>, tensor<1x28x28x512xf32>) outs(%328 : tensor<1x28x28x512xf32>) {
  ^bb0(%arg1: f32, %arg2: f32, %arg3: f32):
    %868 = arith.divf %arg1, %arg2 : f32
    linalg.yield %868 : f32
  } -> tensor<1x28x28x512xf32>
  %330 = linalg.init_tensor [1, 28, 28, 512] : tensor<1x28x28x512xf32>
  %331 = linalg.generic {indexing_maps = [#map0, #map0, #map0], iterator_types = ["parallel", "parallel", "parallel", "parallel"]} ins(%329, %cst_102 : tensor<1x28x28x512xf32>, tensor<1x28x28x512xf32>) outs(%330 : tensor<1x28x28x512xf32>) {
  ^bb0(%arg1: f32, %arg2: f32, %arg3: f32):
    %868 = arith.addf %arg1, %arg2 : f32
    linalg.yield %868 : f32
  } -> tensor<1x28x28x512xf32>
  %332 = linalg.init_tensor [1, 28, 28, 512] : tensor<1x28x28x512xf32>
  %333 = linalg.generic {indexing_maps = [#map0, #map0, #map0], iterator_types = ["parallel", "parallel", "parallel", "parallel"]} ins(%287, %331 : tensor<1x28x28x512xf32>, tensor<1x28x28x512xf32>) outs(%332 : tensor<1x28x28x512xf32>) {
  ^bb0(%arg1: f32, %arg2: f32, %arg3: f32):
    %868 = arith.addf %arg1, %arg2 : f32
    linalg.yield %868 : f32
  } -> tensor<1x28x28x512xf32>
  %334 = linalg.init_tensor [1, 28, 28, 512] : tensor<1x28x28x512xf32>
  %335 = linalg.generic {indexing_maps = [#map0, #map0, #map0], iterator_types = ["parallel", "parallel", "parallel", "parallel"]} ins(%333, %cst_269 : tensor<1x28x28x512xf32>, tensor<1x28x28x512xf32>) outs(%334 : tensor<1x28x28x512xf32>) {
  ^bb0(%arg1: f32, %arg2: f32, %arg3: f32):
    %868 = arith.maxf %arg1, %arg2 : f32
    linalg.yield %868 : f32
  } -> tensor<1x28x28x512xf32>
  %336 = linalg.init_tensor [1, 28, 28, 128] : tensor<1x28x28x128xf32>
  %cst_366 = arith.constant 0.000000e+00 : f32
  %337 = linalg.fill ins(%cst_366 : f32) outs(%336 : tensor<1x28x28x128xf32>) -> tensor<1x28x28x128xf32>
  %338 = linalg.conv_2d_nhwc_hwcf {dilations = dense<1> : tensor<2xi64>, strides = dense<1> : tensor<2xi64>} ins(%335, %cst_298 : tensor<1x28x28x512xf32>, tensor<1x1x512x128xf32>) outs(%337 : tensor<1x28x28x128xf32>) -> tensor<1x28x28x128xf32>
  %339 = linalg.init_tensor [1, 28, 28, 128] : tensor<1x28x28x128xf32>
  %340 = linalg.generic {indexing_maps = [#map0, #map0, #map0], iterator_types = ["parallel", "parallel", "parallel", "parallel"]} ins(%338, %cst_104 : tensor<1x28x28x128xf32>, tensor<1x28x28x128xf32>) outs(%339 : tensor<1x28x28x128xf32>) {
  ^bb0(%arg1: f32, %arg2: f32, %arg3: f32):
    %868 = arith.addf %arg1, %arg2 : f32
    linalg.yield %868 : f32
  } -> tensor<1x28x28x128xf32>
  %341 = linalg.init_tensor [1, 28, 28, 128] : tensor<1x28x28x128xf32>
  %342 = linalg.generic {indexing_maps = [#map0, #map0, #map0], iterator_types = ["parallel", "parallel", "parallel", "parallel"]} ins(%340, %cst_108 : tensor<1x28x28x128xf32>, tensor<1x28x28x128xf32>) outs(%341 : tensor<1x28x28x128xf32>) {
  ^bb0(%arg1: f32, %arg2: f32, %arg3: f32):
    %868 = arith.subf %arg1, %arg2 : f32
    linalg.yield %868 : f32
  } -> tensor<1x28x28x128xf32>
  %343 = linalg.init_tensor [1, 28, 28, 128] : tensor<1x28x28x128xf32>
  %344 = linalg.generic {indexing_maps = [#map0, #map0, #map0], iterator_types = ["parallel", "parallel", "parallel", "parallel"]} ins(%342, %cst_106 : tensor<1x28x28x128xf32>, tensor<1x28x28x128xf32>) outs(%343 : tensor<1x28x28x128xf32>) {
  ^bb0(%arg1: f32, %arg2: f32, %arg3: f32):
    %868 = arith.mulf %arg1, %arg2 : f32
    linalg.yield %868 : f32
  } -> tensor<1x28x28x128xf32>
  %345 = linalg.init_tensor [1, 28, 28, 128] : tensor<1x28x28x128xf32>
  %346 = linalg.generic {indexing_maps = [#map0, #map0, #map0], iterator_types = ["parallel", "parallel", "parallel", "parallel"]} ins(%344, %cst_105 : tensor<1x28x28x128xf32>, tensor<1x28x28x128xf32>) outs(%345 : tensor<1x28x28x128xf32>) {
  ^bb0(%arg1: f32, %arg2: f32, %arg3: f32):
    %868 = arith.divf %arg1, %arg2 : f32
    linalg.yield %868 : f32
  } -> tensor<1x28x28x128xf32>
  %347 = linalg.init_tensor [1, 28, 28, 128] : tensor<1x28x28x128xf32>
  %348 = linalg.generic {indexing_maps = [#map0, #map0, #map0], iterator_types = ["parallel", "parallel", "parallel", "parallel"]} ins(%346, %cst_107 : tensor<1x28x28x128xf32>, tensor<1x28x28x128xf32>) outs(%347 : tensor<1x28x28x128xf32>) {
  ^bb0(%arg1: f32, %arg2: f32, %arg3: f32):
    %868 = arith.addf %arg1, %arg2 : f32
    linalg.yield %868 : f32
  } -> tensor<1x28x28x128xf32>
  %349 = linalg.init_tensor [1, 28, 28, 128] : tensor<1x28x28x128xf32>
  %350 = linalg.generic {indexing_maps = [#map0, #map0, #map0], iterator_types = ["parallel", "parallel", "parallel", "parallel"]} ins(%348, %cst_268 : tensor<1x28x28x128xf32>, tensor<1x28x28x128xf32>) outs(%349 : tensor<1x28x28x128xf32>) {
  ^bb0(%arg1: f32, %arg2: f32, %arg3: f32):
    %868 = arith.maxf %arg1, %arg2 : f32
    linalg.yield %868 : f32
  } -> tensor<1x28x28x128xf32>
  %351 = linalg.init_tensor [1, 28, 28, 128] : tensor<1x28x28x128xf32>
  %cst_367 = arith.constant 0.000000e+00 : f32
  %352 = linalg.fill ins(%cst_367 : f32) outs(%351 : tensor<1x28x28x128xf32>) -> tensor<1x28x28x128xf32>
  %cst_368 = arith.constant dense<0.000000e+00> : tensor<f32>
  %cst_369 = arith.constant 0.000000e+00 : f32
  %353 = tensor.pad %350 low[0, 1, 1, 0] high[0, 1, 1, 0] {
  ^bb0(%arg1: index, %arg2: index, %arg3: index, %arg4: index):
    tensor.yield %cst_369 : f32
  } : tensor<1x28x28x128xf32> to tensor<1x30x30x128xf32>
  %354 = linalg.conv_2d_nhwc_hwcf {dilations = dense<1> : tensor<2xi64>, strides = dense<1> : tensor<2xi64>} ins(%353, %cst_299 : tensor<1x30x30x128xf32>, tensor<3x3x128x128xf32>) outs(%352 : tensor<1x28x28x128xf32>) -> tensor<1x28x28x128xf32>
  %355 = linalg.init_tensor [1, 28, 28, 128] : tensor<1x28x28x128xf32>
  %356 = linalg.generic {indexing_maps = [#map0, #map0, #map0], iterator_types = ["parallel", "parallel", "parallel", "parallel"]} ins(%354, %cst_109 : tensor<1x28x28x128xf32>, tensor<1x28x28x128xf32>) outs(%355 : tensor<1x28x28x128xf32>) {
  ^bb0(%arg1: f32, %arg2: f32, %arg3: f32):
    %868 = arith.addf %arg1, %arg2 : f32
    linalg.yield %868 : f32
  } -> tensor<1x28x28x128xf32>
  %357 = linalg.init_tensor [1, 28, 28, 128] : tensor<1x28x28x128xf32>
  %358 = linalg.generic {indexing_maps = [#map0, #map0, #map0], iterator_types = ["parallel", "parallel", "parallel", "parallel"]} ins(%356, %cst_113 : tensor<1x28x28x128xf32>, tensor<1x28x28x128xf32>) outs(%357 : tensor<1x28x28x128xf32>) {
  ^bb0(%arg1: f32, %arg2: f32, %arg3: f32):
    %868 = arith.subf %arg1, %arg2 : f32
    linalg.yield %868 : f32
  } -> tensor<1x28x28x128xf32>
  %359 = linalg.init_tensor [1, 28, 28, 128] : tensor<1x28x28x128xf32>
  %360 = linalg.generic {indexing_maps = [#map0, #map0, #map0], iterator_types = ["parallel", "parallel", "parallel", "parallel"]} ins(%358, %cst_111 : tensor<1x28x28x128xf32>, tensor<1x28x28x128xf32>) outs(%359 : tensor<1x28x28x128xf32>) {
  ^bb0(%arg1: f32, %arg2: f32, %arg3: f32):
    %868 = arith.mulf %arg1, %arg2 : f32
    linalg.yield %868 : f32
  } -> tensor<1x28x28x128xf32>
  %361 = linalg.init_tensor [1, 28, 28, 128] : tensor<1x28x28x128xf32>
  %362 = linalg.generic {indexing_maps = [#map0, #map0, #map0], iterator_types = ["parallel", "parallel", "parallel", "parallel"]} ins(%360, %cst_110 : tensor<1x28x28x128xf32>, tensor<1x28x28x128xf32>) outs(%361 : tensor<1x28x28x128xf32>) {
  ^bb0(%arg1: f32, %arg2: f32, %arg3: f32):
    %868 = arith.divf %arg1, %arg2 : f32
    linalg.yield %868 : f32
  } -> tensor<1x28x28x128xf32>
  %363 = linalg.init_tensor [1, 28, 28, 128] : tensor<1x28x28x128xf32>
  %364 = linalg.generic {indexing_maps = [#map0, #map0, #map0], iterator_types = ["parallel", "parallel", "parallel", "parallel"]} ins(%362, %cst_112 : tensor<1x28x28x128xf32>, tensor<1x28x28x128xf32>) outs(%363 : tensor<1x28x28x128xf32>) {
  ^bb0(%arg1: f32, %arg2: f32, %arg3: f32):
    %868 = arith.addf %arg1, %arg2 : f32
    linalg.yield %868 : f32
  } -> tensor<1x28x28x128xf32>
  %365 = linalg.init_tensor [1, 28, 28, 128] : tensor<1x28x28x128xf32>
  %366 = linalg.generic {indexing_maps = [#map0, #map0, #map0], iterator_types = ["parallel", "parallel", "parallel", "parallel"]} ins(%364, %cst_268 : tensor<1x28x28x128xf32>, tensor<1x28x28x128xf32>) outs(%365 : tensor<1x28x28x128xf32>) {
  ^bb0(%arg1: f32, %arg2: f32, %arg3: f32):
    %868 = arith.maxf %arg1, %arg2 : f32
    linalg.yield %868 : f32
  } -> tensor<1x28x28x128xf32>
  %367 = linalg.init_tensor [1, 28, 28, 512] : tensor<1x28x28x512xf32>
  %cst_370 = arith.constant 0.000000e+00 : f32
  %368 = linalg.fill ins(%cst_370 : f32) outs(%367 : tensor<1x28x28x512xf32>) -> tensor<1x28x28x512xf32>
  %369 = linalg.conv_2d_nhwc_hwcf {dilations = dense<1> : tensor<2xi64>, strides = dense<1> : tensor<2xi64>} ins(%366, %cst_300 : tensor<1x28x28x128xf32>, tensor<1x1x128x512xf32>) outs(%368 : tensor<1x28x28x512xf32>) -> tensor<1x28x28x512xf32>
  %370 = linalg.init_tensor [1, 28, 28, 512] : tensor<1x28x28x512xf32>
  %371 = linalg.generic {indexing_maps = [#map0, #map0, #map0], iterator_types = ["parallel", "parallel", "parallel", "parallel"]} ins(%369, %cst_114 : tensor<1x28x28x512xf32>, tensor<1x28x28x512xf32>) outs(%370 : tensor<1x28x28x512xf32>) {
  ^bb0(%arg1: f32, %arg2: f32, %arg3: f32):
    %868 = arith.addf %arg1, %arg2 : f32
    linalg.yield %868 : f32
  } -> tensor<1x28x28x512xf32>
  %372 = linalg.init_tensor [1, 28, 28, 512] : tensor<1x28x28x512xf32>
  %373 = linalg.generic {indexing_maps = [#map0, #map0, #map0], iterator_types = ["parallel", "parallel", "parallel", "parallel"]} ins(%371, %cst_118 : tensor<1x28x28x512xf32>, tensor<1x28x28x512xf32>) outs(%372 : tensor<1x28x28x512xf32>) {
  ^bb0(%arg1: f32, %arg2: f32, %arg3: f32):
    %868 = arith.subf %arg1, %arg2 : f32
    linalg.yield %868 : f32
  } -> tensor<1x28x28x512xf32>
  %374 = linalg.init_tensor [1, 28, 28, 512] : tensor<1x28x28x512xf32>
  %375 = linalg.generic {indexing_maps = [#map0, #map0, #map0], iterator_types = ["parallel", "parallel", "parallel", "parallel"]} ins(%373, %cst_116 : tensor<1x28x28x512xf32>, tensor<1x28x28x512xf32>) outs(%374 : tensor<1x28x28x512xf32>) {
  ^bb0(%arg1: f32, %arg2: f32, %arg3: f32):
    %868 = arith.mulf %arg1, %arg2 : f32
    linalg.yield %868 : f32
  } -> tensor<1x28x28x512xf32>
  %376 = linalg.init_tensor [1, 28, 28, 512] : tensor<1x28x28x512xf32>
  %377 = linalg.generic {indexing_maps = [#map0, #map0, #map0], iterator_types = ["parallel", "parallel", "parallel", "parallel"]} ins(%375, %cst_115 : tensor<1x28x28x512xf32>, tensor<1x28x28x512xf32>) outs(%376 : tensor<1x28x28x512xf32>) {
  ^bb0(%arg1: f32, %arg2: f32, %arg3: f32):
    %868 = arith.divf %arg1, %arg2 : f32
    linalg.yield %868 : f32
  } -> tensor<1x28x28x512xf32>
  %378 = linalg.init_tensor [1, 28, 28, 512] : tensor<1x28x28x512xf32>
  %379 = linalg.generic {indexing_maps = [#map0, #map0, #map0], iterator_types = ["parallel", "parallel", "parallel", "parallel"]} ins(%377, %cst_117 : tensor<1x28x28x512xf32>, tensor<1x28x28x512xf32>) outs(%378 : tensor<1x28x28x512xf32>) {
  ^bb0(%arg1: f32, %arg2: f32, %arg3: f32):
    %868 = arith.addf %arg1, %arg2 : f32
    linalg.yield %868 : f32
  } -> tensor<1x28x28x512xf32>
  %380 = linalg.init_tensor [1, 28, 28, 512] : tensor<1x28x28x512xf32>
  %381 = linalg.generic {indexing_maps = [#map0, #map0, #map0], iterator_types = ["parallel", "parallel", "parallel", "parallel"]} ins(%335, %379 : tensor<1x28x28x512xf32>, tensor<1x28x28x512xf32>) outs(%380 : tensor<1x28x28x512xf32>) {
  ^bb0(%arg1: f32, %arg2: f32, %arg3: f32):
    %868 = arith.addf %arg1, %arg2 : f32
    linalg.yield %868 : f32
  } -> tensor<1x28x28x512xf32>
  %382 = linalg.init_tensor [1, 28, 28, 512] : tensor<1x28x28x512xf32>
  %383 = linalg.generic {indexing_maps = [#map0, #map0, #map0], iterator_types = ["parallel", "parallel", "parallel", "parallel"]} ins(%381, %cst_269 : tensor<1x28x28x512xf32>, tensor<1x28x28x512xf32>) outs(%382 : tensor<1x28x28x512xf32>) {
  ^bb0(%arg1: f32, %arg2: f32, %arg3: f32):
    %868 = arith.maxf %arg1, %arg2 : f32
    linalg.yield %868 : f32
  } -> tensor<1x28x28x512xf32>
  %384 = linalg.init_tensor [1, 14, 14, 1024] : tensor<1x14x14x1024xf32>
  %cst_371 = arith.constant 0.000000e+00 : f32
  %385 = linalg.fill ins(%cst_371 : f32) outs(%384 : tensor<1x14x14x1024xf32>) -> tensor<1x14x14x1024xf32>
  %386 = linalg.conv_2d_nhwc_hwcf {dilations = dense<1> : tensor<2xi64>, strides = dense<2> : tensor<2xi64>} ins(%383, %cst_301 : tensor<1x28x28x512xf32>, tensor<1x1x512x1024xf32>) outs(%385 : tensor<1x14x14x1024xf32>) -> tensor<1x14x14x1024xf32>
  %387 = linalg.init_tensor [1, 14, 14, 1024] : tensor<1x14x14x1024xf32>
  %388 = linalg.generic {indexing_maps = [#map0, #map0, #map0], iterator_types = ["parallel", "parallel", "parallel", "parallel"]} ins(%386, %cst_119 : tensor<1x14x14x1024xf32>, tensor<1x14x14x1024xf32>) outs(%387 : tensor<1x14x14x1024xf32>) {
  ^bb0(%arg1: f32, %arg2: f32, %arg3: f32):
    %868 = arith.addf %arg1, %arg2 : f32
    linalg.yield %868 : f32
  } -> tensor<1x14x14x1024xf32>
  %389 = linalg.init_tensor [1, 14, 14, 1024] : tensor<1x14x14x1024xf32>
  %390 = linalg.generic {indexing_maps = [#map0, #map0, #map0], iterator_types = ["parallel", "parallel", "parallel", "parallel"]} ins(%388, %cst_123 : tensor<1x14x14x1024xf32>, tensor<1x14x14x1024xf32>) outs(%389 : tensor<1x14x14x1024xf32>) {
  ^bb0(%arg1: f32, %arg2: f32, %arg3: f32):
    %868 = arith.subf %arg1, %arg2 : f32
    linalg.yield %868 : f32
  } -> tensor<1x14x14x1024xf32>
  %391 = linalg.init_tensor [1, 14, 14, 1024] : tensor<1x14x14x1024xf32>
  %392 = linalg.generic {indexing_maps = [#map0, #map0, #map0], iterator_types = ["parallel", "parallel", "parallel", "parallel"]} ins(%390, %cst_121 : tensor<1x14x14x1024xf32>, tensor<1x14x14x1024xf32>) outs(%391 : tensor<1x14x14x1024xf32>) {
  ^bb0(%arg1: f32, %arg2: f32, %arg3: f32):
    %868 = arith.mulf %arg1, %arg2 : f32
    linalg.yield %868 : f32
  } -> tensor<1x14x14x1024xf32>
  %393 = linalg.init_tensor [1, 14, 14, 1024] : tensor<1x14x14x1024xf32>
  %394 = linalg.generic {indexing_maps = [#map0, #map0, #map0], iterator_types = ["parallel", "parallel", "parallel", "parallel"]} ins(%392, %cst_120 : tensor<1x14x14x1024xf32>, tensor<1x14x14x1024xf32>) outs(%393 : tensor<1x14x14x1024xf32>) {
  ^bb0(%arg1: f32, %arg2: f32, %arg3: f32):
    %868 = arith.divf %arg1, %arg2 : f32
    linalg.yield %868 : f32
  } -> tensor<1x14x14x1024xf32>
  %395 = linalg.init_tensor [1, 14, 14, 1024] : tensor<1x14x14x1024xf32>
  %396 = linalg.generic {indexing_maps = [#map0, #map0, #map0], iterator_types = ["parallel", "parallel", "parallel", "parallel"]} ins(%394, %cst_122 : tensor<1x14x14x1024xf32>, tensor<1x14x14x1024xf32>) outs(%395 : tensor<1x14x14x1024xf32>) {
  ^bb0(%arg1: f32, %arg2: f32, %arg3: f32):
    %868 = arith.addf %arg1, %arg2 : f32
    linalg.yield %868 : f32
  } -> tensor<1x14x14x1024xf32>
  %397 = linalg.init_tensor [1, 14, 14, 256] : tensor<1x14x14x256xf32>
  %cst_372 = arith.constant 0.000000e+00 : f32
  %398 = linalg.fill ins(%cst_372 : f32) outs(%397 : tensor<1x14x14x256xf32>) -> tensor<1x14x14x256xf32>
  %399 = linalg.conv_2d_nhwc_hwcf {dilations = dense<1> : tensor<2xi64>, strides = dense<2> : tensor<2xi64>} ins(%383, %cst_302 : tensor<1x28x28x512xf32>, tensor<1x1x512x256xf32>) outs(%398 : tensor<1x14x14x256xf32>) -> tensor<1x14x14x256xf32>
  %400 = linalg.init_tensor [1, 14, 14, 256] : tensor<1x14x14x256xf32>
  %401 = linalg.generic {indexing_maps = [#map0, #map0, #map0], iterator_types = ["parallel", "parallel", "parallel", "parallel"]} ins(%399, %cst_124 : tensor<1x14x14x256xf32>, tensor<1x14x14x256xf32>) outs(%400 : tensor<1x14x14x256xf32>) {
  ^bb0(%arg1: f32, %arg2: f32, %arg3: f32):
    %868 = arith.addf %arg1, %arg2 : f32
    linalg.yield %868 : f32
  } -> tensor<1x14x14x256xf32>
  %402 = linalg.init_tensor [1, 14, 14, 256] : tensor<1x14x14x256xf32>
  %403 = linalg.generic {indexing_maps = [#map0, #map0, #map0], iterator_types = ["parallel", "parallel", "parallel", "parallel"]} ins(%401, %cst_128 : tensor<1x14x14x256xf32>, tensor<1x14x14x256xf32>) outs(%402 : tensor<1x14x14x256xf32>) {
  ^bb0(%arg1: f32, %arg2: f32, %arg3: f32):
    %868 = arith.subf %arg1, %arg2 : f32
    linalg.yield %868 : f32
  } -> tensor<1x14x14x256xf32>
  %404 = linalg.init_tensor [1, 14, 14, 256] : tensor<1x14x14x256xf32>
  %405 = linalg.generic {indexing_maps = [#map0, #map0, #map0], iterator_types = ["parallel", "parallel", "parallel", "parallel"]} ins(%403, %cst_126 : tensor<1x14x14x256xf32>, tensor<1x14x14x256xf32>) outs(%404 : tensor<1x14x14x256xf32>) {
  ^bb0(%arg1: f32, %arg2: f32, %arg3: f32):
    %868 = arith.mulf %arg1, %arg2 : f32
    linalg.yield %868 : f32
  } -> tensor<1x14x14x256xf32>
  %406 = linalg.init_tensor [1, 14, 14, 256] : tensor<1x14x14x256xf32>
  %407 = linalg.generic {indexing_maps = [#map0, #map0, #map0], iterator_types = ["parallel", "parallel", "parallel", "parallel"]} ins(%405, %cst_125 : tensor<1x14x14x256xf32>, tensor<1x14x14x256xf32>) outs(%406 : tensor<1x14x14x256xf32>) {
  ^bb0(%arg1: f32, %arg2: f32, %arg3: f32):
    %868 = arith.divf %arg1, %arg2 : f32
    linalg.yield %868 : f32
  } -> tensor<1x14x14x256xf32>
  %408 = linalg.init_tensor [1, 14, 14, 256] : tensor<1x14x14x256xf32>
  %409 = linalg.generic {indexing_maps = [#map0, #map0, #map0], iterator_types = ["parallel", "parallel", "parallel", "parallel"]} ins(%407, %cst_127 : tensor<1x14x14x256xf32>, tensor<1x14x14x256xf32>) outs(%408 : tensor<1x14x14x256xf32>) {
  ^bb0(%arg1: f32, %arg2: f32, %arg3: f32):
    %868 = arith.addf %arg1, %arg2 : f32
    linalg.yield %868 : f32
  } -> tensor<1x14x14x256xf32>
  %410 = linalg.init_tensor [1, 14, 14, 256] : tensor<1x14x14x256xf32>
  %411 = linalg.generic {indexing_maps = [#map0, #map0, #map0], iterator_types = ["parallel", "parallel", "parallel", "parallel"]} ins(%409, %cst_270 : tensor<1x14x14x256xf32>, tensor<1x14x14x256xf32>) outs(%410 : tensor<1x14x14x256xf32>) {
  ^bb0(%arg1: f32, %arg2: f32, %arg3: f32):
    %868 = arith.maxf %arg1, %arg2 : f32
    linalg.yield %868 : f32
  } -> tensor<1x14x14x256xf32>
  %412 = linalg.init_tensor [1, 14, 14, 256] : tensor<1x14x14x256xf32>
  %cst_373 = arith.constant 0.000000e+00 : f32
  %413 = linalg.fill ins(%cst_373 : f32) outs(%412 : tensor<1x14x14x256xf32>) -> tensor<1x14x14x256xf32>
  %cst_374 = arith.constant dense<0.000000e+00> : tensor<f32>
  %cst_375 = arith.constant 0.000000e+00 : f32
  %414 = tensor.pad %411 low[0, 1, 1, 0] high[0, 1, 1, 0] {
  ^bb0(%arg1: index, %arg2: index, %arg3: index, %arg4: index):
    tensor.yield %cst_375 : f32
  } : tensor<1x14x14x256xf32> to tensor<1x16x16x256xf32>
  %415 = linalg.conv_2d_nhwc_hwcf {dilations = dense<1> : tensor<2xi64>, strides = dense<1> : tensor<2xi64>} ins(%414, %cst_303 : tensor<1x16x16x256xf32>, tensor<3x3x256x256xf32>) outs(%413 : tensor<1x14x14x256xf32>) -> tensor<1x14x14x256xf32>
  %416 = linalg.init_tensor [1, 14, 14, 256] : tensor<1x14x14x256xf32>
  %417 = linalg.generic {indexing_maps = [#map0, #map0, #map0], iterator_types = ["parallel", "parallel", "parallel", "parallel"]} ins(%415, %cst_129 : tensor<1x14x14x256xf32>, tensor<1x14x14x256xf32>) outs(%416 : tensor<1x14x14x256xf32>) {
  ^bb0(%arg1: f32, %arg2: f32, %arg3: f32):
    %868 = arith.addf %arg1, %arg2 : f32
    linalg.yield %868 : f32
  } -> tensor<1x14x14x256xf32>
  %418 = linalg.init_tensor [1, 14, 14, 256] : tensor<1x14x14x256xf32>
  %419 = linalg.generic {indexing_maps = [#map0, #map0, #map0], iterator_types = ["parallel", "parallel", "parallel", "parallel"]} ins(%417, %cst_133 : tensor<1x14x14x256xf32>, tensor<1x14x14x256xf32>) outs(%418 : tensor<1x14x14x256xf32>) {
  ^bb0(%arg1: f32, %arg2: f32, %arg3: f32):
    %868 = arith.subf %arg1, %arg2 : f32
    linalg.yield %868 : f32
  } -> tensor<1x14x14x256xf32>
  %420 = linalg.init_tensor [1, 14, 14, 256] : tensor<1x14x14x256xf32>
  %421 = linalg.generic {indexing_maps = [#map0, #map0, #map0], iterator_types = ["parallel", "parallel", "parallel", "parallel"]} ins(%419, %cst_131 : tensor<1x14x14x256xf32>, tensor<1x14x14x256xf32>) outs(%420 : tensor<1x14x14x256xf32>) {
  ^bb0(%arg1: f32, %arg2: f32, %arg3: f32):
    %868 = arith.mulf %arg1, %arg2 : f32
    linalg.yield %868 : f32
  } -> tensor<1x14x14x256xf32>
  %422 = linalg.init_tensor [1, 14, 14, 256] : tensor<1x14x14x256xf32>
  %423 = linalg.generic {indexing_maps = [#map0, #map0, #map0], iterator_types = ["parallel", "parallel", "parallel", "parallel"]} ins(%421, %cst_130 : tensor<1x14x14x256xf32>, tensor<1x14x14x256xf32>) outs(%422 : tensor<1x14x14x256xf32>) {
  ^bb0(%arg1: f32, %arg2: f32, %arg3: f32):
    %868 = arith.divf %arg1, %arg2 : f32
    linalg.yield %868 : f32
  } -> tensor<1x14x14x256xf32>
  %424 = linalg.init_tensor [1, 14, 14, 256] : tensor<1x14x14x256xf32>
  %425 = linalg.generic {indexing_maps = [#map0, #map0, #map0], iterator_types = ["parallel", "parallel", "parallel", "parallel"]} ins(%423, %cst_132 : tensor<1x14x14x256xf32>, tensor<1x14x14x256xf32>) outs(%424 : tensor<1x14x14x256xf32>) {
  ^bb0(%arg1: f32, %arg2: f32, %arg3: f32):
    %868 = arith.addf %arg1, %arg2 : f32
    linalg.yield %868 : f32
  } -> tensor<1x14x14x256xf32>
  %426 = linalg.init_tensor [1, 14, 14, 256] : tensor<1x14x14x256xf32>
  %427 = linalg.generic {indexing_maps = [#map0, #map0, #map0], iterator_types = ["parallel", "parallel", "parallel", "parallel"]} ins(%425, %cst_270 : tensor<1x14x14x256xf32>, tensor<1x14x14x256xf32>) outs(%426 : tensor<1x14x14x256xf32>) {
  ^bb0(%arg1: f32, %arg2: f32, %arg3: f32):
    %868 = arith.maxf %arg1, %arg2 : f32
    linalg.yield %868 : f32
  } -> tensor<1x14x14x256xf32>
  %428 = linalg.init_tensor [1, 14, 14, 1024] : tensor<1x14x14x1024xf32>
  %cst_376 = arith.constant 0.000000e+00 : f32
  %429 = linalg.fill ins(%cst_376 : f32) outs(%428 : tensor<1x14x14x1024xf32>) -> tensor<1x14x14x1024xf32>
  %430 = linalg.conv_2d_nhwc_hwcf {dilations = dense<1> : tensor<2xi64>, strides = dense<1> : tensor<2xi64>} ins(%427, %cst_304 : tensor<1x14x14x256xf32>, tensor<1x1x256x1024xf32>) outs(%429 : tensor<1x14x14x1024xf32>) -> tensor<1x14x14x1024xf32>
  %431 = linalg.init_tensor [1, 14, 14, 1024] : tensor<1x14x14x1024xf32>
  %432 = linalg.generic {indexing_maps = [#map0, #map0, #map0], iterator_types = ["parallel", "parallel", "parallel", "parallel"]} ins(%430, %cst_134 : tensor<1x14x14x1024xf32>, tensor<1x14x14x1024xf32>) outs(%431 : tensor<1x14x14x1024xf32>) {
  ^bb0(%arg1: f32, %arg2: f32, %arg3: f32):
    %868 = arith.addf %arg1, %arg2 : f32
    linalg.yield %868 : f32
  } -> tensor<1x14x14x1024xf32>
  %433 = linalg.init_tensor [1, 14, 14, 1024] : tensor<1x14x14x1024xf32>
  %434 = linalg.generic {indexing_maps = [#map0, #map0, #map0], iterator_types = ["parallel", "parallel", "parallel", "parallel"]} ins(%432, %cst_138 : tensor<1x14x14x1024xf32>, tensor<1x14x14x1024xf32>) outs(%433 : tensor<1x14x14x1024xf32>) {
  ^bb0(%arg1: f32, %arg2: f32, %arg3: f32):
    %868 = arith.subf %arg1, %arg2 : f32
    linalg.yield %868 : f32
  } -> tensor<1x14x14x1024xf32>
  %435 = linalg.init_tensor [1, 14, 14, 1024] : tensor<1x14x14x1024xf32>
  %436 = linalg.generic {indexing_maps = [#map0, #map0, #map0], iterator_types = ["parallel", "parallel", "parallel", "parallel"]} ins(%434, %cst_136 : tensor<1x14x14x1024xf32>, tensor<1x14x14x1024xf32>) outs(%435 : tensor<1x14x14x1024xf32>) {
  ^bb0(%arg1: f32, %arg2: f32, %arg3: f32):
    %868 = arith.mulf %arg1, %arg2 : f32
    linalg.yield %868 : f32
  } -> tensor<1x14x14x1024xf32>
  %437 = linalg.init_tensor [1, 14, 14, 1024] : tensor<1x14x14x1024xf32>
  %438 = linalg.generic {indexing_maps = [#map0, #map0, #map0], iterator_types = ["parallel", "parallel", "parallel", "parallel"]} ins(%436, %cst_135 : tensor<1x14x14x1024xf32>, tensor<1x14x14x1024xf32>) outs(%437 : tensor<1x14x14x1024xf32>) {
  ^bb0(%arg1: f32, %arg2: f32, %arg3: f32):
    %868 = arith.divf %arg1, %arg2 : f32
    linalg.yield %868 : f32
  } -> tensor<1x14x14x1024xf32>
  %439 = linalg.init_tensor [1, 14, 14, 1024] : tensor<1x14x14x1024xf32>
  %440 = linalg.generic {indexing_maps = [#map0, #map0, #map0], iterator_types = ["parallel", "parallel", "parallel", "parallel"]} ins(%438, %cst_137 : tensor<1x14x14x1024xf32>, tensor<1x14x14x1024xf32>) outs(%439 : tensor<1x14x14x1024xf32>) {
  ^bb0(%arg1: f32, %arg2: f32, %arg3: f32):
    %868 = arith.addf %arg1, %arg2 : f32
    linalg.yield %868 : f32
  } -> tensor<1x14x14x1024xf32>
  %441 = linalg.init_tensor [1, 14, 14, 1024] : tensor<1x14x14x1024xf32>
  %442 = linalg.generic {indexing_maps = [#map0, #map0, #map0], iterator_types = ["parallel", "parallel", "parallel", "parallel"]} ins(%396, %440 : tensor<1x14x14x1024xf32>, tensor<1x14x14x1024xf32>) outs(%441 : tensor<1x14x14x1024xf32>) {
  ^bb0(%arg1: f32, %arg2: f32, %arg3: f32):
    %868 = arith.addf %arg1, %arg2 : f32
    linalg.yield %868 : f32
  } -> tensor<1x14x14x1024xf32>
  %443 = linalg.init_tensor [1, 14, 14, 1024] : tensor<1x14x14x1024xf32>
  %444 = linalg.generic {indexing_maps = [#map0, #map0, #map0], iterator_types = ["parallel", "parallel", "parallel", "parallel"]} ins(%442, %cst_271 : tensor<1x14x14x1024xf32>, tensor<1x14x14x1024xf32>) outs(%443 : tensor<1x14x14x1024xf32>) {
  ^bb0(%arg1: f32, %arg2: f32, %arg3: f32):
    %868 = arith.maxf %arg1, %arg2 : f32
    linalg.yield %868 : f32
  } -> tensor<1x14x14x1024xf32>
  %445 = linalg.init_tensor [1, 14, 14, 256] : tensor<1x14x14x256xf32>
  %cst_377 = arith.constant 0.000000e+00 : f32
  %446 = linalg.fill ins(%cst_377 : f32) outs(%445 : tensor<1x14x14x256xf32>) -> tensor<1x14x14x256xf32>
  %447 = linalg.conv_2d_nhwc_hwcf {dilations = dense<1> : tensor<2xi64>, strides = dense<1> : tensor<2xi64>} ins(%444, %cst_305 : tensor<1x14x14x1024xf32>, tensor<1x1x1024x256xf32>) outs(%446 : tensor<1x14x14x256xf32>) -> tensor<1x14x14x256xf32>
  %448 = linalg.init_tensor [1, 14, 14, 256] : tensor<1x14x14x256xf32>
  %449 = linalg.generic {indexing_maps = [#map0, #map0, #map0], iterator_types = ["parallel", "parallel", "parallel", "parallel"]} ins(%447, %cst_139 : tensor<1x14x14x256xf32>, tensor<1x14x14x256xf32>) outs(%448 : tensor<1x14x14x256xf32>) {
  ^bb0(%arg1: f32, %arg2: f32, %arg3: f32):
    %868 = arith.addf %arg1, %arg2 : f32
    linalg.yield %868 : f32
  } -> tensor<1x14x14x256xf32>
  %450 = linalg.init_tensor [1, 14, 14, 256] : tensor<1x14x14x256xf32>
  %451 = linalg.generic {indexing_maps = [#map0, #map0, #map0], iterator_types = ["parallel", "parallel", "parallel", "parallel"]} ins(%449, %cst_143 : tensor<1x14x14x256xf32>, tensor<1x14x14x256xf32>) outs(%450 : tensor<1x14x14x256xf32>) {
  ^bb0(%arg1: f32, %arg2: f32, %arg3: f32):
    %868 = arith.subf %arg1, %arg2 : f32
    linalg.yield %868 : f32
  } -> tensor<1x14x14x256xf32>
  %452 = linalg.init_tensor [1, 14, 14, 256] : tensor<1x14x14x256xf32>
  %453 = linalg.generic {indexing_maps = [#map0, #map0, #map0], iterator_types = ["parallel", "parallel", "parallel", "parallel"]} ins(%451, %cst_141 : tensor<1x14x14x256xf32>, tensor<1x14x14x256xf32>) outs(%452 : tensor<1x14x14x256xf32>) {
  ^bb0(%arg1: f32, %arg2: f32, %arg3: f32):
    %868 = arith.mulf %arg1, %arg2 : f32
    linalg.yield %868 : f32
  } -> tensor<1x14x14x256xf32>
  %454 = linalg.init_tensor [1, 14, 14, 256] : tensor<1x14x14x256xf32>
  %455 = linalg.generic {indexing_maps = [#map0, #map0, #map0], iterator_types = ["parallel", "parallel", "parallel", "parallel"]} ins(%453, %cst_140 : tensor<1x14x14x256xf32>, tensor<1x14x14x256xf32>) outs(%454 : tensor<1x14x14x256xf32>) {
  ^bb0(%arg1: f32, %arg2: f32, %arg3: f32):
    %868 = arith.divf %arg1, %arg2 : f32
    linalg.yield %868 : f32
  } -> tensor<1x14x14x256xf32>
  %456 = linalg.init_tensor [1, 14, 14, 256] : tensor<1x14x14x256xf32>
  %457 = linalg.generic {indexing_maps = [#map0, #map0, #map0], iterator_types = ["parallel", "parallel", "parallel", "parallel"]} ins(%455, %cst_142 : tensor<1x14x14x256xf32>, tensor<1x14x14x256xf32>) outs(%456 : tensor<1x14x14x256xf32>) {
  ^bb0(%arg1: f32, %arg2: f32, %arg3: f32):
    %868 = arith.addf %arg1, %arg2 : f32
    linalg.yield %868 : f32
  } -> tensor<1x14x14x256xf32>
  %458 = linalg.init_tensor [1, 14, 14, 256] : tensor<1x14x14x256xf32>
  %459 = linalg.generic {indexing_maps = [#map0, #map0, #map0], iterator_types = ["parallel", "parallel", "parallel", "parallel"]} ins(%457, %cst_270 : tensor<1x14x14x256xf32>, tensor<1x14x14x256xf32>) outs(%458 : tensor<1x14x14x256xf32>) {
  ^bb0(%arg1: f32, %arg2: f32, %arg3: f32):
    %868 = arith.maxf %arg1, %arg2 : f32
    linalg.yield %868 : f32
  } -> tensor<1x14x14x256xf32>
  %460 = linalg.init_tensor [1, 14, 14, 256] : tensor<1x14x14x256xf32>
  %cst_378 = arith.constant 0.000000e+00 : f32
  %461 = linalg.fill ins(%cst_378 : f32) outs(%460 : tensor<1x14x14x256xf32>) -> tensor<1x14x14x256xf32>
  %cst_379 = arith.constant dense<0.000000e+00> : tensor<f32>
  %cst_380 = arith.constant 0.000000e+00 : f32
  %462 = tensor.pad %459 low[0, 1, 1, 0] high[0, 1, 1, 0] {
  ^bb0(%arg1: index, %arg2: index, %arg3: index, %arg4: index):
    tensor.yield %cst_380 : f32
  } : tensor<1x14x14x256xf32> to tensor<1x16x16x256xf32>
  %463 = linalg.conv_2d_nhwc_hwcf {dilations = dense<1> : tensor<2xi64>, strides = dense<1> : tensor<2xi64>} ins(%462, %cst_306 : tensor<1x16x16x256xf32>, tensor<3x3x256x256xf32>) outs(%461 : tensor<1x14x14x256xf32>) -> tensor<1x14x14x256xf32>
  %464 = linalg.init_tensor [1, 14, 14, 256] : tensor<1x14x14x256xf32>
  %465 = linalg.generic {indexing_maps = [#map0, #map0, #map0], iterator_types = ["parallel", "parallel", "parallel", "parallel"]} ins(%463, %cst_144 : tensor<1x14x14x256xf32>, tensor<1x14x14x256xf32>) outs(%464 : tensor<1x14x14x256xf32>) {
  ^bb0(%arg1: f32, %arg2: f32, %arg3: f32):
    %868 = arith.addf %arg1, %arg2 : f32
    linalg.yield %868 : f32
  } -> tensor<1x14x14x256xf32>
  %466 = linalg.init_tensor [1, 14, 14, 256] : tensor<1x14x14x256xf32>
  %467 = linalg.generic {indexing_maps = [#map0, #map0, #map0], iterator_types = ["parallel", "parallel", "parallel", "parallel"]} ins(%465, %cst_148 : tensor<1x14x14x256xf32>, tensor<1x14x14x256xf32>) outs(%466 : tensor<1x14x14x256xf32>) {
  ^bb0(%arg1: f32, %arg2: f32, %arg3: f32):
    %868 = arith.subf %arg1, %arg2 : f32
    linalg.yield %868 : f32
  } -> tensor<1x14x14x256xf32>
  %468 = linalg.init_tensor [1, 14, 14, 256] : tensor<1x14x14x256xf32>
  %469 = linalg.generic {indexing_maps = [#map0, #map0, #map0], iterator_types = ["parallel", "parallel", "parallel", "parallel"]} ins(%467, %cst_146 : tensor<1x14x14x256xf32>, tensor<1x14x14x256xf32>) outs(%468 : tensor<1x14x14x256xf32>) {
  ^bb0(%arg1: f32, %arg2: f32, %arg3: f32):
    %868 = arith.mulf %arg1, %arg2 : f32
    linalg.yield %868 : f32
  } -> tensor<1x14x14x256xf32>
  %470 = linalg.init_tensor [1, 14, 14, 256] : tensor<1x14x14x256xf32>
  %471 = linalg.generic {indexing_maps = [#map0, #map0, #map0], iterator_types = ["parallel", "parallel", "parallel", "parallel"]} ins(%469, %cst_145 : tensor<1x14x14x256xf32>, tensor<1x14x14x256xf32>) outs(%470 : tensor<1x14x14x256xf32>) {
  ^bb0(%arg1: f32, %arg2: f32, %arg3: f32):
    %868 = arith.divf %arg1, %arg2 : f32
    linalg.yield %868 : f32
  } -> tensor<1x14x14x256xf32>
  %472 = linalg.init_tensor [1, 14, 14, 256] : tensor<1x14x14x256xf32>
  %473 = linalg.generic {indexing_maps = [#map0, #map0, #map0], iterator_types = ["parallel", "parallel", "parallel", "parallel"]} ins(%471, %cst_147 : tensor<1x14x14x256xf32>, tensor<1x14x14x256xf32>) outs(%472 : tensor<1x14x14x256xf32>) {
  ^bb0(%arg1: f32, %arg2: f32, %arg3: f32):
    %868 = arith.addf %arg1, %arg2 : f32
    linalg.yield %868 : f32
  } -> tensor<1x14x14x256xf32>
  %474 = linalg.init_tensor [1, 14, 14, 256] : tensor<1x14x14x256xf32>
  %475 = linalg.generic {indexing_maps = [#map0, #map0, #map0], iterator_types = ["parallel", "parallel", "parallel", "parallel"]} ins(%473, %cst_270 : tensor<1x14x14x256xf32>, tensor<1x14x14x256xf32>) outs(%474 : tensor<1x14x14x256xf32>) {
  ^bb0(%arg1: f32, %arg2: f32, %arg3: f32):
    %868 = arith.maxf %arg1, %arg2 : f32
    linalg.yield %868 : f32
  } -> tensor<1x14x14x256xf32>
  %476 = linalg.init_tensor [1, 14, 14, 1024] : tensor<1x14x14x1024xf32>
  %cst_381 = arith.constant 0.000000e+00 : f32
  %477 = linalg.fill ins(%cst_381 : f32) outs(%476 : tensor<1x14x14x1024xf32>) -> tensor<1x14x14x1024xf32>
  %478 = linalg.conv_2d_nhwc_hwcf {dilations = dense<1> : tensor<2xi64>, strides = dense<1> : tensor<2xi64>} ins(%475, %cst_307 : tensor<1x14x14x256xf32>, tensor<1x1x256x1024xf32>) outs(%477 : tensor<1x14x14x1024xf32>) -> tensor<1x14x14x1024xf32>
  %479 = linalg.init_tensor [1, 14, 14, 1024] : tensor<1x14x14x1024xf32>
  %480 = linalg.generic {indexing_maps = [#map0, #map0, #map0], iterator_types = ["parallel", "parallel", "parallel", "parallel"]} ins(%478, %cst_149 : tensor<1x14x14x1024xf32>, tensor<1x14x14x1024xf32>) outs(%479 : tensor<1x14x14x1024xf32>) {
  ^bb0(%arg1: f32, %arg2: f32, %arg3: f32):
    %868 = arith.addf %arg1, %arg2 : f32
    linalg.yield %868 : f32
  } -> tensor<1x14x14x1024xf32>
  %481 = linalg.init_tensor [1, 14, 14, 1024] : tensor<1x14x14x1024xf32>
  %482 = linalg.generic {indexing_maps = [#map0, #map0, #map0], iterator_types = ["parallel", "parallel", "parallel", "parallel"]} ins(%480, %cst_153 : tensor<1x14x14x1024xf32>, tensor<1x14x14x1024xf32>) outs(%481 : tensor<1x14x14x1024xf32>) {
  ^bb0(%arg1: f32, %arg2: f32, %arg3: f32):
    %868 = arith.subf %arg1, %arg2 : f32
    linalg.yield %868 : f32
  } -> tensor<1x14x14x1024xf32>
  %483 = linalg.init_tensor [1, 14, 14, 1024] : tensor<1x14x14x1024xf32>
  %484 = linalg.generic {indexing_maps = [#map0, #map0, #map0], iterator_types = ["parallel", "parallel", "parallel", "parallel"]} ins(%482, %cst_151 : tensor<1x14x14x1024xf32>, tensor<1x14x14x1024xf32>) outs(%483 : tensor<1x14x14x1024xf32>) {
  ^bb0(%arg1: f32, %arg2: f32, %arg3: f32):
    %868 = arith.mulf %arg1, %arg2 : f32
    linalg.yield %868 : f32
  } -> tensor<1x14x14x1024xf32>
  %485 = linalg.init_tensor [1, 14, 14, 1024] : tensor<1x14x14x1024xf32>
  %486 = linalg.generic {indexing_maps = [#map0, #map0, #map0], iterator_types = ["parallel", "parallel", "parallel", "parallel"]} ins(%484, %cst_150 : tensor<1x14x14x1024xf32>, tensor<1x14x14x1024xf32>) outs(%485 : tensor<1x14x14x1024xf32>) {
  ^bb0(%arg1: f32, %arg2: f32, %arg3: f32):
    %868 = arith.divf %arg1, %arg2 : f32
    linalg.yield %868 : f32
  } -> tensor<1x14x14x1024xf32>
  %487 = linalg.init_tensor [1, 14, 14, 1024] : tensor<1x14x14x1024xf32>
  %488 = linalg.generic {indexing_maps = [#map0, #map0, #map0], iterator_types = ["parallel", "parallel", "parallel", "parallel"]} ins(%486, %cst_152 : tensor<1x14x14x1024xf32>, tensor<1x14x14x1024xf32>) outs(%487 : tensor<1x14x14x1024xf32>) {
  ^bb0(%arg1: f32, %arg2: f32, %arg3: f32):
    %868 = arith.addf %arg1, %arg2 : f32
    linalg.yield %868 : f32
  } -> tensor<1x14x14x1024xf32>
  %489 = linalg.init_tensor [1, 14, 14, 1024] : tensor<1x14x14x1024xf32>
  %490 = linalg.generic {indexing_maps = [#map0, #map0, #map0], iterator_types = ["parallel", "parallel", "parallel", "parallel"]} ins(%444, %488 : tensor<1x14x14x1024xf32>, tensor<1x14x14x1024xf32>) outs(%489 : tensor<1x14x14x1024xf32>) {
  ^bb0(%arg1: f32, %arg2: f32, %arg3: f32):
    %868 = arith.addf %arg1, %arg2 : f32
    linalg.yield %868 : f32
  } -> tensor<1x14x14x1024xf32>
  %491 = linalg.init_tensor [1, 14, 14, 1024] : tensor<1x14x14x1024xf32>
  %492 = linalg.generic {indexing_maps = [#map0, #map0, #map0], iterator_types = ["parallel", "parallel", "parallel", "parallel"]} ins(%490, %cst_271 : tensor<1x14x14x1024xf32>, tensor<1x14x14x1024xf32>) outs(%491 : tensor<1x14x14x1024xf32>) {
  ^bb0(%arg1: f32, %arg2: f32, %arg3: f32):
    %868 = arith.maxf %arg1, %arg2 : f32
    linalg.yield %868 : f32
  } -> tensor<1x14x14x1024xf32>
  %493 = linalg.init_tensor [1, 14, 14, 256] : tensor<1x14x14x256xf32>
  %cst_382 = arith.constant 0.000000e+00 : f32
  %494 = linalg.fill ins(%cst_382 : f32) outs(%493 : tensor<1x14x14x256xf32>) -> tensor<1x14x14x256xf32>
  %495 = linalg.conv_2d_nhwc_hwcf {dilations = dense<1> : tensor<2xi64>, strides = dense<1> : tensor<2xi64>} ins(%492, %cst_308 : tensor<1x14x14x1024xf32>, tensor<1x1x1024x256xf32>) outs(%494 : tensor<1x14x14x256xf32>) -> tensor<1x14x14x256xf32>
  %496 = linalg.init_tensor [1, 14, 14, 256] : tensor<1x14x14x256xf32>
  %497 = linalg.generic {indexing_maps = [#map0, #map0, #map0], iterator_types = ["parallel", "parallel", "parallel", "parallel"]} ins(%495, %cst_154 : tensor<1x14x14x256xf32>, tensor<1x14x14x256xf32>) outs(%496 : tensor<1x14x14x256xf32>) {
  ^bb0(%arg1: f32, %arg2: f32, %arg3: f32):
    %868 = arith.addf %arg1, %arg2 : f32
    linalg.yield %868 : f32
  } -> tensor<1x14x14x256xf32>
  %498 = linalg.init_tensor [1, 14, 14, 256] : tensor<1x14x14x256xf32>
  %499 = linalg.generic {indexing_maps = [#map0, #map0, #map0], iterator_types = ["parallel", "parallel", "parallel", "parallel"]} ins(%497, %cst_158 : tensor<1x14x14x256xf32>, tensor<1x14x14x256xf32>) outs(%498 : tensor<1x14x14x256xf32>) {
  ^bb0(%arg1: f32, %arg2: f32, %arg3: f32):
    %868 = arith.subf %arg1, %arg2 : f32
    linalg.yield %868 : f32
  } -> tensor<1x14x14x256xf32>
  %500 = linalg.init_tensor [1, 14, 14, 256] : tensor<1x14x14x256xf32>
  %501 = linalg.generic {indexing_maps = [#map0, #map0, #map0], iterator_types = ["parallel", "parallel", "parallel", "parallel"]} ins(%499, %cst_156 : tensor<1x14x14x256xf32>, tensor<1x14x14x256xf32>) outs(%500 : tensor<1x14x14x256xf32>) {
  ^bb0(%arg1: f32, %arg2: f32, %arg3: f32):
    %868 = arith.mulf %arg1, %arg2 : f32
    linalg.yield %868 : f32
  } -> tensor<1x14x14x256xf32>
  %502 = linalg.init_tensor [1, 14, 14, 256] : tensor<1x14x14x256xf32>
  %503 = linalg.generic {indexing_maps = [#map0, #map0, #map0], iterator_types = ["parallel", "parallel", "parallel", "parallel"]} ins(%501, %cst_155 : tensor<1x14x14x256xf32>, tensor<1x14x14x256xf32>) outs(%502 : tensor<1x14x14x256xf32>) {
  ^bb0(%arg1: f32, %arg2: f32, %arg3: f32):
    %868 = arith.divf %arg1, %arg2 : f32
    linalg.yield %868 : f32
  } -> tensor<1x14x14x256xf32>
  %504 = linalg.init_tensor [1, 14, 14, 256] : tensor<1x14x14x256xf32>
  %505 = linalg.generic {indexing_maps = [#map0, #map0, #map0], iterator_types = ["parallel", "parallel", "parallel", "parallel"]} ins(%503, %cst_157 : tensor<1x14x14x256xf32>, tensor<1x14x14x256xf32>) outs(%504 : tensor<1x14x14x256xf32>) {
  ^bb0(%arg1: f32, %arg2: f32, %arg3: f32):
    %868 = arith.addf %arg1, %arg2 : f32
    linalg.yield %868 : f32
  } -> tensor<1x14x14x256xf32>
  %506 = linalg.init_tensor [1, 14, 14, 256] : tensor<1x14x14x256xf32>
  %507 = linalg.generic {indexing_maps = [#map0, #map0, #map0], iterator_types = ["parallel", "parallel", "parallel", "parallel"]} ins(%505, %cst_270 : tensor<1x14x14x256xf32>, tensor<1x14x14x256xf32>) outs(%506 : tensor<1x14x14x256xf32>) {
  ^bb0(%arg1: f32, %arg2: f32, %arg3: f32):
    %868 = arith.maxf %arg1, %arg2 : f32
    linalg.yield %868 : f32
  } -> tensor<1x14x14x256xf32>
  %508 = linalg.init_tensor [1, 14, 14, 256] : tensor<1x14x14x256xf32>
  %cst_383 = arith.constant 0.000000e+00 : f32
  %509 = linalg.fill ins(%cst_383 : f32) outs(%508 : tensor<1x14x14x256xf32>) -> tensor<1x14x14x256xf32>
  %cst_384 = arith.constant dense<0.000000e+00> : tensor<f32>
  %cst_385 = arith.constant 0.000000e+00 : f32
  %510 = tensor.pad %507 low[0, 1, 1, 0] high[0, 1, 1, 0] {
  ^bb0(%arg1: index, %arg2: index, %arg3: index, %arg4: index):
    tensor.yield %cst_385 : f32
  } : tensor<1x14x14x256xf32> to tensor<1x16x16x256xf32>
  %511 = linalg.conv_2d_nhwc_hwcf {dilations = dense<1> : tensor<2xi64>, strides = dense<1> : tensor<2xi64>} ins(%510, %cst_309 : tensor<1x16x16x256xf32>, tensor<3x3x256x256xf32>) outs(%509 : tensor<1x14x14x256xf32>) -> tensor<1x14x14x256xf32>
  %512 = linalg.init_tensor [1, 14, 14, 256] : tensor<1x14x14x256xf32>
  %513 = linalg.generic {indexing_maps = [#map0, #map0, #map0], iterator_types = ["parallel", "parallel", "parallel", "parallel"]} ins(%511, %cst_159 : tensor<1x14x14x256xf32>, tensor<1x14x14x256xf32>) outs(%512 : tensor<1x14x14x256xf32>) {
  ^bb0(%arg1: f32, %arg2: f32, %arg3: f32):
    %868 = arith.addf %arg1, %arg2 : f32
    linalg.yield %868 : f32
  } -> tensor<1x14x14x256xf32>
  %514 = linalg.init_tensor [1, 14, 14, 256] : tensor<1x14x14x256xf32>
  %515 = linalg.generic {indexing_maps = [#map0, #map0, #map0], iterator_types = ["parallel", "parallel", "parallel", "parallel"]} ins(%513, %cst_163 : tensor<1x14x14x256xf32>, tensor<1x14x14x256xf32>) outs(%514 : tensor<1x14x14x256xf32>) {
  ^bb0(%arg1: f32, %arg2: f32, %arg3: f32):
    %868 = arith.subf %arg1, %arg2 : f32
    linalg.yield %868 : f32
  } -> tensor<1x14x14x256xf32>
  %516 = linalg.init_tensor [1, 14, 14, 256] : tensor<1x14x14x256xf32>
  %517 = linalg.generic {indexing_maps = [#map0, #map0, #map0], iterator_types = ["parallel", "parallel", "parallel", "parallel"]} ins(%515, %cst_161 : tensor<1x14x14x256xf32>, tensor<1x14x14x256xf32>) outs(%516 : tensor<1x14x14x256xf32>) {
  ^bb0(%arg1: f32, %arg2: f32, %arg3: f32):
    %868 = arith.mulf %arg1, %arg2 : f32
    linalg.yield %868 : f32
  } -> tensor<1x14x14x256xf32>
  %518 = linalg.init_tensor [1, 14, 14, 256] : tensor<1x14x14x256xf32>
  %519 = linalg.generic {indexing_maps = [#map0, #map0, #map0], iterator_types = ["parallel", "parallel", "parallel", "parallel"]} ins(%517, %cst_160 : tensor<1x14x14x256xf32>, tensor<1x14x14x256xf32>) outs(%518 : tensor<1x14x14x256xf32>) {
  ^bb0(%arg1: f32, %arg2: f32, %arg3: f32):
    %868 = arith.divf %arg1, %arg2 : f32
    linalg.yield %868 : f32
  } -> tensor<1x14x14x256xf32>
  %520 = linalg.init_tensor [1, 14, 14, 256] : tensor<1x14x14x256xf32>
  %521 = linalg.generic {indexing_maps = [#map0, #map0, #map0], iterator_types = ["parallel", "parallel", "parallel", "parallel"]} ins(%519, %cst_162 : tensor<1x14x14x256xf32>, tensor<1x14x14x256xf32>) outs(%520 : tensor<1x14x14x256xf32>) {
  ^bb0(%arg1: f32, %arg2: f32, %arg3: f32):
    %868 = arith.addf %arg1, %arg2 : f32
    linalg.yield %868 : f32
  } -> tensor<1x14x14x256xf32>
  %522 = linalg.init_tensor [1, 14, 14, 256] : tensor<1x14x14x256xf32>
  %523 = linalg.generic {indexing_maps = [#map0, #map0, #map0], iterator_types = ["parallel", "parallel", "parallel", "parallel"]} ins(%521, %cst_270 : tensor<1x14x14x256xf32>, tensor<1x14x14x256xf32>) outs(%522 : tensor<1x14x14x256xf32>) {
  ^bb0(%arg1: f32, %arg2: f32, %arg3: f32):
    %868 = arith.maxf %arg1, %arg2 : f32
    linalg.yield %868 : f32
  } -> tensor<1x14x14x256xf32>
  %524 = linalg.init_tensor [1, 14, 14, 1024] : tensor<1x14x14x1024xf32>
  %cst_386 = arith.constant 0.000000e+00 : f32
  %525 = linalg.fill ins(%cst_386 : f32) outs(%524 : tensor<1x14x14x1024xf32>) -> tensor<1x14x14x1024xf32>
  %526 = linalg.conv_2d_nhwc_hwcf {dilations = dense<1> : tensor<2xi64>, strides = dense<1> : tensor<2xi64>} ins(%523, %cst_310 : tensor<1x14x14x256xf32>, tensor<1x1x256x1024xf32>) outs(%525 : tensor<1x14x14x1024xf32>) -> tensor<1x14x14x1024xf32>
  %527 = linalg.init_tensor [1, 14, 14, 1024] : tensor<1x14x14x1024xf32>
  %528 = linalg.generic {indexing_maps = [#map0, #map0, #map0], iterator_types = ["parallel", "parallel", "parallel", "parallel"]} ins(%526, %cst_164 : tensor<1x14x14x1024xf32>, tensor<1x14x14x1024xf32>) outs(%527 : tensor<1x14x14x1024xf32>) {
  ^bb0(%arg1: f32, %arg2: f32, %arg3: f32):
    %868 = arith.addf %arg1, %arg2 : f32
    linalg.yield %868 : f32
  } -> tensor<1x14x14x1024xf32>
  %529 = linalg.init_tensor [1, 14, 14, 1024] : tensor<1x14x14x1024xf32>
  %530 = linalg.generic {indexing_maps = [#map0, #map0, #map0], iterator_types = ["parallel", "parallel", "parallel", "parallel"]} ins(%528, %cst_168 : tensor<1x14x14x1024xf32>, tensor<1x14x14x1024xf32>) outs(%529 : tensor<1x14x14x1024xf32>) {
  ^bb0(%arg1: f32, %arg2: f32, %arg3: f32):
    %868 = arith.subf %arg1, %arg2 : f32
    linalg.yield %868 : f32
  } -> tensor<1x14x14x1024xf32>
  %531 = linalg.init_tensor [1, 14, 14, 1024] : tensor<1x14x14x1024xf32>
  %532 = linalg.generic {indexing_maps = [#map0, #map0, #map0], iterator_types = ["parallel", "parallel", "parallel", "parallel"]} ins(%530, %cst_166 : tensor<1x14x14x1024xf32>, tensor<1x14x14x1024xf32>) outs(%531 : tensor<1x14x14x1024xf32>) {
  ^bb0(%arg1: f32, %arg2: f32, %arg3: f32):
    %868 = arith.mulf %arg1, %arg2 : f32
    linalg.yield %868 : f32
  } -> tensor<1x14x14x1024xf32>
  %533 = linalg.init_tensor [1, 14, 14, 1024] : tensor<1x14x14x1024xf32>
  %534 = linalg.generic {indexing_maps = [#map0, #map0, #map0], iterator_types = ["parallel", "parallel", "parallel", "parallel"]} ins(%532, %cst_165 : tensor<1x14x14x1024xf32>, tensor<1x14x14x1024xf32>) outs(%533 : tensor<1x14x14x1024xf32>) {
  ^bb0(%arg1: f32, %arg2: f32, %arg3: f32):
    %868 = arith.divf %arg1, %arg2 : f32
    linalg.yield %868 : f32
  } -> tensor<1x14x14x1024xf32>
  %535 = linalg.init_tensor [1, 14, 14, 1024] : tensor<1x14x14x1024xf32>
  %536 = linalg.generic {indexing_maps = [#map0, #map0, #map0], iterator_types = ["parallel", "parallel", "parallel", "parallel"]} ins(%534, %cst_167 : tensor<1x14x14x1024xf32>, tensor<1x14x14x1024xf32>) outs(%535 : tensor<1x14x14x1024xf32>) {
  ^bb0(%arg1: f32, %arg2: f32, %arg3: f32):
    %868 = arith.addf %arg1, %arg2 : f32
    linalg.yield %868 : f32
  } -> tensor<1x14x14x1024xf32>
  %537 = linalg.init_tensor [1, 14, 14, 1024] : tensor<1x14x14x1024xf32>
  %538 = linalg.generic {indexing_maps = [#map0, #map0, #map0], iterator_types = ["parallel", "parallel", "parallel", "parallel"]} ins(%492, %536 : tensor<1x14x14x1024xf32>, tensor<1x14x14x1024xf32>) outs(%537 : tensor<1x14x14x1024xf32>) {
  ^bb0(%arg1: f32, %arg2: f32, %arg3: f32):
    %868 = arith.addf %arg1, %arg2 : f32
    linalg.yield %868 : f32
  } -> tensor<1x14x14x1024xf32>
  %539 = linalg.init_tensor [1, 14, 14, 1024] : tensor<1x14x14x1024xf32>
  %540 = linalg.generic {indexing_maps = [#map0, #map0, #map0], iterator_types = ["parallel", "parallel", "parallel", "parallel"]} ins(%538, %cst_271 : tensor<1x14x14x1024xf32>, tensor<1x14x14x1024xf32>) outs(%539 : tensor<1x14x14x1024xf32>) {
  ^bb0(%arg1: f32, %arg2: f32, %arg3: f32):
    %868 = arith.maxf %arg1, %arg2 : f32
    linalg.yield %868 : f32
  } -> tensor<1x14x14x1024xf32>
  %541 = linalg.init_tensor [1, 14, 14, 256] : tensor<1x14x14x256xf32>
  %cst_387 = arith.constant 0.000000e+00 : f32
  %542 = linalg.fill ins(%cst_387 : f32) outs(%541 : tensor<1x14x14x256xf32>) -> tensor<1x14x14x256xf32>
  %543 = linalg.conv_2d_nhwc_hwcf {dilations = dense<1> : tensor<2xi64>, strides = dense<1> : tensor<2xi64>} ins(%540, %cst_311 : tensor<1x14x14x1024xf32>, tensor<1x1x1024x256xf32>) outs(%542 : tensor<1x14x14x256xf32>) -> tensor<1x14x14x256xf32>
  %544 = linalg.init_tensor [1, 14, 14, 256] : tensor<1x14x14x256xf32>
  %545 = linalg.generic {indexing_maps = [#map0, #map0, #map0], iterator_types = ["parallel", "parallel", "parallel", "parallel"]} ins(%543, %cst_169 : tensor<1x14x14x256xf32>, tensor<1x14x14x256xf32>) outs(%544 : tensor<1x14x14x256xf32>) {
  ^bb0(%arg1: f32, %arg2: f32, %arg3: f32):
    %868 = arith.addf %arg1, %arg2 : f32
    linalg.yield %868 : f32
  } -> tensor<1x14x14x256xf32>
  %546 = linalg.init_tensor [1, 14, 14, 256] : tensor<1x14x14x256xf32>
  %547 = linalg.generic {indexing_maps = [#map0, #map0, #map0], iterator_types = ["parallel", "parallel", "parallel", "parallel"]} ins(%545, %cst_173 : tensor<1x14x14x256xf32>, tensor<1x14x14x256xf32>) outs(%546 : tensor<1x14x14x256xf32>) {
  ^bb0(%arg1: f32, %arg2: f32, %arg3: f32):
    %868 = arith.subf %arg1, %arg2 : f32
    linalg.yield %868 : f32
  } -> tensor<1x14x14x256xf32>
  %548 = linalg.init_tensor [1, 14, 14, 256] : tensor<1x14x14x256xf32>
  %549 = linalg.generic {indexing_maps = [#map0, #map0, #map0], iterator_types = ["parallel", "parallel", "parallel", "parallel"]} ins(%547, %cst_171 : tensor<1x14x14x256xf32>, tensor<1x14x14x256xf32>) outs(%548 : tensor<1x14x14x256xf32>) {
  ^bb0(%arg1: f32, %arg2: f32, %arg3: f32):
    %868 = arith.mulf %arg1, %arg2 : f32
    linalg.yield %868 : f32
  } -> tensor<1x14x14x256xf32>
  %550 = linalg.init_tensor [1, 14, 14, 256] : tensor<1x14x14x256xf32>
  %551 = linalg.generic {indexing_maps = [#map0, #map0, #map0], iterator_types = ["parallel", "parallel", "parallel", "parallel"]} ins(%549, %cst_170 : tensor<1x14x14x256xf32>, tensor<1x14x14x256xf32>) outs(%550 : tensor<1x14x14x256xf32>) {
  ^bb0(%arg1: f32, %arg2: f32, %arg3: f32):
    %868 = arith.divf %arg1, %arg2 : f32
    linalg.yield %868 : f32
  } -> tensor<1x14x14x256xf32>
  %552 = linalg.init_tensor [1, 14, 14, 256] : tensor<1x14x14x256xf32>
  %553 = linalg.generic {indexing_maps = [#map0, #map0, #map0], iterator_types = ["parallel", "parallel", "parallel", "parallel"]} ins(%551, %cst_172 : tensor<1x14x14x256xf32>, tensor<1x14x14x256xf32>) outs(%552 : tensor<1x14x14x256xf32>) {
  ^bb0(%arg1: f32, %arg2: f32, %arg3: f32):
    %868 = arith.addf %arg1, %arg2 : f32
    linalg.yield %868 : f32
  } -> tensor<1x14x14x256xf32>
  %554 = linalg.init_tensor [1, 14, 14, 256] : tensor<1x14x14x256xf32>
  %555 = linalg.generic {indexing_maps = [#map0, #map0, #map0], iterator_types = ["parallel", "parallel", "parallel", "parallel"]} ins(%553, %cst_270 : tensor<1x14x14x256xf32>, tensor<1x14x14x256xf32>) outs(%554 : tensor<1x14x14x256xf32>) {
  ^bb0(%arg1: f32, %arg2: f32, %arg3: f32):
    %868 = arith.maxf %arg1, %arg2 : f32
    linalg.yield %868 : f32
  } -> tensor<1x14x14x256xf32>
  %556 = linalg.init_tensor [1, 14, 14, 256] : tensor<1x14x14x256xf32>
  %cst_388 = arith.constant 0.000000e+00 : f32
  %557 = linalg.fill ins(%cst_388 : f32) outs(%556 : tensor<1x14x14x256xf32>) -> tensor<1x14x14x256xf32>
  %cst_389 = arith.constant dense<0.000000e+00> : tensor<f32>
  %cst_390 = arith.constant 0.000000e+00 : f32
  %558 = tensor.pad %555 low[0, 1, 1, 0] high[0, 1, 1, 0] {
  ^bb0(%arg1: index, %arg2: index, %arg3: index, %arg4: index):
    tensor.yield %cst_390 : f32
  } : tensor<1x14x14x256xf32> to tensor<1x16x16x256xf32>
  %559 = linalg.conv_2d_nhwc_hwcf {dilations = dense<1> : tensor<2xi64>, strides = dense<1> : tensor<2xi64>} ins(%558, %cst_312 : tensor<1x16x16x256xf32>, tensor<3x3x256x256xf32>) outs(%557 : tensor<1x14x14x256xf32>) -> tensor<1x14x14x256xf32>
  %560 = linalg.init_tensor [1, 14, 14, 256] : tensor<1x14x14x256xf32>
  %561 = linalg.generic {indexing_maps = [#map0, #map0, #map0], iterator_types = ["parallel", "parallel", "parallel", "parallel"]} ins(%559, %cst_174 : tensor<1x14x14x256xf32>, tensor<1x14x14x256xf32>) outs(%560 : tensor<1x14x14x256xf32>) {
  ^bb0(%arg1: f32, %arg2: f32, %arg3: f32):
    %868 = arith.addf %arg1, %arg2 : f32
    linalg.yield %868 : f32
  } -> tensor<1x14x14x256xf32>
  %562 = linalg.init_tensor [1, 14, 14, 256] : tensor<1x14x14x256xf32>
  %563 = linalg.generic {indexing_maps = [#map0, #map0, #map0], iterator_types = ["parallel", "parallel", "parallel", "parallel"]} ins(%561, %cst_178 : tensor<1x14x14x256xf32>, tensor<1x14x14x256xf32>) outs(%562 : tensor<1x14x14x256xf32>) {
  ^bb0(%arg1: f32, %arg2: f32, %arg3: f32):
    %868 = arith.subf %arg1, %arg2 : f32
    linalg.yield %868 : f32
  } -> tensor<1x14x14x256xf32>
  %564 = linalg.init_tensor [1, 14, 14, 256] : tensor<1x14x14x256xf32>
  %565 = linalg.generic {indexing_maps = [#map0, #map0, #map0], iterator_types = ["parallel", "parallel", "parallel", "parallel"]} ins(%563, %cst_176 : tensor<1x14x14x256xf32>, tensor<1x14x14x256xf32>) outs(%564 : tensor<1x14x14x256xf32>) {
  ^bb0(%arg1: f32, %arg2: f32, %arg3: f32):
    %868 = arith.mulf %arg1, %arg2 : f32
    linalg.yield %868 : f32
  } -> tensor<1x14x14x256xf32>
  %566 = linalg.init_tensor [1, 14, 14, 256] : tensor<1x14x14x256xf32>
  %567 = linalg.generic {indexing_maps = [#map0, #map0, #map0], iterator_types = ["parallel", "parallel", "parallel", "parallel"]} ins(%565, %cst_175 : tensor<1x14x14x256xf32>, tensor<1x14x14x256xf32>) outs(%566 : tensor<1x14x14x256xf32>) {
  ^bb0(%arg1: f32, %arg2: f32, %arg3: f32):
    %868 = arith.divf %arg1, %arg2 : f32
    linalg.yield %868 : f32
  } -> tensor<1x14x14x256xf32>
  %568 = linalg.init_tensor [1, 14, 14, 256] : tensor<1x14x14x256xf32>
  %569 = linalg.generic {indexing_maps = [#map0, #map0, #map0], iterator_types = ["parallel", "parallel", "parallel", "parallel"]} ins(%567, %cst_177 : tensor<1x14x14x256xf32>, tensor<1x14x14x256xf32>) outs(%568 : tensor<1x14x14x256xf32>) {
  ^bb0(%arg1: f32, %arg2: f32, %arg3: f32):
    %868 = arith.addf %arg1, %arg2 : f32
    linalg.yield %868 : f32
  } -> tensor<1x14x14x256xf32>
  %570 = linalg.init_tensor [1, 14, 14, 256] : tensor<1x14x14x256xf32>
  %571 = linalg.generic {indexing_maps = [#map0, #map0, #map0], iterator_types = ["parallel", "parallel", "parallel", "parallel"]} ins(%569, %cst_270 : tensor<1x14x14x256xf32>, tensor<1x14x14x256xf32>) outs(%570 : tensor<1x14x14x256xf32>) {
  ^bb0(%arg1: f32, %arg2: f32, %arg3: f32):
    %868 = arith.maxf %arg1, %arg2 : f32
    linalg.yield %868 : f32
  } -> tensor<1x14x14x256xf32>
  %572 = linalg.init_tensor [1, 14, 14, 1024] : tensor<1x14x14x1024xf32>
  %cst_391 = arith.constant 0.000000e+00 : f32
  %573 = linalg.fill ins(%cst_391 : f32) outs(%572 : tensor<1x14x14x1024xf32>) -> tensor<1x14x14x1024xf32>
  %574 = linalg.conv_2d_nhwc_hwcf {dilations = dense<1> : tensor<2xi64>, strides = dense<1> : tensor<2xi64>} ins(%571, %cst_313 : tensor<1x14x14x256xf32>, tensor<1x1x256x1024xf32>) outs(%573 : tensor<1x14x14x1024xf32>) -> tensor<1x14x14x1024xf32>
  %575 = linalg.init_tensor [1, 14, 14, 1024] : tensor<1x14x14x1024xf32>
  %576 = linalg.generic {indexing_maps = [#map0, #map0, #map0], iterator_types = ["parallel", "parallel", "parallel", "parallel"]} ins(%574, %cst_179 : tensor<1x14x14x1024xf32>, tensor<1x14x14x1024xf32>) outs(%575 : tensor<1x14x14x1024xf32>) {
  ^bb0(%arg1: f32, %arg2: f32, %arg3: f32):
    %868 = arith.addf %arg1, %arg2 : f32
    linalg.yield %868 : f32
  } -> tensor<1x14x14x1024xf32>
  %577 = linalg.init_tensor [1, 14, 14, 1024] : tensor<1x14x14x1024xf32>
  %578 = linalg.generic {indexing_maps = [#map0, #map0, #map0], iterator_types = ["parallel", "parallel", "parallel", "parallel"]} ins(%576, %cst_183 : tensor<1x14x14x1024xf32>, tensor<1x14x14x1024xf32>) outs(%577 : tensor<1x14x14x1024xf32>) {
  ^bb0(%arg1: f32, %arg2: f32, %arg3: f32):
    %868 = arith.subf %arg1, %arg2 : f32
    linalg.yield %868 : f32
  } -> tensor<1x14x14x1024xf32>
  %579 = linalg.init_tensor [1, 14, 14, 1024] : tensor<1x14x14x1024xf32>
  %580 = linalg.generic {indexing_maps = [#map0, #map0, #map0], iterator_types = ["parallel", "parallel", "parallel", "parallel"]} ins(%578, %cst_181 : tensor<1x14x14x1024xf32>, tensor<1x14x14x1024xf32>) outs(%579 : tensor<1x14x14x1024xf32>) {
  ^bb0(%arg1: f32, %arg2: f32, %arg3: f32):
    %868 = arith.mulf %arg1, %arg2 : f32
    linalg.yield %868 : f32
  } -> tensor<1x14x14x1024xf32>
  %581 = linalg.init_tensor [1, 14, 14, 1024] : tensor<1x14x14x1024xf32>
  %582 = linalg.generic {indexing_maps = [#map0, #map0, #map0], iterator_types = ["parallel", "parallel", "parallel", "parallel"]} ins(%580, %cst_180 : tensor<1x14x14x1024xf32>, tensor<1x14x14x1024xf32>) outs(%581 : tensor<1x14x14x1024xf32>) {
…
  %628 = linalg.generic {indexing_maps = [#map0, #map0, #map0], iterator_types = ["parallel", "parallel", "parallel", "parallel"]} ins(%626, %cst_196 : tensor<1x14x14x1024xf32>, tensor<1x14x14x1024xf32>) outs(%627 : tensor<1x14x14x1024xf32>) {
  ^bb0(%arg1: f32, %arg2: f32, %arg3: f32):
    %868 = arith.mulf %arg1, %arg2 : f32
    linalg.yield %868 : f32
  } -> tensor<1x14x14x1024xf32>
  %629 = linalg.init_tensor [1, 14, 14, 1024] : tensor<1x14x14x1024xf32>
  %630 = linalg.generic {indexing_maps = [#map0, #map0, #map0], iterator_types = ["parallel", "parallel", "parallel", "parallel"]} ins(%628, %cst_195 : tensor<1x14x14x1024xf32>, tensor<1x14x14x1024xf32>) outs(%629 : tensor<1x14x14x1024xf32>) {
  ^bb0(%arg1: f32, %arg2: f32, %arg3: f32):
    %868 = arith.divf %arg1, %arg2 : f32
    linalg.yield %868 : f32
  } -> tensor<1x14x14x1024xf32>
  %631 = linalg.init_tensor [1, 14, 14, 1024] : tensor<1x14x14x1024xf32>
  %632 = linalg.generic {indexing_maps = [#map0, #map0, #map0], iterator_types = ["parallel", "parallel", "parallel", "parallel"]} ins(%630, %cst_197 : tensor<1x14x14x1024xf32>, tensor<1x14x14x1024xf32>) outs(%631 : tensor<1x14x14x1024xf32>) {
  ^bb0(%arg1: f32, %arg2: f32, %arg3: f32):
    %868 = arith.addf %arg1, %arg2 : f32
    linalg.yield %868 : f32
  } -> tensor<1x14x14x1024xf32>
  %633 = linalg.init_tensor [1, 14, 14, 1024] : tensor<1x14x14x1024xf32>
  %634 = linalg.generic {indexing_maps = [#map0, #map0, #map0], iterator_types = ["parallel", "parallel", "parallel", "parallel"]} ins(%588, %632 : tensor<1x14x14x1024xf32>, tensor<1x14x14x1024xf32>) outs(%633 : tensor<1x14x14x1024xf32>) {
  ^bb0(%arg1: f32, %arg2: f32, %arg3: f32):
    %868 = arith.addf %arg1, %arg2 : f32
    linalg.yield %868 : f32
  } -> tensor<1x14x14x1024xf32>
  %635 = linalg.init_tensor [1, 14, 14, 1024] : tensor<1x14x14x1024xf32>
  %636 = linalg.generic {indexing_maps = [#map0, #map0, #map0], iterator_types = ["parallel", "parallel", "parallel", "parallel"]} ins(%634, %cst_271 : tensor<1x14x14x1024xf32>, tensor<1x14x14x1024xf32>) outs(%635 : tensor<1x14x14x1024xf32>) {
  ^bb0(%arg1: f32, %arg2: f32, %arg3: f32):
    %868 = arith.maxf %arg1, %arg2 : f32
    linalg.yield %868 : f32
  } -> tensor<1x14x14x1024xf32>
  %637 = linalg.init_tensor [1, 14, 14, 256] : tensor<1x14x14x256xf32>
  %cst_397 = arith.constant 0.000000e+00 : f32
  %638 = linalg.fill ins(%cst_397 : f32) outs(%637 : tensor<1x14x14x256xf32>) -> tensor<1x14x14x256xf32>
  %639 = linalg.conv_2d_nhwc_hwcf {dilations = dense<1> : tensor<2xi64>, strides = dense<1> : tensor<2xi64>} ins(%636, %cst_317 : tensor<1x14x14x1024xf32>, tensor<1x1x1024x256xf32>) outs(%638 : tensor<1x14x14x256xf32>) -> tensor<1x14x14x256xf32>
  %640 = linalg.init_tensor [1, 14, 14, 256] : tensor<1x14x14x256xf32>
  %641 = linalg.generic {indexing_maps = [#map0, #map0, #map0], iterator_types = ["parallel", "parallel", "parallel", "parallel"]} ins(%639, %cst_199 : tensor<1x14x14x256xf32>, tensor<1x14x14x256xf32>) outs(%640 : tensor<1x14x14x256xf32>) {
  ^bb0(%arg1: f32, %arg2: f32, %arg3: f32):
    %868 = arith.addf %arg1, %arg2 : f32
    linalg.yield %868 : f32
  } -> tensor<1x14x14x256xf32>
  %642 = linalg.init_tensor [1, 14, 14, 256] : tensor<1x14x14x256xf32>
  %643 = linalg.generic {indexing_maps = [#map0, #map0, #map0], iterator_types = ["parallel", "parallel", "parallel", "parallel"]} ins(%641, %cst_203 : tensor<1x14x14x256xf32>, tensor<1x14x14x256xf32>) outs(%642 : tensor<1x14x14x256xf32>) {
  ^bb0(%arg1: f32, %arg2: f32, %arg3: f32):
    %868 = arith.subf %arg1, %arg2 : f32
    linalg.yield %868 : f32
  } -> tensor<1x14x14x256xf32>
  %644 = linalg.init_tensor [1, 14, 14, 256] : tensor<1x14x14x256xf32>
  %645 = linalg.generic {indexing_maps = [#map0, #map0, #map0], iterator_types = ["parallel", "parallel", "parallel", "parallel"]} ins(%643, %cst_201 : tensor<1x14x14x256xf32>, tensor<1x14x14x256xf32>) outs(%644 : tensor<1x14x14x256xf32>) {
  ^bb0(%arg1: f32, %arg2: f32, %arg3: f32):
    %868 = arith.mulf %arg1, %arg2 : f32
    linalg.yield %868 : f32
  } -> tensor<1x14x14x256xf32>
  %646 = linalg.init_tensor [1, 14, 14, 256] : tensor<1x14x14x256xf32>
  %647 = linalg.generic {indexing_maps = [#map0, #map0, #map0], iterator_types = ["parallel", "parallel", "parallel", "parallel"]} ins(%645, %cst_200 : tensor<1x14x14x256xf32>, tensor<1x14x14x256xf32>) outs(%646 : tensor<1x14x14x256xf32>) {
  ^bb0(%arg1: f32, %arg2: f32, %arg3: f32):
    %868 = arith.divf %arg1, %arg2 : f32
    linalg.yield %868 : f32
  } -> tensor<1x14x14x256xf32>
  %648 = linalg.init_tensor [1, 14, 14, 256] : tensor<1x14x14x256xf32>
  %649 = linalg.generic {indexing_maps = [#map0, #map0, #map0], iterator_types = ["parallel", "parallel", "parallel", "parallel"]} ins(%647, %cst_202 : tensor<1x14x14x256xf32>, tensor<1x14x14x256xf32>) outs(%648 : tensor<1x14x14x256xf32>) {
  ^bb0(%arg1: f32, %arg2: f32, %arg3: f32):
    %868 = arith.addf %arg1, %arg2 : f32
    linalg.yield %868 : f32
  } -> tensor<1x14x14x256xf32>
  %650 = linalg.init_tensor [1, 14, 14, 256] : tensor<1x14x14x256xf32>
  %651 = linalg.generic {indexing_maps = [#map0, #map0, #map0], iterator_types = ["parallel", "parallel", "parallel", "parallel"]} ins(%649, %cst_270 : tensor<1x14x14x256xf32>, tensor<1x14x14x256xf32>) outs(%650 : tensor<1x14x14x256xf32>) {
  ^bb0(%arg1: f32, %arg2: f32, %arg3: f32):
    %868 = arith.maxf %arg1, %arg2 : f32
    linalg.yield %868 : f32
  } -> tensor<1x14x14x256xf32>
  %652 = linalg.init_tensor [1, 14, 14, 256] : tensor<1x14x14x256xf32>
  %cst_398 = arith.constant 0.000000e+00 : f32
  %653 = linalg.fill ins(%cst_398 : f32) outs(%652 : tensor<1x14x14x256xf32>) -> tensor<1x14x14x256xf32>
  %cst_399 = arith.constant dense<0.000000e+00> : tensor<f32>
  %cst_400 = arith.constant 0.000000e+00 : f32
  %654 = tensor.pad %651 low[0, 1, 1, 0] high[0, 1, 1, 0] {
  ^bb0(%arg1: index, %arg2: index, %arg3: index, %arg4: index):
    tensor.yield %cst_400 : f32
  } : tensor<1x14x14x256xf32> to tensor<1x16x16x256xf32>
  %655 = linalg.conv_2d_nhwc_hwcf {dilations = dense<1> : tensor<2xi64>, strides = dense<1> : tensor<2xi64>} ins(%654, %cst_318 : tensor<1x16x16x256xf32>, tensor<3x3x256x256xf32>) outs(%653 : tensor<1x14x14x256xf32>) -> tensor<1x14x14x256xf32>
  %656 = linalg.init_tensor [1, 14, 14, 256] : tensor<1x14x14x256xf32>
  %657 = linalg.generic {indexing_maps = [#map0, #map0, #map0], iterator_types = ["parallel", "parallel", "parallel", "parallel"]} ins(%655, %cst_204 : tensor<1x14x14x256xf32>, tensor<1x14x14x256xf32>) outs(%656 : tensor<1x14x14x256xf32>) {
  ^bb0(%arg1: f32, %arg2: f32, %arg3: f32):
    %868 = arith.addf %arg1, %arg2 : f32
    linalg.yield %868 : f32
  } -> tensor<1x14x14x256xf32>
  %658 = linalg.init_tensor [1, 14, 14, 256] : tensor<1x14x14x256xf32>
  %659 = linalg.generic {indexing_maps = [#map0, #map0, #map0], iterator_types = ["parallel", "parallel", "parallel", "parallel"]} ins(%657, %cst_208 : tensor<1x14x14x256xf32>, tensor<1x14x14x256xf32>) outs(%658 : tensor<1x14x14x256xf32>) {
  ^bb0(%arg1: f32, %arg2: f32, %arg3: f32):
    %868 = arith.subf %arg1, %arg2 : f32
    linalg.yield %868 : f32
  } -> tensor<1x14x14x256xf32>
  %660 = linalg.init_tensor [1, 14, 14, 256] : tensor<1x14x14x256xf32>
  %661 = linalg.generic {indexing_maps = [#map0, #map0, #map0], iterator_types = ["parallel", "parallel", "parallel", "parallel"]} ins(%659, %cst_206 : tensor<1x14x14x256xf32>, tensor<1x14x14x256xf32>) outs(%660 : tensor<1x14x14x256xf32>) {
  ^bb0(%arg1: f32, %arg2: f32, %arg3: f32):
    %868 = arith.mulf %arg1, %arg2 : f32
    linalg.yield %868 : f32
  } -> tensor<1x14x14x256xf32>
  %662 = linalg.init_tensor [1, 14, 14, 256] : tensor<1x14x14x256xf32>
  %663 = linalg.generic {indexing_maps = [#map0, #map0, #map0], iterator_types = ["parallel", "parallel", "parallel", "parallel"]} ins(%661, %cst_205 : tensor<1x14x14x256xf32>, tensor<1x14x14x256xf32>) outs(%662 : tensor<1x14x14x256xf32>) {
  ^bb0(%arg1: f32, %arg2: f32, %arg3: f32):
    %868 = arith.divf %arg1, %arg2 : f32
    linalg.yield %868 : f32
  } -> tensor<1x14x14x256xf32>
  %664 = linalg.init_tensor [1, 14, 14, 256] : tensor<1x14x14x256xf32>
  %665 = linalg.generic {indexing_maps = [#map0, #map0, #map0], iterator_types = ["parallel", "parallel", "parallel", "parallel"]} ins(%663, %cst_207 : tensor<1x14x14x256xf32>, tensor<1x14x14x256xf32>) outs(%664 : tensor<1x14x14x256xf32>) {
  ^bb0(%arg1: f32, %arg2: f32, %arg3: f32):
    %868 = arith.addf %arg1, %arg2 : f32
    linalg.yield %868 : f32
  } -> tensor<1x14x14x256xf32>
  %666 = linalg.init_tensor [1, 14, 14, 256] : tensor<1x14x14x256xf32>
  %667 = linalg.generic {indexing_maps = [#map0, #map0, #map0], iterator_types = ["parallel", "parallel", "parallel", "parallel"]} ins(%665, %cst_270 : tensor<1x14x14x256xf32>, tensor<1x14x14x256xf32>) outs(%666 : tensor<1x14x14x256xf32>) {
  ^bb0(%arg1: f32, %arg2: f32, %arg3: f32):
    %868 = arith.maxf %arg1, %arg2 : f32
    linalg.yield %868 : f32
  } -> tensor<1x14x14x256xf32>
  %668 = linalg.init_tensor [1, 14, 14, 1024] : tensor<1x14x14x1024xf32>
  %cst_401 = arith.constant 0.000000e+00 : f32
  %669 = linalg.fill ins(%cst_401 : f32) outs(%668 : tensor<1x14x14x1024xf32>) -> tensor<1x14x14x1024xf32>
  %670 = linalg.conv_2d_nhwc_hwcf {dilations = dense<1> : tensor<2xi64>, strides = dense<1> : tensor<2xi64>} ins(%667, %cst_319 : tensor<1x14x14x256xf32>, tensor<1x1x256x1024xf32>) outs(%669 : tensor<1x14x14x1024xf32>) -> tensor<1x14x14x1024xf32>
  %671 = linalg.init_tensor [1, 14, 14, 1024] : tensor<1x14x14x1024xf32>
  %672 = linalg.generic {indexing_maps = [#map0, #map0, #map0], iterator_types = ["parallel", "parallel", "parallel", "parallel"]} ins(%670, %cst_209 : tensor<1x14x14x1024xf32>, tensor<1x14x14x1024xf32>) outs(%671 : tensor<1x14x14x1024xf32>) {
  ^bb0(%arg1: f32, %arg2: f32, %arg3: f32):
    %868 = arith.addf %arg1, %arg2 : f32
    linalg.yield %868 : f32
  } -> tensor<1x14x14x1024xf32>
  %673 = linalg.init_tensor [1, 14, 14, 1024] : tensor<1x14x14x1024xf32>
  %674 = linalg.generic {indexing_maps = [#map0, #map0, #map0], iterator_types = ["parallel", "parallel", "parallel", "parallel"]} ins(%672, %cst_213 : tensor<1x14x14x1024xf32>, tensor<1x14x14x1024xf32>) outs(%673 : tensor<1x14x14x1024xf32>) {
  ^bb0(%arg1: f32, %arg2: f32, %arg3: f32):
    %868 = arith.subf %arg1, %arg2 : f32
    linalg.yield %868 : f32
  } -> tensor<1x14x14x1024xf32>
  %675 = linalg.init_tensor [1, 14, 14, 1024] : tensor<1x14x14x1024xf32>
  %676 = linalg.generic {indexing_maps = [#map0, #map0, #map0], iterator_types = ["parallel", "parallel", "parallel", "parallel"]} ins(%674, %cst_211 : tensor<1x14x14x1024xf32>, tensor<1x14x14x1024xf32>) outs(%675 : tensor<1x14x14x1024xf32>) {
  ^bb0(%arg1: f32, %arg2: f32, %arg3: f32):
    %868 = arith.mulf %arg1, %arg2 : f32
    linalg.yield %868 : f32
  } -> tensor<1x14x14x1024xf32>
  %677 = linalg.init_tensor [1, 14, 14, 1024] : tensor<1x14x14x1024xf32>
  %678 = linalg.generic {indexing_maps = [#map0, #map0, #map0], iterator_types = ["parallel", "parallel", "parallel", "parallel"]} ins(%676, %cst_210 : tensor<1x14x14x1024xf32>, tensor<1x14x14x1024xf32>) outs(%677 : tensor<1x14x14x1024xf32>) {
  ^bb0(%arg1: f32, %arg2: f32, %arg3: f32):
    %868 = arith.divf %arg1, %arg2 : f32
    linalg.yield %868 : f32
  } -> tensor<1x14x14x1024xf32>
  %679 = linalg.init_tensor [1, 14, 14, 1024] : tensor<1x14x14x1024xf32>
  %680 = linalg.generic {indexing_maps = [#map0, #map0, #map0], iterator_types = ["parallel", "parallel", "parallel", "parallel"]} ins(%678, %cst_212 : tensor<1x14x14x1024xf32>, tensor<1x14x14x1024xf32>) outs(%679 : tensor<1x14x14x1024xf32>) {
  ^bb0(%arg1: f32, %arg2: f32, %arg3: f32):
    %868 = arith.addf %arg1, %arg2 : f32
    linalg.yield %868 : f32
  } -> tensor<1x14x14x1024xf32>
  %681 = linalg.init_tensor [1, 14, 14, 1024] : tensor<1x14x14x1024xf32>
  %682 = linalg.generic {indexing_maps = [#map0, #map0, #map0], iterator_types = ["parallel", "parallel", "parallel", "parallel"]} ins(%636, %680 : tensor<1x14x14x1024xf32>, tensor<1x14x14x1024xf32>) outs(%681 : tensor<1x14x14x1024xf32>) {
  ^bb0(%arg1: f32, %arg2: f32, %arg3: f32):
    %868 = arith.addf %arg1, %arg2 : f32
    linalg.yield %868 : f32
  } -> tensor<1x14x14x1024xf32>
  %683 = linalg.init_tensor [1, 14, 14, 1024] : tensor<1x14x14x1024xf32>
  %684 = linalg.generic {indexing_maps = [#map0, #map0, #map0], iterator_types = ["parallel", "parallel", "parallel", "parallel"]} ins(%682, %cst_271 : tensor<1x14x14x1024xf32>, tensor<1x14x14x1024xf32>) outs(%683 : tensor<1x14x14x1024xf32>) {
  ^bb0(%arg1: f32, %arg2: f32, %arg3: f32):
    %868 = arith.maxf %arg1, %arg2 : f32
    linalg.yield %868 : f32
  } -> tensor<1x14x14x1024xf32>
  %685 = linalg.init_tensor [1, 7, 7, 2048] : tensor<1x7x7x2048xf32>
  %cst_402 = arith.constant 0.000000e+00 : f32
  %686 = linalg.fill ins(%cst_402 : f32) outs(%685 : tensor<1x7x7x2048xf32>) -> tensor<1x7x7x2048xf32>
  %687 = linalg.conv_2d_nhwc_hwcf {dilations = dense<1> : tensor<2xi64>, strides = dense<2> : tensor<2xi64>} ins(%684, %cst_320 : tensor<1x14x14x1024xf32>, tensor<1x1x1024x2048xf32>) outs(%686 : tensor<1x7x7x2048xf32>) -> tensor<1x7x7x2048xf32>
  %688 = linalg.init_tensor [1, 7, 7, 2048] : tensor<1x7x7x2048xf32>
  %689 = linalg.generic {indexing_maps = [#map0, #map0, #map0], iterator_types = ["parallel", "parallel", "parallel", "parallel"]} ins(%687, %cst_214 : tensor<1x7x7x2048xf32>, tensor<1x7x7x2048xf32>) outs(%688 : tensor<1x7x7x2048xf32>) {
  ^bb0(%arg1: f32, %arg2: f32, %arg3: f32):
    %868 = arith.addf %arg1, %arg2 : f32
    linalg.yield %868 : f32
  } -> tensor<1x7x7x2048xf32>
  %690 = linalg.init_tensor [1, 7, 7, 2048] : tensor<1x7x7x2048xf32>
  %691 = linalg.generic {indexing_maps = [#map0, #map0, #map0], iterator_types = ["parallel", "parallel", "parallel", "parallel"]} ins(%689, %cst_218 : tensor<1x7x7x2048xf32>, tensor<1x7x7x2048xf32>) outs(%690 : tensor<1x7x7x2048xf32>) {
  ^bb0(%arg1: f32, %arg2: f32, %arg3: f32):
    %868 = arith.subf %arg1, %arg2 : f32
    linalg.yield %868 : f32
  } -> tensor<1x7x7x2048xf32>
  %692 = linalg.init_tensor [1, 7, 7, 2048] : tensor<1x7x7x2048xf32>
  %693 = linalg.generic {indexing_maps = [#map0, #map0, #map0], iterator_types = ["parallel", "parallel", "parallel", "parallel"]} ins(%691, %cst_216 : tensor<1x7x7x2048xf32>, tensor<1x7x7x2048xf32>) outs(%692 : tensor<1x7x7x2048xf32>) {
  ^bb0(%arg1: f32, %arg2: f32, %arg3: f32):
    %868 = arith.mulf %arg1, %arg2 : f32
    linalg.yield %868 : f32
  } -> tensor<1x7x7x2048xf32>
  %694 = linalg.init_tensor [1, 7, 7, 2048] : tensor<1x7x7x2048xf32>
  %695 = linalg.generic {indexing_maps = [#map0, #map0, #map0], iterator_types = ["parallel", "parallel", "parallel", "parallel"]} ins(%693, %cst_215 : tensor<1x7x7x2048xf32>, tensor<1x7x7x2048xf32>) outs(%694 : tensor<1x7x7x2048xf32>) {
  ^bb0(%arg1: f32, %arg2: f32, %arg3: f32):
    %868 = arith.divf %arg1, %arg2 : f32
    linalg.yield %868 : f32
  } -> tensor<1x7x7x2048xf32>
  %696 = linalg.init_tensor [1, 7, 7, 2048] : tensor<1x7x7x2048xf32>
  %697 = linalg.generic {indexing_maps = [#map0, #map0, #map0], iterator_types = ["parallel", "parallel", "parallel", "parallel"]} ins(%695, %cst_217 : tensor<1x7x7x2048xf32>, tensor<1x7x7x2048xf32>) outs(%696 : tensor<1x7x7x2048xf32>) {
  ^bb0(%arg1: f32, %arg2: f32, %arg3: f32):
    %868 = arith.addf %arg1, %arg2 : f32
    linalg.yield %868 : f32
  } -> tensor<1x7x7x2048xf32>
  %698 = linalg.init_tensor [1, 7, 7, 512] : tensor<1x7x7x512xf32>
  %cst_403 = arith.constant 0.000000e+00 : f32
  %699 = linalg.fill ins(%cst_403 : f32) outs(%698 : tensor<1x7x7x512xf32>) -> tensor<1x7x7x512xf32>
  %700 = linalg.conv_2d_nhwc_hwcf {dilations = dense<1> : tensor<2xi64>, strides = dense<2> : tensor<2xi64>} ins(%684, %cst_321 : tensor<1x14x14x1024xf32>, tensor<1x1x1024x512xf32>) outs(%699 : tensor<1x7x7x512xf32>) -> tensor<1x7x7x512xf32>
  %701 = linalg.init_tensor [1, 7, 7, 512] : tensor<1x7x7x512xf32>
  %702 = linalg.generic {indexing_maps = [#map0, #map0, #map0], iterator_types = ["parallel", "parallel", "parallel", "parallel"]} ins(%700, %cst_219 : tensor<1x7x7x512xf32>, tensor<1x7x7x512xf32>) outs(%701 : tensor<1x7x7x512xf32>) {
  ^bb0(%arg1: f32, %arg2: f32, %arg3: f32):
    %868 = arith.addf %arg1, %arg2 : f32
    linalg.yield %868 : f32
  } -> tensor<1x7x7x512xf32>
  %703 = linalg.init_tensor [1, 7, 7, 512] : tensor<1x7x7x512xf32>
  %704 = linalg.generic {indexing_maps = [#map0, #map0, #map0], iterator_types = ["parallel", "parallel", "parallel", "parallel"]} ins(%702, %cst_223 : tensor<1x7x7x512xf32>, tensor<1x7x7x512xf32>) outs(%703 : tensor<1x7x7x512xf32>) {
  ^bb0(%arg1: f32, %arg2: f32, %arg3: f32):
    %868 = arith.subf %arg1, %arg2 : f32
    linalg.yield %868 : f32
  } -> tensor<1x7x7x512xf32>
  %705 = linalg.init_tensor [1, 7, 7, 512] : tensor<1x7x7x512xf32>
  %706 = linalg.generic {indexing_maps = [#map0, #map0, #map0], iterator_types = ["parallel", "parallel", "parallel", "parallel"]} ins(%704, %cst_221 : tensor<1x7x7x512xf32>, tensor<1x7x7x512xf32>) outs(%705 : tensor<1x7x7x512xf32>) {
  ^bb0(%arg1: f32, %arg2: f32, %arg3: f32):
    %868 = arith.mulf %arg1, %arg2 : f32
    linalg.yield %868 : f32
  } -> tensor<1x7x7x512xf32>
  %707 = linalg.init_tensor [1, 7, 7, 512] : tensor<1x7x7x512xf32>
  %708 = linalg.generic {indexing_maps = [#map0, #map0, #map0], iterator_types = ["parallel", "parallel", "parallel", "parallel"]} ins(%706, %cst_220 : tensor<1x7x7x512xf32>, tensor<1x7x7x512xf32>) outs(%707 : tensor<1x7x7x512xf32>) {
  ^bb0(%arg1: f32, %arg2: f32, %arg3: f32):
    %868 = arith.divf %arg1, %arg2 : f32
    linalg.yield %868 : f32
  } -> tensor<1x7x7x512xf32>
  %709 = linalg.init_tensor [1, 7, 7, 512] : tensor<1x7x7x512xf32>
  %710 = linalg.generic {indexing_maps = [#map0, #map0, #map0], iterator_types = ["parallel", "parallel", "parallel", "parallel"]} ins(%708, %cst_222 : tensor<1x7x7x512xf32>, tensor<1x7x7x512xf32>) outs(%709 : tensor<1x7x7x512xf32>) {
  ^bb0(%arg1: f32, %arg2: f32, %arg3: f32):
    %868 = arith.addf %arg1, %arg2 : f32
    linalg.yield %868 : f32
  } -> tensor<1x7x7x512xf32>
  %711 = linalg.init_tensor [1, 7, 7, 512] : tensor<1x7x7x512xf32>
  %712 = linalg.generic {indexing_maps = [#map0, #map0, #map0], iterator_types = ["parallel", "parallel", "parallel", "parallel"]} ins(%710, %cst_272 : tensor<1x7x7x512xf32>, tensor<1x7x7x512xf32>) outs(%711 : tensor<1x7x7x512xf32>) {
  ^bb0(%arg1: f32, %arg2: f32, %arg3: f32):
    %868 = arith.maxf %arg1, %arg2 : f32
    linalg.yield %868 : f32
  } -> tensor<1x7x7x512xf32>
  %713 = linalg.init_tensor [1, 7, 7, 512] : tensor<1x7x7x512xf32>
  %cst_404 = arith.constant 0.000000e+00 : f32
  %714 = linalg.fill ins(%cst_404 : f32) outs(%713 : tensor<1x7x7x512xf32>) -> tensor<1x7x7x512xf32>
  %cst_405 = arith.constant dense<0.000000e+00> : tensor<f32>
  %cst_406 = arith.constant 0.000000e+00 : f32
  %715 = tensor.pad %712 low[0, 1, 1, 0] high[0, 1, 1, 0] {
  ^bb0(%arg1: index, %arg2: index, %arg3: index, %arg4: index):
    tensor.yield %cst_406 : f32
  } : tensor<1x7x7x512xf32> to tensor<1x9x9x512xf32>
  %716 = linalg.conv_2d_nhwc_hwcf {dilations = dense<1> : tensor<2xi64>, strides = dense<1> : tensor<2xi64>} ins(%715, %cst_322 : tensor<1x9x9x512xf32>, tensor<3x3x512x512xf32>) outs(%714 : tensor<1x7x7x512xf32>) -> tensor<1x7x7x512xf32>
  %717 = linalg.init_tensor [1, 7, 7, 512] : tensor<1x7x7x512xf32>
  %718 = linalg.generic {indexing_maps = [#map0, #map0, #map0], iterator_types = ["parallel", "parallel", "parallel", "parallel"]} ins(%716, %cst_224 : tensor<1x7x7x512xf32>, tensor<1x7x7x512xf32>) outs(%717 : tensor<1x7x7x512xf32>) {
  ^bb0(%arg1: f32, %arg2: f32, %arg3: f32):
    %868 = arith.addf %arg1, %arg2 : f32
    linalg.yield %868 : f32
  } -> tensor<1x7x7x512xf32>
  %719 = linalg.init_tensor [1, 7, 7, 512] : tensor<1x7x7x512xf32>
  %720 = linalg.generic {indexing_maps = [#map0, #map0, #map0], iterator_types = ["parallel", "parallel", "parallel", "parallel"]} ins(%718, %cst_228 : tensor<1x7x7x512xf32>, tensor<1x7x7x512xf32>) outs(%719 : tensor<1x7x7x512xf32>) {
  ^bb0(%arg1: f32, %arg2: f32, %arg3: f32):
    %868 = arith.subf %arg1, %arg2 : f32
    linalg.yield %868 : f32
  } -> tensor<1x7x7x512xf32>
  %721 = linalg.init_tensor [1, 7, 7, 512] : tensor<1x7x7x512xf32>
  %722 = linalg.generic {indexing_maps = [#map0, #map0, #map0], iterator_types = ["parallel", "parallel", "parallel", "parallel"]} ins(%720, %cst_226 : tensor<1x7x7x512xf32>, tensor<1x7x7x512xf32>) outs(%721 : tensor<1x7x7x512xf32>) {
  ^bb0(%arg1: f32, %arg2: f32, %arg3: f32):
    %868 = arith.mulf %arg1, %arg2 : f32
    linalg.yield %868 : f32
  } -> tensor<1x7x7x512xf32>
  %723 = linalg.init_tensor [1, 7, 7, 512] : tensor<1x7x7x512xf32>
  %724 = linalg.generic {indexing_maps = [#map0, #map0, #map0], iterator_types = ["parallel", "parallel", "parallel", "parallel"]} ins(%722, %cst_225 : tensor<1x7x7x512xf32>, tensor<1x7x7x512xf32>) outs(%723 : tensor<1x7x7x512xf32>) {
  ^bb0(%arg1: f32, %arg2: f32, %arg3: f32):
    %868 = arith.divf %arg1, %arg2 : f32
    linalg.yield %868 : f32
  } -> tensor<1x7x7x512xf32>
  %725 = linalg.init_tensor [1, 7, 7, 512] : tensor<1x7x7x512xf32>
  %726 = linalg.generic {indexing_maps = [#map0, #map0, #map0], iterator_types = ["parallel", "parallel", "parallel", "parallel"]} ins(%724, %cst_227 : tensor<1x7x7x512xf32>, tensor<1x7x7x512xf32>) outs(%725 : tensor<1x7x7x512xf32>) {
  ^bb0(%arg1: f32, %arg2: f32, %arg3: f32):
    %868 = arith.addf %arg1, %arg2 : f32
    linalg.yield %868 : f32
  } -> tensor<1x7x7x512xf32>
  %727 = linalg.init_tensor [1, 7, 7, 512] : tensor<1x7x7x512xf32>
  %728 = linalg.generic {indexing_maps = [#map0, #map0, #map0], iterator_types = ["parallel", "parallel", "parallel", "parallel"]} ins(%726, %cst_272 : tensor<1x7x7x512xf32>, tensor<1x7x7x512xf32>) outs(%727 : tensor<1x7x7x512xf32>) {
  ^bb0(%arg1: f32, %arg2: f32, %arg3: f32):
    %868 = arith.maxf %arg1, %arg2 : f32
    linalg.yield %868 : f32
  } -> tensor<1x7x7x512xf32>
  %729 = linalg.init_tensor [1, 7, 7, 2048] : tensor<1x7x7x2048xf32>
  %cst_407 = arith.constant 0.000000e+00 : f32
  %730 = linalg.fill ins(%cst_407 : f32) outs(%729 : tensor<1x7x7x2048xf32>) -> tensor<1x7x7x2048xf32>
  %731 = linalg.conv_2d_nhwc_hwcf {dilations = dense<1> : tensor<2xi64>, strides = dense<1> : tensor<2xi64>} ins(%728, %cst_323 : tensor<1x7x7x512xf32>, tensor<1x1x512x2048xf32>) outs(%730 : tensor<1x7x7x2048xf32>) -> tensor<1x7x7x2048xf32>
  %732 = linalg.init_tensor [1, 7, 7, 2048] : tensor<1x7x7x2048xf32>
  %733 = linalg.generic {indexing_maps = [#map0, #map0, #map0], iterator_types = ["parallel", "parallel", "parallel", "parallel"]} ins(%731, %cst_229 : tensor<1x7x7x2048xf32>, tensor<1x7x7x2048xf32>) outs(%732 : tensor<1x7x7x2048xf32>) {
  ^bb0(%arg1: f32, %arg2: f32, %arg3: f32):
    %868 = arith.addf %arg1, %arg2 : f32
    linalg.yield %868 : f32
  } -> tensor<1x7x7x2048xf32>
  %734 = linalg.init_tensor [1, 7, 7, 2048] : tensor<1x7x7x2048xf32>
  %735 = linalg.generic {indexing_maps = [#map0, #map0, #map0], iterator_types = ["parallel", "parallel", "parallel", "parallel"]} ins(%733, %cst_233 : tensor<1x7x7x2048xf32>, tensor<1x7x7x2048xf32>) outs(%734 : tensor<1x7x7x2048xf32>) {
  ^bb0(%arg1: f32, %arg2: f32, %arg3: f32):
    %868 = arith.subf %arg1, %arg2 : f32
    linalg.yield %868 : f32
  } -> tensor<1x7x7x2048xf32>
  %736 = linalg.init_tensor [1, 7, 7, 2048] : tensor<1x7x7x2048xf32>
  %737 = linalg.generic {indexing_maps = [#map0, #map0, #map0], iterator_types = ["parallel", "parallel", "parallel", "parallel"]} ins(%735, %cst_231 : tensor<1x7x7x2048xf32>, tensor<1x7x7x2048xf32>) outs(%736 : tensor<1x7x7x2048xf32>) {
  ^bb0(%arg1: f32, %arg2: f32, %arg3: f32):
    %868 = arith.mulf %arg1, %arg2 : f32
    linalg.yield %868 : f32
  } -> tensor<1x7x7x2048xf32>
  %738 = linalg.init_tensor [1, 7, 7, 2048] : tensor<1x7x7x2048xf32>
  %739 = linalg.generic {indexing_maps = [#map0, #map0, #map0], iterator_types = ["parallel", "parallel", "parallel", "parallel"]} ins(%737, %cst_230 : tensor<1x7x7x2048xf32>, tensor<1x7x7x2048xf32>) outs(%738 : tensor<1x7x7x2048xf32>) {
  ^bb0(%arg1: f32, %arg2: f32, %arg3: f32):
    %868 = arith.divf %arg1, %arg2 : f32
    linalg.yield %868 : f32
  } -> tensor<1x7x7x2048xf32>
  %740 = linalg.init_tensor [1, 7, 7, 2048] : tensor<1x7x7x2048xf32>
  %741 = linalg.generic {indexing_maps = [#map0, #map0, #map0], iterator_types = ["parallel", "parallel", "parallel", "parallel"]} ins(%739, %cst_232 : tensor<1x7x7x2048xf32>, tensor<1x7x7x2048xf32>) outs(%740 : tensor<1x7x7x2048xf32>) {
  ^bb0(%arg1: f32, %arg2: f32, %arg3: f32):
    %868 = arith.addf %arg1, %arg2 : f32
    linalg.yield %868 : f32
  } -> tensor<1x7x7x2048xf32>
  %742 = linalg.init_tensor [1, 7, 7, 2048] : tensor<1x7x7x2048xf32>
  %743 = linalg.generic {indexing_maps = [#map0, #map0, #map0], iterator_types = ["parallel", "parallel", "parallel", "parallel"]} ins(%697, %741 : tensor<1x7x7x2048xf32>, tensor<1x7x7x2048xf32>) outs(%742 : tensor<1x7x7x2048xf32>) {
  ^bb0(%arg1: f32, %arg2: f32, %arg3: f32):
    %868 = arith.addf %arg1, %arg2 : f32
    linalg.yield %868 : f32
  } -> tensor<1x7x7x2048xf32>
  %744 = linalg.init_tensor [1, 7, 7, 2048] : tensor<1x7x7x2048xf32>
  %745 = linalg.generic {indexing_maps = [#map0, #map0, #map0], iterator_types = ["parallel", "parallel", "parallel", "parallel"]} ins(%743, %cst_273 : tensor<1x7x7x2048xf32>, tensor<1x7x7x2048xf32>) outs(%744 : tensor<1x7x7x2048xf32>) {
  ^bb0(%arg1: f32, %arg2: f32, %arg3: f32):
    %868 = arith.maxf %arg1, %arg2 : f32
    linalg.yield %868 : f32
  } -> tensor<1x7x7x2048xf32>
  %746 = linalg.init_tensor [1, 7, 7, 512] : tensor<1x7x7x512xf32>
  %cst_408 = arith.constant 0.000000e+00 : f32
  %747 = linalg.fill ins(%cst_408 : f32) outs(%746 : tensor<1x7x7x512xf32>) -> tensor<1x7x7x512xf32>
  %748 = linalg.conv_2d_nhwc_hwcf {dilations = dense<1> : tensor<2xi64>, strides = dense<1> : tensor<2xi64>} ins(%745, %cst_324 : tensor<1x7x7x2048xf32>, tensor<1x1x2048x512xf32>) outs(%747 : tensor<1x7x7x512xf32>) -> tensor<1x7x7x512xf32>
  %749 = linalg.init_tensor [1, 7, 7, 512] : tensor<1x7x7x512xf32>
  %750 = linalg.generic {indexing_maps = [#map0, #map0, #map0], iterator_types = ["parallel", "parallel", "parallel", "parallel"]} ins(%748, %cst_234 : tensor<1x7x7x512xf32>, tensor<1x7x7x512xf32>) outs(%749 : tensor<1x7x7x512xf32>) {
  ^bb0(%arg1: f32, %arg2: f32, %arg3: f32):
    %868 = arith.addf %arg1, %arg2 : f32
    linalg.yield %868 : f32
  } -> tensor<1x7x7x512xf32>
  %751 = linalg.init_tensor [1, 7, 7, 512] : tensor<1x7x7x512xf32>
  %752 = linalg.generic {indexing_maps = [#map0, #map0, #map0], iterator_types = ["parallel", "parallel", "parallel", "parallel"]} ins(%750, %cst_238 : tensor<1x7x7x512xf32>, tensor<1x7x7x512xf32>) outs(%751 : tensor<1x7x7x512xf32>) {
  ^bb0(%arg1: f32, %arg2: f32, %arg3: f32):
    %868 = arith.subf %arg1, %arg2 : f32
    linalg.yield %868 : f32
  } -> tensor<1x7x7x512xf32>
  %753 = linalg.init_tensor [1, 7, 7, 512] : tensor<1x7x7x512xf32>
  %754 = linalg.generic {indexing_maps = [#map0, #map0, #map0], iterator_types = ["parallel", "parallel", "parallel", "parallel"]} ins(%752, %cst_236 : tensor<1x7x7x512xf32>, tensor<1x7x7x512xf32>) outs(%753 : tensor<1x7x7x512xf32>) {
  ^bb0(%arg1: f32, %arg2: f32, %arg3: f32):
    %868 = arith.mulf %arg1, %arg2 : f32
    linalg.yield %868 : f32
  } -> tensor<1x7x7x512xf32>
  %755 = linalg.init_tensor [1, 7, 7, 512] : tensor<1x7x7x512xf32>
  %756 = linalg.generic {indexing_maps = [#map0, #map0, #map0], iterator_types = ["parallel", "parallel", "parallel", "parallel"]} ins(%754, %cst_235 : tensor<1x7x7x512xf32>, tensor<1x7x7x512xf32>) outs(%755 : tensor<1x7x7x512xf32>) {
  ^bb0(%arg1: f32, %arg2: f32, %arg3: f32):
    %868 = arith.divf %arg1, %arg2 : f32
    linalg.yield %868 : f32
  } -> tensor<1x7x7x512xf32>
  %757 = linalg.init_tensor [1, 7, 7, 512] : tensor<1x7x7x512xf32>
  %758 = linalg.generic {indexing_maps = [#map0, #map0, #map0], iterator_types = ["parallel", "parallel", "parallel", "parallel"]} ins(%756, %cst_237 : tensor<1x7x7x512xf32>, tensor<1x7x7x512xf32>) outs(%757 : tensor<1x7x7x512xf32>) {
  ^bb0(%arg1: f32, %arg2: f32, %arg3: f32):
    %868 = arith.addf %arg1, %arg2 : f32
    linalg.yield %868 : f32
  } -> tensor<1x7x7x512xf32>
  %759 = linalg.init_tensor [1, 7, 7, 512] : tensor<1x7x7x512xf32>
  %760 = linalg.generic {indexing_maps = [#map0, #map0, #map0], iterator_types = ["parallel", "parallel", "parallel", "parallel"]} ins(%758, %cst_272 : tensor<1x7x7x512xf32>, tensor<1x7x7x512xf32>) outs(%759 : tensor<1x7x7x512xf32>) {
  ^bb0(%arg1: f32, %arg2: f32, %arg3: f32):
    %868 = arith.maxf %arg1, %arg2 : f32
    linalg.yield %868 : f32
  } -> tensor<1x7x7x512xf32>
  %761 = linalg.init_tensor [1, 7, 7, 512] : tensor<1x7x7x512xf32>
  %cst_409 = arith.constant 0.000000e+00 : f32
  %762 = linalg.fill ins(%cst_409 : f32) outs(%761 : tensor<1x7x7x512xf32>) -> tensor<1x7x7x512xf32>
  %cst_410 = arith.constant dense<0.000000e+00> : tensor<f32>
  %cst_411 = arith.constant 0.000000e+00 : f32
  %763 = tensor.pad %760 low[0, 1, 1, 0] high[0, 1, 1, 0] {
  ^bb0(%arg1: index, %arg2: index, %arg3: index, %arg4: index):
    tensor.yield %cst_411 : f32
  } : tensor<1x7x7x512xf32> to tensor<1x9x9x512xf32>
  %764 = linalg.conv_2d_nhwc_hwcf {dilations = dense<1> : tensor<2xi64>, strides = dense<1> : tensor<2xi64>} ins(%763, %cst_325 : tensor<1x9x9x512xf32>, tensor<3x3x512x512xf32>) outs(%762 : tensor<1x7x7x512xf32>) -> tensor<1x7x7x512xf32>
  %765 = linalg.init_tensor [1, 7, 7, 512] : tensor<1x7x7x512xf32>
  %766 = linalg.generic {indexing_maps = [#map0, #map0, #map0], iterator_types = ["parallel", "parallel", "parallel", "parallel"]} ins(%764, %cst_239 : tensor<1x7x7x512xf32>, tensor<1x7x7x512xf32>) outs(%765 : tensor<1x7x7x512xf32>) {
  ^bb0(%arg1: f32, %arg2: f32, %arg3: f32):
    %868 = arith.addf %arg1, %arg2 : f32
    linalg.yield %868 : f32
  } -> tensor<1x7x7x512xf32>
  %767 = linalg.init_tensor [1, 7, 7, 512] : tensor<1x7x7x512xf32>
  %768 = linalg.generic {indexing_maps = [#map0, #map0, #map0], iterator_types = ["parallel", "parallel", "parallel", "parallel"]} ins(%766, %cst_243 : tensor<1x7x7x512xf32>, tensor<1x7x7x512xf32>) outs(%767 : tensor<1x7x7x512xf32>) {
  ^bb0(%arg1: f32, %arg2: f32, %arg3: f32):
    %868 = arith.subf %arg1, %arg2 : f32
    linalg.yield %868 : f32
  } -> tensor<1x7x7x512xf32>
  %769 = linalg.init_tensor [1, 7, 7, 512] : tensor<1x7x7x512xf32>
  %770 = linalg.generic {indexing_maps = [#map0, #map0, #map0], iterator_types = ["parallel", "parallel", "parallel", "parallel"]} ins(%768, %cst_241 : tensor<1x7x7x512xf32>, tensor<1x7x7x512xf32>) outs(%769 : tensor<1x7x7x512xf32>) {
  ^bb0(%arg1: f32, %arg2: f32, %arg3: f32):
    %868 = arith.mulf %arg1, %arg2 : f32
    linalg.yield %868 : f32
  } -> tensor<1x7x7x512xf32>
  %771 = linalg.init_tensor [1, 7, 7, 512] : tensor<1x7x7x512xf32>
  %772 = linalg.generic {indexing_maps = [#map0, #map0, #map0], iterator_types = ["parallel", "parallel", "parallel", "parallel"]} ins(%770, %cst_240 : tensor<1x7x7x512xf32>, tensor<1x7x7x512xf32>) outs(%771 : tensor<1x7x7x512xf32>) {
  ^bb0(%arg1: f32, %arg2: f32, %arg3: f32):
    %868 = arith.divf %arg1, %arg2 : f32
    linalg.yield %868 : f32
  } -> tensor<1x7x7x512xf32>
  %773 = linalg.init_tensor [1, 7, 7, 512] : tensor<1x7x7x512xf32>
  %774 = linalg.generic {indexing_maps = [#map0, #map0, #map0], iterator_types = ["parallel", "parallel", "parallel", "parallel"]} ins(%772, %cst_242 : tensor<1x7x7x512xf32>, tensor<1x7x7x512xf32>) outs(%773 : tensor<1x7x7x512xf32>) {
  ^bb0(%arg1: f32, %arg2: f32, %arg3: f32):
    %868 = arith.addf %arg1, %arg2 : f32
    linalg.yield %868 : f32
  } -> tensor<1x7x7x512xf32>
  %775 = linalg.init_tensor [1, 7, 7, 512] : tensor<1x7x7x512xf32>
  %776 = linalg.generic {indexing_maps = [#map0, #map0, #map0], iterator_types = ["parallel", "parallel", "parallel", "parallel"]} ins(%774, %cst_272 : tensor<1x7x7x512xf32>, tensor<1x7x7x512xf32>) outs(%775 : tensor<1x7x7x512xf32>) {
  ^bb0(%arg1: f32, %arg2: f32, %arg3: f32):
    %868 = arith.maxf %arg1, %arg2 : f32
    linalg.yield %868 : f32
  } -> tensor<1x7x7x512xf32>
  %777 = linalg.init_tensor [1, 7, 7, 2048] : tensor<1x7x7x2048xf32>
  %cst_412 = arith.constant 0.000000e+00 : f32
  %778 = linalg.fill ins(%cst_412 : f32) outs(%777 : tensor<1x7x7x2048xf32>) -> tensor<1x7x7x2048xf32>
  %779 = linalg.conv_2d_nhwc_hwcf {dilations = dense<1> : tensor<2xi64>, strides = dense<1> : tensor<2xi64>} ins(%776, %cst_326 : tensor<1x7x7x512xf32>, tensor<1x1x512x2048xf32>) outs(%778 : tensor<1x7x7x2048xf32>) -> tensor<1x7x7x2048xf32>
  %780 = linalg.init_tensor [1, 7, 7, 2048] : tensor<1x7x7x2048xf32>
  %781 = linalg.generic {indexing_maps = [#map0, #map0, #map0], iterator_types = ["parallel", "parallel", "parallel", "parallel"]} ins(%779, %cst_244 : tensor<1x7x7x2048xf32>, tensor<1x7x7x2048xf32>) outs(%780 : tensor<1x7x7x2048xf32>) {
  ^bb0(%arg1: f32, %arg2: f32, %arg3: f32):
    %868 = arith.addf %arg1, %arg2 : f32
    linalg.yield %868 : f32
  } -> tensor<1x7x7x2048xf32>
  %782 = linalg.init_tensor [1, 7, 7, 2048] : tensor<1x7x7x2048xf32>
  %783 = linalg.generic {indexing_maps = [#map0, #map0, #map0], iterator_types = ["parallel", "parallel", "parallel", "parallel"]} ins(%781, %cst_248 : tensor<1x7x7x2048xf32>, tensor<1x7x7x2048xf32>) outs(%782 : tensor<1x7x7x2048xf32>) {
  ^bb0(%arg1: f32, %arg2: f32, %arg3: f32):
    %868 = arith.subf %arg1, %arg2 : f32
    linalg.yield %868 : f32
  } -> tensor<1x7x7x2048xf32>
  %784 = linalg.init_tensor [1, 7, 7, 2048] : tensor<1x7x7x2048xf32>
  %785 = linalg.generic {indexing_maps = [#map0, #map0, #map0], iterator_types = ["parallel", "parallel", "parallel", "parallel"]} ins(%783, %cst_246 : tensor<1x7x7x2048xf32>, tensor<1x7x7x2048xf32>) outs(%784 : tensor<1x7x7x2048xf32>) {
  ^bb0(%arg1: f32, %arg2: f32, %arg3: f32):
    %868 = arith.mulf %arg1, %arg2 : f32
    linalg.yield %868 : f32
  } -> tensor<1x7x7x2048xf32>
  %786 = linalg.init_tensor [1, 7, 7, 2048] : tensor<1x7x7x2048xf32>
  %787 = linalg.generic {indexing_maps = [#map0, #map0, #map0], iterator_types = ["parallel", "parallel", "parallel", "parallel"]} ins(%785, %cst_245 : tensor<1x7x7x2048xf32>, tensor<1x7x7x2048xf32>) outs(%786 : tensor<1x7x7x2048xf32>) {
  ^bb0(%arg1: f32, %arg2: f32, %arg3: f32):
    %868 = arith.divf %arg1, %arg2 : f32
    linalg.yield %868 : f32
  } -> tensor<1x7x7x2048xf32>
  %788 = linalg.init_tensor [1, 7, 7, 2048] : tensor<1x7x7x2048xf32>
  %789 = linalg.generic {indexing_maps = [#map0, #map0, #map0], iterator_types = ["parallel", "parallel", "parallel", "parallel"]} ins(%787, %cst_247 : tensor<1x7x7x2048xf32>, tensor<1x7x7x2048xf32>) outs(%788 : tensor<1x7x7x2048xf32>) {
  ^bb0(%arg1: f32, %arg2: f32, %arg3: f32):
    %868 = arith.addf %arg1, %arg2 : f32
    linalg.yield %868 : f32
  } -> tensor<1x7x7x2048xf32>
  %790 = linalg.init_tensor [1, 7, 7, 2048] : tensor<1x7x7x2048xf32>
  %791 = linalg.generic {indexing_maps = [#map0, #map0, #map0], iterator_types = ["parallel", "parallel", "parallel", "parallel"]} ins(%745, %789 : tensor<1x7x7x2048xf32>, tensor<1x7x7x2048xf32>) outs(%790 : tensor<1x7x7x2048xf32>) {
  ^bb0(%arg1: f32, %arg2: f32, %arg3: f32):
    %868 = arith.addf %arg1, %arg2 : f32
    linalg.yield %868 : f32
  } -> tensor<1x7x7x2048xf32>
  %792 = linalg.init_tensor [1, 7, 7, 2048] : tensor<1x7x7x2048xf32>
  %793 = linalg.generic {indexing_maps = [#map0, #map0, #map0], iterator_types = ["parallel", "parallel", "parallel", "parallel"]} ins(%791, %cst_273 : tensor<1x7x7x2048xf32>, tensor<1x7x7x2048xf32>) outs(%792 : tensor<1x7x7x2048xf32>) {
  ^bb0(%arg1: f32, %arg2: f32, %arg3: f32):
    %868 = arith.maxf %arg1, %arg2 : f32
    linalg.yield %868 : f32
  } -> tensor<1x7x7x2048xf32>
  %794 = linalg.init_tensor [1, 7, 7, 512] : tensor<1x7x7x512xf32>
  %cst_413 = arith.constant 0.000000e+00 : f32
  %795 = linalg.fill ins(%cst_413 : f32) outs(%794 : tensor<1x7x7x512xf32>) -> tensor<1x7x7x512xf32>
  %796 = linalg.conv_2d_nhwc_hwcf {dilations = dense<1> : tensor<2xi64>, strides = dense<1> : tensor<2xi64>} ins(%793, %cst_327 : tensor<1x7x7x2048xf32>, tensor<1x1x2048x512xf32>) outs(%795 : tensor<1x7x7x512xf32>) -> tensor<1x7x7x512xf32>
  %797 = linalg.init_tensor [1, 7, 7, 512] : tensor<1x7x7x512xf32>
  %798 = linalg.generic {indexing_maps = [#map0, #map0, #map0], iterator_types = ["parallel", "parallel", "parallel", "parallel"]} ins(%796, %cst_249 : tensor<1x7x7x512xf32>, tensor<1x7x7x512xf32>) outs(%797 : tensor<1x7x7x512xf32>) {
  ^bb0(%arg1: f32, %arg2: f32, %arg3: f32):
    %868 = arith.addf %arg1, %arg2 : f32
    linalg.yield %868 : f32
  } -> tensor<1x7x7x512xf32>
  %799 = linalg.init_tensor [1, 7, 7, 512] : tensor<1x7x7x512xf32>
  %800 = linalg.generic {indexing_maps = [#map0, #map0, #map0], iterator_types = ["parallel", "parallel", "parallel", "parallel"]} ins(%798, %cst_253 : tensor<1x7x7x512xf32>, tensor<1x7x7x512xf32>) outs(%799 : tensor<1x7x7x512xf32>) {
  ^bb0(%arg1: f32, %arg2: f32, %arg3: f32):
    %868 = arith.subf %arg1, %arg2 : f32
    linalg.yield %868 : f32
  } -> tensor<1x7x7x512xf32>
  %801 = linalg.init_tensor [1, 7, 7, 512] : tensor<1x7x7x512xf32>
  %802 = linalg.generic {indexing_maps = [#map0, #map0, #map0], iterator_types = ["parallel", "parallel", "parallel", "parallel"]} ins(%800, %cst_251 : tensor<1x7x7x512xf32>, tensor<1x7x7x512xf32>) outs(%801 : tensor<1x7x7x512xf32>) {
  ^bb0(%arg1: f32, %arg2: f32, %arg3: f32):
    %868 = arith.mulf %arg1, %arg2 : f32
    linalg.yield %868 : f32
  } -> tensor<1x7x7x512xf32>
  %803 = linalg.init_tensor [1, 7, 7, 512] : tensor<1x7x7x512xf32>
  %804 = linalg.generic {indexing_maps = [#map0, #map0, #map0], iterator_types = ["parallel", "parallel", "parallel", "parallel"]} ins(%802, %cst_250 : tensor<1x7x7x512xf32>, tensor<1x7x7x512xf32>) outs(%803 : tensor<1x7x7x512xf32>) {
  ^bb0(%arg1: f32, %arg2: f32, %arg3: f32):
    %868 = arith.divf %arg1, %arg2 : f32
    linalg.yield %868 : f32
  } -> tensor<1x7x7x512xf32>
  %805 = linalg.init_tensor [1, 7, 7, 512] : tensor<1x7x7x512xf32>
  %806 = linalg.generic {indexing_maps = [#map0, #map0, #map0], iterator_types = ["parallel", "parallel", "parallel", "parallel"]} ins(%804, %cst_252 : tensor<1x7x7x512xf32>, tensor<1x7x7x512xf32>) outs(%805 : tensor<1x7x7x512xf32>) {
  ^bb0(%arg1: f32, %arg2: f32, %arg3: f32):
    %868 = arith.addf %arg1, %arg2 : f32
    linalg.yield %868 : f32
  } -> tensor<1x7x7x512xf32>
  %807 = linalg.init_tensor [1, 7, 7, 512] : tensor<1x7x7x512xf32>
  %808 = linalg.generic {indexing_maps = [#map0, #map0, #map0], iterator_types = ["parallel", "parallel", "parallel", "parallel"]} ins(%806, %cst_272 : tensor<1x7x7x512xf32>, tensor<1x7x7x512xf32>) outs(%807 : tensor<1x7x7x512xf32>) {
  ^bb0(%arg1: f32, %arg2: f32, %arg3: f32):
    %868 = arith.maxf %arg1, %arg2 : f32
    linalg.yield %868 : f32
  } -> tensor<1x7x7x512xf32>
  %809 = linalg.init_tensor [1, 7, 7, 512] : tensor<1x7x7x512xf32>
  %cst_414 = arith.constant 0.000000e+00 : f32
  %810 = linalg.fill ins(%cst_414 : f32) outs(%809 : tensor<1x7x7x512xf32>) -> tensor<1x7x7x512xf32>
  %cst_415 = arith.constant dense<0.000000e+00> : tensor<f32>
  %cst_416 = arith.constant 0.000000e+00 : f32
  %811 = tensor.pad %808 low[0, 1, 1, 0] high[0, 1, 1, 0] {
  ^bb0(%arg1: index, %arg2: index, %arg3: index, %arg4: index):
    tensor.yield %cst_416 : f32
  } : tensor<1x7x7x512xf32> to tensor<1x9x9x512xf32>
  %812 = linalg.conv_2d_nhwc_hwcf {dilations = dense<1> : tensor<2xi64>, strides = dense<1> : tensor<2xi64>} ins(%811, %cst_328 : tensor<1x9x9x512xf32>, tensor<3x3x512x512xf32>) outs(%810 : tensor<1x7x7x512xf32>) -> tensor<1x7x7x512xf32>
  %813 = linalg.init_tensor [1, 7, 7, 512] : tensor<1x7x7x512xf32>
  %814 = linalg.generic {indexing_maps = [#map0, #map0, #map0], iterator_types = ["parallel", "parallel", "parallel", "parallel"]} ins(%812, %cst_254 : tensor<1x7x7x512xf32>, tensor<1x7x7x512xf32>) outs(%813 : tensor<1x7x7x512xf32>) {
  ^bb0(%arg1: f32, %arg2: f32, %arg3: f32):
    %868 = arith.addf %arg1, %arg2 : f32
    linalg.yield %868 : f32
  } -> tensor<1x7x7x512xf32>
  %815 = linalg.init_tensor [1, 7, 7, 512] : tensor<1x7x7x512xf32>
  %816 = linalg.generic {indexing_maps = [#map0, #map0, #map0], iterator_types = ["parallel", "parallel", "parallel", "parallel"]} ins(%814, %cst_258 : tensor<1x7x7x512xf32>, tensor<1x7x7x512xf32>) outs(%815 : tensor<1x7x7x512xf32>) {
  ^bb0(%arg1: f32, %arg2: f32, %arg3: f32):
    %868 = arith.subf %arg1, %arg2 : f32
    linalg.yield %868 : f32
  } -> tensor<1x7x7x512xf32>
  %817 = linalg.init_tensor [1, 7, 7, 512] : tensor<1x7x7x512xf32>
  %818 = linalg.generic {indexing_maps = [#map0, #map0, #map0], iterator_types = ["parallel", "parallel", "parallel", "parallel"]} ins(%816, %cst_256 : tensor<1x7x7x512xf32>, tensor<1x7x7x512xf32>) outs(%817 : tensor<1x7x7x512xf32>) {
  ^bb0(%arg1: f32, %arg2: f32, %arg3: f32):
    %868 = arith.mulf %arg1, %arg2 : f32
    linalg.yield %868 : f32
  } -> tensor<1x7x7x512xf32>
  %819 = linalg.init_tensor [1, 7, 7, 512] : tensor<1x7x7x512xf32>
  %820 = linalg.generic {indexing_maps = [#map0, #map0, #map0], iterator_types = ["parallel", "parallel", "parallel", "parallel"]} ins(%818, %cst_255 : tensor<1x7x7x512xf32>, tensor<1x7x7x512xf32>) outs(%819 : tensor<1x7x7x512xf32>) {
  ^bb0(%arg1: f32, %arg2: f32, %arg3: f32):
    %868 = arith.divf %arg1, %arg2 : f32
    linalg.yield %868 : f32
  } -> tensor<1x7x7x512xf32>
  %821 = linalg.init_tensor [1, 7, 7, 512] : tensor<1x7x7x512xf32>
  %822 = linalg.generic {indexing_maps = [#map0, #map0, #map0], iterator_types = ["parallel", "parallel", "parallel", "parallel"]} ins(%820, %cst_257 : tensor<1x7x7x512xf32>, tensor<1x7x7x512xf32>) outs(%821 : tensor<1x7x7x512xf32>) {
  ^bb0(%arg1: f32, %arg2: f32, %arg3: f32):
    %868 = arith.addf %arg1, %arg2 : f32
    linalg.yield %868 : f32
  } -> tensor<1x7x7x512xf32>
  %823 = linalg.init_tensor [1, 7, 7, 512] : tensor<1x7x7x512xf32>
  %824 = linalg.generic {indexing_maps = [#map0, #map0, #map0], iterator_types = ["parallel", "parallel", "parallel", "parallel"]} ins(%822, %cst_272 : tensor<1x7x7x512xf32>, tensor<1x7x7x512xf32>) outs(%823 : tensor<1x7x7x512xf32>) {
  ^bb0(%arg1: f32, %arg2: f32, %arg3: f32):
    %868 = arith.maxf %arg1, %arg2 : f32
    linalg.yield %868 : f32
  } -> tensor<1x7x7x512xf32>
  %825 = linalg.init_tensor [1, 7, 7, 2048] : tensor<1x7x7x2048xf32>
  %cst_417 = arith.constant 0.000000e+00 : f32
  %826 = linalg.fill ins(%cst_417 : f32) outs(%825 : tensor<1x7x7x2048xf32>) -> tensor<1x7x7x2048xf32>
  %827 = linalg.conv_2d_nhwc_hwcf {dilations = dense<1> : tensor<2xi64>, strides = dense<1> : tensor<2xi64>} ins(%824, %cst_329 : tensor<1x7x7x512xf32>, tensor<1x1x512x2048xf32>) outs(%826 : tensor<1x7x7x2048xf32>) -> tensor<1x7x7x2048xf32>
  %828 = linalg.init_tensor [1, 7, 7, 2048] : tensor<1x7x7x2048xf32>
  %829 = linalg.generic {indexing_maps = [#map0, #map0, #map0], iterator_types = ["parallel", "parallel", "parallel", "parallel"]} ins(%827, %cst_259 : tensor<1x7x7x2048xf32>, tensor<1x7x7x2048xf32>) outs(%828 : tensor<1x7x7x2048xf32>) {
  ^bb0(%arg1: f32, %arg2: f32, %arg3: f32):
    %868 = arith.addf %arg1, %arg2 : f32
    linalg.yield %868 : f32
  } -> tensor<1x7x7x2048xf32>
  %830 = linalg.init_tensor [1, 7, 7, 2048] : tensor<1x7x7x2048xf32>
  %831 = linalg.generic {indexing_maps = [#map0, #map0, #map0], iterator_types = ["parallel", "parallel", "parallel", "parallel"]} ins(%829, %cst_263 : tensor<1x7x7x2048xf32>, tensor<1x7x7x2048xf32>) outs(%830 : tensor<1x7x7x2048xf32>) {
  ^bb0(%arg1: f32, %arg2: f32, %arg3: f32):
    %868 = arith.subf %arg1, %arg2 : f32
    linalg.yield %868 : f32
  } -> tensor<1x7x7x2048xf32>
  %832 = linalg.init_tensor [1, 7, 7, 2048] : tensor<1x7x7x2048xf32>
  %833 = linalg.generic {indexing_maps = [#map0, #map0, #map0], iterator_types = ["parallel", "parallel", "parallel", "parallel"]} ins(%831, %cst_261 : tensor<1x7x7x2048xf32>, tensor<1x7x7x2048xf32>) outs(%832 : tensor<1x7x7x2048xf32>) {
  ^bb0(%arg1: f32, %arg2: f32, %arg3: f32):
    %868 = arith.mulf %arg1, %arg2 : f32
    linalg.yield %868 : f32
  } -> tensor<1x7x7x2048xf32>
  %834 = linalg.init_tensor [1, 7, 7, 2048] : tensor<1x7x7x2048xf32>
  %835 = linalg.generic {indexing_maps = [#map0, #map0, #map0], iterator_types = ["parallel", "parallel", "parallel", "parallel"]} ins(%833, %cst_260 : tensor<1x7x7x2048xf32>, tensor<1x7x7x2048xf32>) outs(%834 : tensor<1x7x7x2048xf32>) {
  ^bb0(%arg1: f32, %arg2: f32, %arg3: f32):
    %868 = arith.divf %arg1, %arg2 : f32
    linalg.yield %868 : f32
  } -> tensor<1x7x7x2048xf32>
  %836 = linalg.init_tensor [1, 7, 7, 2048] : tensor<1x7x7x2048xf32>
  %837 = linalg.generic {indexing_maps = [#map0, #map0, #map0], iterator_types = ["parallel", "parallel", "parallel", "parallel"]} ins(%835, %cst_262 : tensor<1x7x7x2048xf32>, tensor<1x7x7x2048xf32>) outs(%836 : tensor<1x7x7x2048xf32>) {
  ^bb0(%arg1: f32, %arg2: f32, %arg3: f32):
    %868 = arith.addf %arg1, %arg2 : f32
    linalg.yield %868 : f32
  } -> tensor<1x7x7x2048xf32>
  %838 = linalg.init_tensor [1, 7, 7, 2048] : tensor<1x7x7x2048xf32>
  %839 = linalg.generic {indexing_maps = [#map0, #map0, #map0], iterator_types = ["parallel", "parallel", "parallel", "parallel"]} ins(%793, %837 : tensor<1x7x7x2048xf32>, tensor<1x7x7x2048xf32>) outs(%838 : tensor<1x7x7x2048xf32>) {
  ^bb0(%arg1: f32, %arg2: f32, %arg3: f32):
    %868 = arith.addf %arg1, %arg2 : f32
    linalg.yield %868 : f32
  } -> tensor<1x7x7x2048xf32>
  %840 = linalg.init_tensor [1, 7, 7, 2048] : tensor<1x7x7x2048xf32>
  %841 = linalg.generic {indexing_maps = [#map0, #map0, #map0], iterator_types = ["parallel", "parallel", "parallel", "parallel"]} ins(%839, %cst_273 : tensor<1x7x7x2048xf32>, tensor<1x7x7x2048xf32>) outs(%840 : tensor<1x7x7x2048xf32>) {
  ^bb0(%arg1: f32, %arg2: f32, %arg3: f32):
    %868 = arith.maxf %arg1, %arg2 : f32
    linalg.yield %868 : f32
  } -> tensor<1x7x7x2048xf32>
  %cst_418 = arith.constant 0.000000e+00 : f32
  %842 = linalg.init_tensor [1, 2048] : tensor<1x2048xf32>
  %843 = linalg.fill ins(%cst_418 : f32) outs(%842 : tensor<1x2048xf32>) -> tensor<1x2048xf32>
  %844 = linalg.generic {indexing_maps = [#map1, #map2], iterator_types = ["parallel", "parallel", "reduction", "reduction"]} ins(%841 : tensor<1x7x7x2048xf32>) outs(%843 : tensor<1x2048xf32>) {
  ^bb0(%arg1: f32, %arg2: f32):
    %868 = arith.addf %arg1, %arg2 : f32
    linalg.yield %868 : f32
  } -> tensor<1x2048xf32>
  %845 = linalg.init_tensor [1, 2048] : tensor<1x2048xf32>
  %846 = linalg.generic {indexing_maps = [#map3, #map3, #map3], iterator_types = ["parallel", "parallel"]} ins(%844, %cst_274 : tensor<1x2048xf32>, tensor<1x2048xf32>) outs(%845 : tensor<1x2048xf32>) {
  ^bb0(%arg1: f32, %arg2: f32, %arg3: f32):
    %868 = arith.divf %arg1, %arg2 : f32
    linalg.yield %868 : f32
  } -> tensor<1x2048xf32>
  %847 = linalg.init_tensor [1, 1000] : tensor<1x1000xf32>
  %cst_419 = arith.constant 0.000000e+00 : f32
  %848 = linalg.fill ins(%cst_419 : f32) outs(%847 : tensor<1x1000xf32>) -> tensor<1x1000xf32>
  %849 = linalg.matmul ins(%846, %cst_330 : tensor<1x2048xf32>, tensor<2048x1000xf32>) outs(%848 : tensor<1x1000xf32>) -> tensor<1x1000xf32>
  %850 = linalg.init_tensor [1, 1000] : tensor<1x1000xf32>
  %851 = linalg.generic {indexing_maps = [#map3, #map3, #map3], iterator_types = ["parallel", "parallel"]} ins(%849, %cst_264 : tensor<1x1000xf32>, tensor<1x1000xf32>) outs(%850 : tensor<1x1000xf32>) {
  ^bb0(%arg1: f32, %arg2: f32, %arg3: f32):
    %868 = arith.addf %arg1, %arg2 : f32
    linalg.yield %868 : f32
  } -> tensor<1x1000xf32>
  %cst_420 = arith.constant 0xFF800000 : f32
  %852 = linalg.init_tensor [1] : tensor<1xf32>
  %853 = linalg.fill ins(%cst_420 : f32) outs(%852 : tensor<1xf32>) -> tensor<1xf32>
  %854 = linalg.generic {indexing_maps = [#map3, #map4], iterator_types = ["parallel", "reduction"]} ins(%851 : tensor<1x1000xf32>) outs(%853 : tensor<1xf32>) {
  ^bb0(%arg1: f32, %arg2: f32):
    %868 = arith.maxf %arg1, %arg2 : f32
    linalg.yield %868 : f32
  } -> tensor<1xf32>
  %855 = linalg.init_tensor [1, 1000] : tensor<1x1000xf32>
  %856 = linalg.generic {indexing_maps = [#map4, #map3], iterator_types = ["parallel", "parallel"]} ins(%854 : tensor<1xf32>) outs(%855 : tensor<1x1000xf32>) {
  ^bb0(%arg1: f32, %arg2: f32):
    linalg.yield %arg1 : f32
  } -> tensor<1x1000xf32>
  %857 = linalg.init_tensor [1, 1000] : tensor<1x1000xf32>
  %858 = linalg.generic {indexing_maps = [#map3, #map3, #map3], iterator_types = ["parallel", "parallel"]} ins(%851, %856 : tensor<1x1000xf32>, tensor<1x1000xf32>) outs(%857 : tensor<1x1000xf32>) {
  ^bb0(%arg1: f32, %arg2: f32, %arg3: f32):
    %868 = arith.subf %arg1, %arg2 : f32
    linalg.yield %868 : f32
  } -> tensor<1x1000xf32>
  %859 = linalg.init_tensor [1, 1000] : tensor<1x1000xf32>
  %860 = linalg.generic {indexing_maps = [#map3, #map3], iterator_types = ["parallel", "parallel"]} ins(%858 : tensor<1x1000xf32>) outs(%859 : tensor<1x1000xf32>) {
  ^bb0(%arg1: f32, %arg2: f32):
    %868 = math.exp %arg1 : f32
    linalg.yield %868 : f32
  } -> tensor<1x1000xf32>
  %cst_421 = arith.constant 0.000000e+00 : f32
  %861 = linalg.init_tensor [1] : tensor<1xf32>
  %862 = linalg.fill ins(%cst_421 : f32) outs(%861 : tensor<1xf32>) -> tensor<1xf32>
  %863 = linalg.generic {indexing_maps = [#map3, #map4], iterator_types = ["parallel", "reduction"]} ins(%860 : tensor<1x1000xf32>) outs(%862 : tensor<1xf32>) {
  ^bb0(%arg1: f32, %arg2: f32):
    %868 = arith.addf %arg1, %arg2 : f32
    linalg.yield %868 : f32
  } -> tensor<1xf32>
  %864 = linalg.init_tensor [1, 1000] : tensor<1x1000xf32>
  %865 = linalg.generic {indexing_maps = [#map4, #map3], iterator_types = ["parallel", "parallel"]} ins(%863 : tensor<1xf32>) outs(%864 : tensor<1x1000xf32>) {
  ^bb0(%arg1: f32, %arg2: f32):
    linalg.yield %arg1 : f32
  } -> tensor<1x1000xf32>
  %866 = linalg.init_tensor [1, 1000] : tensor<1x1000xf32>
  %867 = linalg.generic {indexing_maps = [#map3, #map3, #map3], iterator_types = ["parallel", "parallel"]} ins(%860, %865 : tensor<1x1000xf32>, tensor<1x1000xf32>) outs(%866 : tensor<1x1000xf32>) {
  ^bb0(%arg1: f32, %arg2: f32, %arg3: f32):
    %868 = arith.divf %arg1, %arg2 : f32
    linalg.yield %868 : f32
  } -> tensor<1x1000xf32>
  return %867 : tensor<1x1000xf32>
}


}